best_model.pt (torch, 369570 bytes, 16 tensors)

conv1.lin_neigh.weight f4 [64, 769]
-0.019870404 -0.03247594 -0.02280432 0.030040909 0.013538036 0.028013755 0.026383633 -0.031221954
-0.024010982 0.024608128 0.012960123 -0.02020013 -0.0030854961 0.020624693 -0.032286342 0.016036002
-0.016540766 -0.028320972 0.009393207 0.03484901 -0.02876167 -0.014781143 -0.034751613 0.025738686
-0.0072062686 0.02894534 0.030085078 0.003425972 -0.008133476 0.034163773 0.0064294348 0.036279593
-0.025717543 -0.023540998 0.0069496534 0.007522969 0.012764483 -0.02422357 -0.011568314 0.031552438
0.021167625 -0.01583955 -0.014982675 0.02585212 0.006337889 0.033955716 -0.023728918 0.018909534
-0.0013414231 -0.0093103945 0.010975511 -0.006125035 -0.019820718 0.009824432 0.018733636 -0.023606194
-0.012139543 0.019754987 0.010266302 -0.015088869 -0.015255563 0.019497406 -0.036169983 -0.015953593
-0.017916221 0.002581302 0.025312198 -0.03127887 0.01119582 -0.025070058 0.030886484 0.019558165
0.033783186 0.020257488 -0.0332937 0.006783255 0.03641934 -0.0048510064 0.01804739 -0.03239335
0.008304316 -0.023243124 0.011932233 0.014415525 0.012370911 0.010602141 0.026247537 0.010712493
-0.002822324 -0.011340548 -0.01669671 -0.0077149933 -0.021990899 0.016768515 0.005696511 0.033176318
-0.025485117 0.007965044 0.007829639 -0.0052082855 0.0022477026 -0.007646759 -0.00040940748 0.034177624
-0.00946911 -0.013978303 0.016245719 -0.007791013 0.012450799 -0.033375133 -0.008169857 -0.035918936
-0.03181704 -0.032011833 -0.0136710275 0.025127808 0.006107211 0.014871301 0.009659834 0.004292989
-0.0022045695 0.02838452 0.026321536 0.017686374 -0.010090983 0.014273278 -0.014475533 0.014720514
-0.004638363 0.0046196715 -0.016406413 0.035109293 0.02046897 -0.02514099 -0.02480404 0.027694998
-0.024481809 0.0040682643 0.0023900515 -0.0081875585 0.0044119875 0.021843933 -0.022668028 0.032649122
-0.025119388 0.0036771926 0.027383978 0.02499728 0.012660181 0.01717402 0.031768985 -0.018573575
0.029839415 0.026657347 0.0060534575 0.036109023 -0.0007813737 -0.026943969 0.029922208 0.03117608
0.021485591 0.013888669 0.017373703 -0.019512044 -0.0148445405 0.027579414 0.024379827 -0.035520133
-0.028056892 0.016301721 0.036412567 -0.0019032621 0.007648157 -0.013428254 -0.0067548756 -0.015833132
0.007892484 -0.020792875 -0.00833183 0.03294997 -0.027331194 0.02522769 0.020879313 0.031535875
0.01771198 0.017993148 -0.011722565 -0.026483646 -0.025544683 -0.03138248 -0.011576448 0.013743647
-0.014685057 -0.021756614 -0.024563545 -0.017300116 -0.02091302 -0.01491168 -0.0022972906 -0.020604754
0.011900081 -0.03060733 -0.009769531 -0.025989633 -0.022896273 0.027479924 0.02127311 0.0144310165
0.029456887 -0.029761352 -0.02808818 0.00015358358 0.029217348 0.017541567 -0.018255707 -0.021347597
0.01964837 -0.01843329 0.028376382 -0.023967212 -0.015761564 0.03612287 -0.021930197 -0.007385855
0.02686835 0.022792857 -0.009518572 -0.012646027 0.008016509 4.4737397e-05 0.026356265 -0.010582394
-0.020056797 -0.0051401616 0.0022556519 0.0042623524 0.030182261 -0.01391384 -0.005336522 -0.024042396
-0.01805061 0.012276274 -0.017519746 0.02053079 0.025306547 0.0019461258 -0.011766971 0.008382328
0.021059599 -0.00816988 0.0006983093 0.0011899632 -0.0063406895 -0.013239123 9.389148e-05 -0.02542562
00000000: 42c7 a2bc 7e05 05bd 20d0 babc 5a18 f63c
00000010: a3ce 5d3c 1a7d e53c 7d22 d83c 2fc5 ffbc
00000020: aeb2 c4bc fc96 c93c b256 543c be7a a5bc
00000030: 0936 4abb 1ef5 a83c af3e 04bd ef5d 833c
00000040: 8080 87bc 6201 e8bc f7e5 193c d6bd 0e3d
00000050: 989d ebbc 9b2c 72bc b557 0ebd f0d9 d23c
00000060: 9022 ecbb c71e ed3c fb74 f63c 4686 603b
00000070: 4542 05bc 50ef 0b3d 02ae d23b e999 143d
00000080: 99ad d2bc 0dd9 c0bc ebb9 e33b 3d83 f63b
00000090: 1f22 513c 8270 c6bc 0789 3dbc 213d 013d
000000a0: ba67 ad3c f2c1 81bc e579 75bc d3c7 d33c
000000b0: 11ae cf3b 2615 0b3d 2663 c2bc 2be8 9a3c
000000c0: b1d2 afba a08a 18bc a1d2 333c 85b4 c8bb
000000d0: 0f5f a2bc a8f6 203c 4877 993c c761 c1bc
000000e0: efe4 46bc 36d5 a13c fe33 283c 4e37 77bc
000000f0: 78f2 79bc 06b9 9f3c fa26 14bd 1cb1 82bc
00000100: 0ac5 92bc 102b 293b 875b cf3c 461e 00bd
00000110: ac6e 373c b95f cdbc a705 fd3c 7238 a03c
00000120: 3d60 0a3d 08f3 a53c fa5e 08bd 1146 de3b
00000130: 722c 153d 31f5 9ebb 1fd8 933c e4ae 04bd
00000140: d30e 083c 5d68 bebc 6a7f 433c 182f 6c3c
00000150: 5daf 4a3c 9ab4 2d3c 1305 d73c 7483 2f3c
00000160: bdf6 38bb b5cd 39bc 8ac7 88bc 0ece fcbb
00000170: 4226 b4bc 205e 893c cca9 ba3b e4e3 073d
00000180: 2ac6 d0bc d17f 023c e347 003c 44aa aabb
00000190: 314e 133b aa91 fabb bea5 d6b9 d6fd 0b3d
000001a0: 5324 1bbc 4105 65bc be15 853c c14b ffbb
000001b0: 70fe 4b3c 5db4 08bd ddda 05bc bc1f 13bd
000001c0: 9652 02bd d71e 03bd 72fc 5fbc d5d8 cd3c
000001d0: 001f c83b c2a6 733c 4844 1e3c 34ac 8c3b
000001e0: 8a7a 10bb a786 e83c 43a0 d73c 04e3 903c
000001f0: a654 25bc 78da 693c c92a 6dbc 502e 713c
00000200: 69fd 97bb 9d60 973b be66 86bc c3ce 0f3d
00000210: 8bae a73c 7af4 cdbc d831 cbbc 9fe0 e23c
00000220: 138e c8bc 134f 853b 69a2 1c3b 1c25 06bc
00000230: 6f92 903b 0cf2 b23c 4db2 b9bc 16bb 053d
00000240: 2dc7 cdbc 0efd 703b 5d54 e03c 19c7 cc3c
00000250: a66c 4f3c 88b0 8c3c 3220 023d 9c27 98bc
00000260: ca71 f43c 8260 da3c 155c c63b 0ee7 133d
00000270: 1ad5 4cba 99b9 dcbc 6b1f f53c fb64 ff3c
00000280: 8d02 b03c 4d8d 633c 4c53 8e3c b9d7 9fbc
00000290: 8436 73bc 39ee e13c 34b8 c73c 8f7d 11bd
000002a0: 91d7 e5bc 308b 853c 5825 153d e176 f9ba
000002b0: 649d fa3b 2e02 5cbc 0158 ddbb 7cb4 81bc
000002c0: 7a4f 013c d255 aabc 3a82 08bc 8cf6 063d
000002d0: abe5 dfbc 4daa ce3c 180b ab3c c32b 013d
000002e0: b718 913c 5e66 933c 0010 40bc 3bf4 d8bc
000002f0: 1543 d1bc ea8a 00bd 24ab 3dbc 092d 613c
00000300: 9899 70bc ed3a b2bc 7d39 c9bc f9b8 8dbc
00000310: c851 abbc 1e50 74bc 248e 16bb 4dcb a8bc
00000320: 8ff8 423c 39bc fabc 6210 20bc 36e8 d4bc
00000330: f790 bbbc 941d e13c f244 ae3c 1270 6c3c
00000340: 924f f13c 14ce f3bc 2f19 e6bc 470b 2139
00000350: 3859 ef3c 55b3 8f3c fe8c 95bc 28e1 aebc
00000360: 9ef5 a03c 6901 97bc 9675 e83c e356 c4bc
00000370: 651e 81bc 93f5 133d f5a6 b3bc 0b05 f2bb
00000380: 041b dc3c 16b8 ba3c c9f3 1bbc 4831 4fbc
00000390: ad57 033c 6aa4 3b38 18e9 d73c c761 2dbc
000003a0: 274e a4bc cd6e a8bb 8fd3 133b 34ab 8b3b
000003b0: ca40 f73c e0f6 63bc fedd aebb 8ff4 c4bc
000003c0: dfde 93bc 6d22 493c 9285 8fbc 3030 a83c
000003d0: ad4f cf3c 2515 ff3a 41ca 40bc 0856 093c
000003e0: 2e85 ac3c f6da 05bc be0e 373a 8af8 9b3a
000003f0: 8fc5 cfbb e8e8 58bc 9be7 c438 6449 d0bc

conv1.lin_neigh.bias f4 [64]
0.023938255 -0.0141292205 0.020525644 -0.026841542 -0.018189516 -0.020836817 0.0080027785 -0.029619684
0.027743937 -0.009731818 0.020489527 -0.027178437 0.024973376 -0.0011266542 -0.027779426 -0.020782378
0.032449912 -0.008696607 -0.03392621 0.02507667 -0.034344405 -0.019771297 -0.03338049 0.027468788
0.028963365 0.002988481 0.028473068 0.030360049 -0.017731126 -0.03269207 -0.03030372 0.013492734
-0.017486675 -0.0009417927 0.020541148 -0.016392425 0.010882163 0.02191173 -0.029275944 -0.01276814
-0.0011463425 -0.009729566 0.030757656 0.0171464 0.03313241 -0.033300303 -0.020497363 -0.010655493
0.0154443765 -0.027544765 -0.010093976 0.034815818 -0.0017558656 0.025772648 -0.0017567294 0.030771008
0.0071043377 0.03671789 0.023867192 -0.0044870903 -0.007029857 0.008252905 0.032582555 -0.01995123
00000000: 291a c43c 3f7e 67bc 6525 a83c cbe2 dbbc
00000010: 2e02 95bc f9b1 aabc 161e 033c fba4 f2bc
00000020: 4147 e33c 3472 1fbc a7d9 a73c 50a5 debc
00000030: f794 cc3c 3eac 93ba ae91 e3bc ce3f aabc
00000040: 33ea 043d 377c 0ebc 36f6 0abd 976d cd3c
00000050: b8ac 0cbd 6af7 a1bc fbb9 08bd 3906 e13c
00000060: 9444 ed3c 64da 433b 5a40 e93c a3b5 f83c
00000070: de40 91bc 1fe8 05bd 823f f8bc a110 5d3c
00000080: 3740 8fbc a3e2 76ba e945 a83c 6849 86bc
00000090: 1a4b 323c 3a80 b33c 1bd4 efbc 7631 51bc
000000a0: df40 96ba c268 1fbc 7bf7 fb3c 9b76 8c3c
000000b0: dab5 073d e665 08bd 16ea a7bc 6094 2ebc
000000c0: 690a 7d3c 8fa5 e1bc 3461 25bc 089b 0e3d
000000d0: 1325 e6ba 2921 d33c 0f42 e6ba 7b13 fc3c
000000e0: 81cb e83b 8065 163d 2185 c33c 7108 93bb
000000f0: b75a e6bb 3137 073c 4975 053d c370 a3bc

conv1.lin_self.weight f4 [64, 385]
-0.04854666 -0.043119114 -0.04540235 -0.04683641 -0.017307373 -0.033153202 -0.0469993 0.034190755
0.025973147 -0.00191741 -0.036002662 0.0057632974 0.028209722 -0.04315454 0.028492546 0.0053721806
0.023857856 0.007826192 -0.011042364 0.020957364 -0.018427392 -0.00690851 -0.0018987707 0.03763549
-0.021080803 -0.005479832 -0.041699816 0.034635488 0.045987315 0.0067979833 0.0022950503 -0.036726687
-0.036596768 -0.019090764 -0.037426062 -0.012838391 -0.048074927 0.049275976 -0.015807854 -0.031950776
-0.005430473 -0.046384245 -0.0027635454 -0.041699067 0.018098237 -0.04639432 0.032628246 -0.03361767
0.048738033 0.014729413 0.011566631 -0.011649372 0.04180916 -0.035128076 0.029505767 -0.019256258
-0.047619343 0.011645638 -0.05178499 0.0014216912 0.04011692 0.037740488 0.015091181 -0.0062951613
0.010478001 0.012637388 0.02510522 -0.014801095 -0.026976572 -0.0020520526 0.012184053 -0.032631844
-0.045777414 0.020218829 0.04825636 0.049194247 -0.019810965 -0.0029222283 0.0057660355 -0.012213056
0.05162391 -0.044750333 0.0018992247 0.0022760583 -0.0055365562 -0.0038930268 0.0398076 0.014824865
0.046496067 0.019317165 0.014833618 0.050269037 -0.021694655 0.0017017971 -0.036766995 0.02327691
-0.02493209 0.03366127 0.026982991 0.0409614 0.002798797 -0.007871385 0.00815918 0.004673318
-0.006361321 -0.00020135721 -0.038672138 -0.00102454 0.020414392 0.027785638 -0.044032916 -0.024238028
-0.029317139 -0.0086841695 0.019947143 0.03572292 -0.018697312 0.009557834 -0.050329458 -0.013795961
0.036291745 -0.03296372 -0.0345579 -0.013367375 -0.018770466 0.0076121455 0.015061683 0.007897265
-0.040277373 -0.012057755 0.043428063 0.034380455 -0.031015044 0.04289893 -0.037833497 0.013967559
-0.026563188 -0.0034793282 0.0347147 0.023731876 -0.01199673 -0.025223322 -0.01018128 0.013652214
-0.03982508 -0.015809687 -0.0485987 -0.011777833 0.026876412 -0.048375808 0.00089281 0.045456696
0.018620254 -0.032934163 -0.047942523 -0.01764575 0.044934098 0.023440838 0.021632383 -0.037946697
0.007679945 0.020696986 -0.001695779 0.04698294 -0.0008300523 0.047509428 -0.043917168 -0.03785476
0.01834579 -0.010746539 0.012925194 0.017476484 0.020435272 0.041023906 0.031186163 -0.0074849385
0.009384793 -0.02439309 0.043569896 0.05132452 0.008720129 -0.029042905 -0.026734727 -0.017769054
-0.024025852 0.010781661 -0.014345294 -0.046747807 0.0046096193 -0.03530552 -0.025977546 -0.04426423
0.0027117368 0.028332599 -0.04442369 0.011845438 0.03742313 -0.033620358 -0.034643155 -0.032792076
-0.036579877 -0.0033772097 0.03606588 -0.0055389535 0.046361774 0.049168937 -0.043538995 0.03462081
-0.035720076 -0.041185934 0.049256355 0.019147277 0.04434928 0.025817864 0.0068425727 -0.012448235
-0.012020906 0.00707824 0.026700644 -0.03871756 0.03696968 0.051033575 0.006838872 -0.043606408
-0.036327213 0.050518513 -0.047251444 0.03908044 0.047764935 0.028133878 -0.018443426 -0.027577566
0.048554007 -0.017700363 0.014588466 -0.008232705 0.0018878414 -0.028826186 -0.010755539 -0.02756415
-0.044394314 0.041885484 0.0049970965 0.03827144 -0.023774542 -0.031567212 0.027814081 0.011294715
0.010295389 -0.017762493 0.04228042 -0.03172878 -0.035168823 -0.028513812 -0.038207013 0.028399255
00000000: ddd8 46bd ab9d 30bd d1f7 39bd 89d7 3fbd
00000010: 31c8 8dbc a7cb 07bd 5782 40bd 9b0b 0c3d
00000020: a3c5 d43c 9a51 fbba 8777 13bd 0bda bc3b
00000030: 1318 e73c d1c2 30bd 3369 e93c 1e09 b03b
00000040: 8d71 c33c 6e39 003c 08eb 34bc c7ae ab3c
00000050: 0bf5 96bc c860 e2bb 2ce0 f8ba ac27 1a3d
00000060: a6b1 acbc 2a90 b3bb 6dcd 2abd f1dd 0d3d
00000070: 325d 3c3d 9ec1 de3b 8e68 163b b96e 16bd
00000080: 7ee6 15bd 3c64 9cbc 124c 19bd 1d58 52bc
00000090: 37ea 44bd 9bd5 493d 797f 81bc d1de 02bd
000000a0: 1cf2 b1bb 68fd 3dbd 991c 35bb a4cc 2abd
000000b0: c142 943c f807 3ebd 32a5 053d afb2 09bd
000000c0: 88a1 473d a353 713c f781 3d3c 02dd 3ebc
000000d0: 1540 2b3d 75e2 0fbd 14b6 f13c 4dbf 9dbc
000000e0: 800c 43bd 59cd 3e3c 7f1c 54bd 0a58 ba3a
000000f0: a451 243d c595 1a3d 0041 773c a447 cebb
00000100: ecab 2b3c 0c0d 4f3c 76a9 cd3c 4b80 72bc
00000110: f9fd dcbc bb7b 06bb 9f9f 473c f8a8 05bd
00000120: 1981 3bbd f5a1 a53c 76a8 453d e87f 493d
00000130: 9b4a a2bc db82 3fbb 03f1 bc3b 4519 48bc
00000140: 9873 533d 204c 37bd 68ef f83a ec29 153b
00000150: 006c b5bb 2722 7fbb 4b0d 233d fee3 723c
00000160: a972 3e3d 083f 9e3c b408 733c e8e6 4d3d
00000170: fdb8 b1bc d60e df3a fd98 16bd 38af be3c
00000180: 623e ccbc 66e0 093d 6f0b dd3c 24c7 273d
00000190: 066c 373b fbf6 00bc 15ae 053c a222 993b
000001a0: a172 d0bb 6a23 53b9 ad66 1ebd dc49 86ba
000001b0: 153c a73c b59e e33c dc5b 34bd d48e c6bc
000001c0: 7f2a f0bc 0c48 0ebc 3168 a33c 3252 123d
000001d0: 1b2b 99bc 7698 1c3c 4326 4ebd 7408 62bc
000001e0: a7a6 143d f704 07bd 968c 0dbd d602 5bbc
000001f0: 85c4 99bc 4e6f f93b 47c5 763c 8863 013c
00000200: e3f9 24bd e48d 45bc a0e1 313d 85d2 0c3d
00000210: 4313 febc cab6 2f3d 4cf7 1abd 30d8 643c
00000220: 0b9b d9bc 7105 64bb 0031 0e3d 5a69 c23c
00000230: ef8d 44bc 24a1 cebc 62cf 26bc 89ad 5f3c
00000240: a01f 23bd 5183 81bc 6e0f 47bd d0f7 40bc
00000250: ec2b dc3c b625 46bd 770b 6a3a cd30 3a3d
00000260: 8189 983c f9e5 06bd 615f 44bd d28d 90bc
00000270: d10c 383d 0007 c03c 6536 b13c ff6d 1bbd
00000280: 0ca8 fb3b ba8c a93c e744 deba 2f71 403d
00000290: de97 59ba 3f99 423d 7de2 33bd 980d 1bbd
000002a0: e949 963c 4012 30bc 31c4 533c d82a 8f3c
000002b0: df67 a73c af08 283d 207a ff3c 3744 f5bb
000002c0: adc2 193c 04d4 c7bc 5976 323d a939 523d
000002d0: dfde 0e3c 63eb edbc c902 dbbc 6890 91bc
000002e0: ddd1 c4bc 90a5 303c 8608 6bbc a17a 3fbd
000002f0: 4a0c 973b 859c 10bd ddce d4bc 694e 35bd
00000300: 65b7 313b c419 e83c 9df5 35bd 5e13 423c
00000310: ff48 193d 80b5 09bd fbe5 0dbd fc50 06bd
00000320: c8d4 15bd 2d54 5dbb d1b9 133d 1c80 b5bb
00000330: d8e5 3d3d 5e65 493d f255 32bd 8dce 0d3d
00000340: 374f 12bd 95b2 28bd 08c1 493d c0da 9c3c
00000350: 97a7 353d fc7f d33c a937 e03b aff3 4bbc
00000360: 56f3 44bc 95f0 e73b 4fbb da3c 4e96 1ebd
00000370: 856d 173d 9508 513d 9e18 e03b a29c 32bd
00000380: d8cb 14bd 80ec 4e3d bb8a 41bd d012 203d
00000390: 2aa5 433d 0579 e63c ab16 97bc 59ea e1bc
000003a0: 91e0 463d 5a00 91bc 7604 6f3c 78e2 06bc
000003b0: 7271 f73a e524 ecbc 0038 30bc 36ce e1bc
000003c0: d0d6 35bd 1d90 2b3d afbe a33b 83c2 1c3d
000003d0: d4c2 c2bc 9f4c 01bd 5bda e33c 780d 393c
000003e0: fead 283c a682 91bc 3c2e 2d3d 0af6 01bd
000003f0: 2f0d 10bd cc95 e9bc f57e 1cbd 8ea5 e83c

conv1.lin_self.bias f4 [64]
0.04768811 -0.028921867 -0.031294722 0.032649938 0.012054638 0.029196508 -0.0022319811 -0.048103437
0.012889037 0.015842017 0.038481805 0.03434985 -0.03561624 0.023792269 0.049097136 0.040036194
-0.023507068 -0.014764075 -0.0043327524 0.04675518 0.031617418 -0.049440924 -0.035224672 0.009504874
0.0031032714 0.030887248 0.005795286 0.022254273 0.004126739 -0.029302547 0.050648298 -0.01868134
0.046319447 -0.047910623 -0.040419772 -0.0034744523 0.0018002051 0.0006761328 0.04808353 0.040359493
0.0023704402 0.027400129 -0.03142051 0.047834013 0.040096823 0.031401787 -0.032821458 0.024281397
0.03888933 0.040763617 -0.049552947 0.018542374 -0.006829566 -0.050720032 0.03583892 -0.008950509
0.0048763887 -0.024760304 -0.03699531 0.019544825 0.024932288 0.01398483 -0.029843656 0.040683564
00000000: 9c54 433d 8ded ecbc e52e 00bd f1bb 053d
00000010: d180 453c 842d ef3c 6e46 12bb 1c08 45bd
00000020: 8a2c 533c 1ec7 813c 199f 1d3d 6eb2 0c3d
00000030: 56e2 11bd 01e8 c23c 141a 493d fefc 233d
00000040: e591 c0bc 05e5 71bc c3f9 8dbb 5c82 3f3d
00000050: 4481 013d 9182 4abd bf47 10bd 55ba 1b3c
00000060: 4160 4b3b 4107 fd3c 62e6 bd3b 984e b63c
00000070: 9939 873b e50b f0bc 9774 4f3d 9c09 99bc
00000080: 76b9 3d3d ee3d 44bd 348f 25bd a3b3 63bb
00000090: dcf4 eb3a 813e 313a 3cf3 443d ff4f 253d
000000a0: 6359 1b3b 3c76 e03c cbb2 00bd 99ed 433d
000000b0: 913c 243d 299f 003d cb6f 06bd c8e9 c63c
000000c0: 6b4a 1f3d c0f7 263d 08f8 4abd 2de6 973c
000000d0: 8dca dfbb cfbf 4fbd d5cb 123d 28a5 12bc
000000e0: 1dca 9f3b 1fd6 cabc 6588 17bd 781c a03c
000000f0: cc3e cc3c a120 653c af7a f4bc cfa3 263d

conv2.lin_neigh.weight f4 [32, 448]
-0.047101546 0.030992612 0.025160639 0.010913858 0.038928024 0.019017797 0.0385721 -0.043133628
-0.022649424 0.01844288 -0.013288247 0.0062621073 -0.015040703 -0.021861585 0.012676923 -0.022545947
-0.040712405 -0.048143078 -0.045947682 -0.012112875 -0.014804608 -0.016284304 -0.0037925993 0.037965186
0.030277837 -0.014480987 0.0121922735 0.013911499 0.035782844 0.043312483 -0.020956578 0.00974854
-0.0060733077 -0.009377366 -0.019261677 -0.021406902 -0.0022951183 -0.034800783 -0.038081106 -0.02274015
-0.0007802249 0.0029122408 0.04375869 0.004335639 -0.013532037 0.043078855 0.02630466 -0.04175472
-0.014856253 -0.018291192 -0.024943147 -0.021842236 -0.029255046 -0.044102743 0.024086628 -0.044337146
0.032518256 0.003418812 -0.0055442466 0.043452147 -0.0350646 0.009641731 -0.033701234 0.0054927054
-0.0026552835 0.03230993 -0.03966794 -0.011927334 0.026838146 0.024390535 0.034150608 0.0364105
-0.00940495 -0.03134915 -0.022093162 -0.018928286 -0.021646935 -0.021488238 0.028919611 0.014657889
-0.001627976 -0.041080777 0.027918555 -0.030625237 -0.037621293 0.008191814 -0.013298721 0.007980289
-0.034059662 -0.011994034 -0.010488944 -0.042585295 -0.019331623 -0.003788865 -0.032003038 0.0019937798
-0.03401273 -0.042244736 0.01610323 -0.04295936 -0.006951986 0.01929126 0.025916003 0.008536906
0.019238824 0.022846252 -0.024072982 0.032401662 -0.020703828 -0.027555218 0.039701853 -0.022917144
-0.023434428 -0.029880501 0.035725053 -0.04254717 -0.020748053 -0.03779489 0.01932244 -0.0029818513
0.024502924 -0.0020381955 -0.014076765 0.044890128 0.046786375 0.0049957936 0.029893657 0.043192636
0.015138445 0.010484305 -0.018375715 0.027344923 -0.003299293 -0.041783936 -0.023278626 -0.020115389
0.039823063 0.0068551986 -0.03264217 -0.025472404 0.010377997 0.033362366 0.044404007 -0.005450783
0.027227072 -0.020497045 0.004977654 -0.04596211 -0.009421343 -0.0376106 0.04497015 0.029398676
0.012089314 -0.03642848 -0.03900014 0.019935066 0.039958045 0.012127254 -0.040109128 0.01368424
-0.011982827 0.042041365 0.03552871 0.023684483 0.0057426067 -0.030480389 0.030100554 0.005040265
-0.02473144 -0.012823123 -0.032433614 0.009266837 -0.04047595 -0.019478478 0.041052647 -0.036635146
0.019122846 0.015110264 0.029039623 0.016020257 0.0066664047 -0.0024297226 0.010486154 0.024449022
0.0104525965 -0.0005929011 0.014310147 0.044584293 -0.04328629 -0.03780851 -0.027563613 0.036595695
0.03437438 -0.0384501 -0.017017717 -0.016362129 0.026276002 0.04368045 -0.020699194 0.042749673
0.0047550737 -0.0032314686 -0.029082512 -0.04775827 0.019286476 -0.0017015196 -0.0255941 -0.03765842
0.033782963 0.039970316 0.014412078 -0.04451624 0.030387409 -0.038258784 0.026991896 0.01971801
-0.008328429 -0.02507896 0.033508983 -0.010609449 0.022106044 0.024023596 -0.01819619 -0.011506496
0.0077447183 -0.008525246 -0.015363566 -0.010852608 0.00790763 0.009406155 -0.005061962 0.031702135
-0.034636445 -0.047980156 -0.012165605 -0.030729147 0.011997664 0.0319689 0.028157055 0.036402173
-0.0213699 -0.008769546 0.020247536 -0.030743532 -0.008023102 0.008727229 -0.024946293 0.04061247
0.012595786 0.022739256 -0.024723196 -0.0022015101 -0.024163553 0.032921113 0.005609526 -0.038050793
00000000: 8ded 40bd 38e4 fd3c af1d ce3c 0ad0 323c
00000010: fe72 1f3d 36cb 9b3c c7fd 1d3d e3ac 30bd
00000020: 498b b9bc 8615 973c f3b6 59bc 5d32 cd3b
00000030: 486d 76bc 1117 b3bc deb2 4f3c 47b2 b8bc
00000040: 0dc2 26bd ad31 45bd a333 3cbd 1475 46bc
00000050: 078f 72bc a966 85bc 428d 78bb 6281 1b3d
00000060: 3a09 f83c a941 6dbc 1ac2 473c 0eed 633c
00000070: 0891 123d 6e68 313d 21ad abbc 57b8 1f3c
00000080: 9902 c7bb 86a3 19bc aaca 9dbc 875d afbc
00000090: b269 16bb 448b 0ebd effa 1bbd 8d49 babc
000000a0: 0288 4cba 4bdb 3e3b 503c 333d fa11 8e3b
000000b0: 7ab5 5dbc 7473 303d df7c d73c ff06 2bbd
000000c0: a467 73bc 69d7 95bc 9255 ccbc 7dee b2bc
000000d0: 47a8 efbc 14a5 34bd 5251 c53c de9a 35bd
000000e0: dd31 053d 260e 603b 83ac b5bb e1fa 313d
000000f0: e69f 0fbd 5af8 1d3c 4e0a 0abd 27fc b33b
00000100: 4404 2ebb 6b57 043d da7a 22bd dd6a 43bc
00000110: acdb db3c a9ce c73c 82e1 0b3d 2d23 153d
00000120: 3817 1abc f767 00bd b8fc b4bc 7e0f 9bbc
00000130: ea54 b1bc 1a08 b0bc d2e8 ec3c a427 703c
00000140: cf61 d5ba 5144 28bd 74b5 e43c c7e1 fabc
00000150: c918 1abd f536 063c e1e2 59bc c2bf 023c
00000160: 2582 0bbd a082 44bc d2d9 2bbc eb6d 2ebd
00000170: 5a5d 9ebc 9b4e 78bb 9e15 03bd 13aa 023b
00000180: ef50 0bbd d108 2dbd ecea 833c 27f6 2fbd
00000190: 7ccd e3bb b408 9e3c cc4d d43c 61de 0b3c
000001a0: bd9a 9d3c 1028 bb3c b434 c5bc 9bb7 043d
000001b0: 139b a9bc 7bbb e1bc 699e 223d bcbc bbbc
000001c0: 8ff9 bfbc f4c7 f4bc 6f54 123d f145 2ebd
000001d0: d2f7 a9bc d1ce 1abd 184a 9e3c 2a6b 43bb
000001e0: 5bba c83c 3f93 05bb 3ba2 66bc b6de 373d
000001f0: 12a3 3f3d c1b3 a33b 8be3 f43c c3ea 303d
00000200: 3e07 783c 5dc6 2b3c ab88 96bc 7602 e03c
00000210: f438 58bb a225 2bbd d1b2 bebc 07c9 a4bc
00000220: 821d 233d 93a1 e03b ccb3 05bd 81ab d0bc
00000230: 7908 2a3c faa6 083d fae0 353d 7b9c b2bb
00000240: 4f0b df3c 6be9 a7bc 971b a33b c442 3cbd
00000250: fa5b 1abc 930d 1abd 9f32 383d 7ed5 f03c
00000260: 4212 463c 0836 15bd 9cbe 1fbd dd4e a33c
00000270: 0cab 233d 64b1 463c 7849 24bd dd33 603c
00000280: 9f53 44bc 9133 2c3d 8d86 113d f605 c23c
00000290: 7a2c bc3b 02b2 f9bc 7095 f63c cf28 a53b
000002a0: 9799 cabc 1318 52bc 1cd9 04bd eed3 173c
000002b0: 1cca 25bd 5491 9fbc d226 283d bc0e 16bd
000002c0: 84a7 9c3c 0a91 773c 81e4 ed3c ea3c 833c
000002d0: db71 da3b fb3b 1fbb 1ece 2b3c 5149 c83c
000002e0: 5e41 2b3c eb6c 1bba 1b75 6a3c 059e 363d
000002f0: f74c 31bd 19dd 1abd 16cd e1bc 5ee5 153d
00000300: 26cc 0c3d da7d 1dbd bd68 8bbc df09 86bc
00000310: c540 d73c 46ea 323d 5b91 a9bc 481a 2f3d
00000320: 73d0 9b3b 0cc7 53bb 733e eebc 2d9e 43bd
00000330: acfe 9d3c 8605 dfba b8aa d1bc b73f 1abd
00000340: 0160 0a3d eab7 233d a320 6c3c a956 36bd
00000350: 04ef f83c 3eb5 1cbd 1c1e dd3c aa87 a13c
00000360: f773 08bc 6472 cdbc b740 093d 41d3 2dbc
00000370: bc17 b53c 22cd c43c 2d10 95bc be85 3cbc
00000380: 68c7 fd3b 79ad 0bbc 77b7 7bbc 23cf 31bc
00000390: 018f 013c 461c 1a3c d1de a5bb 19da 013d
000003a0: f2de 0dbd d786 44bd 3f52 47bc b1bb fbbc
000003b0: da91 443c d2f1 023d a0a9 e63c 721a 153d
000003c0: ee0f afbc 24ae 0fbc 29de a53c dcd9 fbbc
000003d0: 5473 03bc a7fc 0e3c 2b5c ccbc 4359 263d
000003e0: 8e5e 4e3c ad47 ba3c 4d88 cabc 3647 10bb
000003f0: a5f2 c5bc 4ad8 063d 1dd0 b73b 26db 1bbd

conv2.lin_neigh.bias f4 [32]
0.028859088 0.04429092 0.0026267567 0.023095371 -0.044653352 -0.041813664 0.027210467 -0.0430873
-0.005108677 0.033809844 -0.035309695 -0.04237891 -0.011841853 0.043892723 0.042896394 0.019991977
-0.014145208 -0.025064167 0.03834104 0.005847679 -0.020392139 0.012788951 0.022998657 0.013648215
0.032499596 0.039410636 0.023772273 -0.036288016 -0.01802855 -8.855492e-05 0.012827976 0.028158614
00000000: e569 ec3c 656a 353d aa25 2c3b 8132 bd3c
00000010: 6fe6 36bd ce44 2bbd 7ce8 de3c 4f7c 30bd
00000020: b066 a7bb 317c 0a3d e6a0 10bd 8295 2dbd
00000030: 5504 42bc dbc8 333d 21b4 2f3d 37c6 a33c
00000040: 4dc1 67bc 5e53 cdbc 7f0b 1d3d e39d bf3b
00000050: 6a0d a7bc c088 513c ae67 bc3c c39c 5f3c
00000060: 4c1e 053d 0c6d 213d 12be c23c bea2 14bd
00000070: 9cb0 93bc 90b6 b9b8 6e2c 523c e5ac e63c

conv2.lin_self.weight f4 [32, 64]
-0.015034149 0.10855483 -0.11742879 0.03304379 -0.08833184 0.04827832 0.114959344 0.016223794
-0.091161095 0.1076063 -0.101156875 -0.105371855 0.02324536 -0.025348002 -0.052003574 0.08555357
-0.07590862 -0.0778385 0.024402967 -0.0016582217 0.10651826 -0.006036503 0.03963302 0.05434477
0.049635813 -0.026992382 -0.017970767 -0.012977411 0.10053281 -0.05468248 -0.11702519 0.094440185
0.057993162 -0.0814027 0.020650355 0.017205326 0.08148482 -0.12026762 0.0010742386 0.047019992
0.07936636 0.07579454 -0.08947604 0.005125288 -0.11839173 0.055429447 -0.10943631 -0.02432775
-0.03425885 -0.100944646 -0.11433349 -0.024404012 0.104938805 0.10998308 0.09949408 -0.018672429
0.01402307 -0.034149643 0.08094969 -0.0064017125 -0.0073694102 -0.028081367 0.09722045 0.07433619
0.06940299 0.065130234 0.0012901309 -0.045521017 -0.07727087 -0.050672363 0.0043695006 0.09042547
0.031584907 -0.114324234 0.034047045 -0.12515327 -0.06251724 0.035824005 -0.058296587 0.059996042
0.0897228 0.10287679 -0.085441984 -0.028479023 -0.09096 0.11388848 0.114675395 0.05812146
0.07944152 -0.027124565 -0.06561534 0.08871297 -0.12033067 -0.0131974835 -0.045938056 -0.011159238
0.08625747 -0.00048143786 0.053122465 0.03555691 -0.12557016 -0.040181454 -0.00018261117 0.010885347
-0.09002394 0.024880206 -0.069820836 -0.08609887 0.12142768 0.06190567 -0.008727315 -0.0006445465
-0.11409535 -0.03779104 -0.08035925 -0.031993505 -0.010871646 0.05222205 -0.05754034 0.065412164
-0.05221018 -0.022752164 0.099435076 -0.09750389 -0.09171123 0.12258061 -0.06982396 -0.032101166
0.077939585 0.013539794 0.019875187 0.040437605 -0.11646392 -0.11850504 0.0880003 -0.02715292
-0.018998858 0.011992703 -0.121360525 -0.08532258 -0.03354973 -0.050602358 -0.08910019 0.09699681
0.11082349 0.073270425 0.07899109 -0.108902164 -0.084188685 0.10468615 0.009145425 0.06315286
0.06846666 -0.0030706027 0.022290103 0.03895874 0.10102691 -0.041628163 -0.048768066 0.0026251706
-0.024688374 0.01153673 -0.087260775 0.123811625 0.021163236 -0.08426558 0.017830778 -0.059157897
-0.008134039 -0.0920639 -0.03500844 0.007971699 -0.091384314 0.096917875 0.10667162 0.019135375
-0.06061541 0.0018098563 -0.070072174 0.018232409 -0.10763197 0.05095469 0.0747449 -0.057930715
0.054104887 -0.013702179 0.05919474 -0.01797422 0.09820285 0.08770382 -0.029140642 0.07019047
0.09958527 0.111700736 -0.049030166 -0.07670619 0.04715841 0.00721926 -0.013250764 0.09413901
-0.022308584 -0.122080825 0.06349122 0.02531836 -0.030168273 -0.006146218 -0.023056429 -0.101402275
-0.025117662 0.10311811 -0.11684948 -0.062411558 -0.07283314 0.013896852 -0.11479561 -0.073031016
-0.07241822 0.12310245 0.10535502 -0.07443497 -0.09232367 0.0077808583 0.07746428 -0.09590726
-0.10714287 0.12575561 -0.07845874 -0.037422057 0.014434284 0.065556884 -0.11491821 0.06486214
0.044768307 -0.00074502215 0.12206433 -0.08333864 0.042827927 -0.0560262 0.0046482817 0.051549185
-0.050512265 0.047414277 0.051824477 -0.03745639 -0.045122635 0.06445089 0.019328583 -0.025756326
0.011737277 0.024144579 -0.054494184 0.027229939 -0.1097584 0.0034888585 -0.027913477 -0.10167084
00000000: cb51 76bc ff51 de3d 817e f0bd ed58 073d
00000010: 53e7 b4bd 7dbf 453d ce6f eb3d c3e7 843c
00000020: abb2 babd b160 dc3d 562b cfbd 33cd d7bd
00000030: 0e6d be3c 9da6 cfbc b301 55bd b636 af3d
00000040: fb75 9bbd cb69 9fbd bbe8 c73c b058 d9ba
00000050: 3f26 da3d dbcd c5bb 3c56 223d 9f98 5e3d
00000060: ec4e 4b3d 211f ddbc 6e37 93bc 359f 54bc
00000070: 25e4 cd3d bcfa 5fbd e7aa efbd db69 c13d
00000080: 3d8a 6d3d 75b6 a6bd ef2a a93c 2ff2 8c3c
00000090: 83e1 a63d df4e f6bd 77cd 8c3a 0998 403d
000000a0: d58a a23d 2b3a 9b3d 373f b7bd 08f2 a73b
000000b0: 5d77 f2bd fd09 633d 2520 e0bd fd4a c7bc
000000c0: 0253 0cbd 11bc cebd ad27 eabd ecea c7bc
000000d0: 28ea d63d cf3e e13d 8dc3 cb3d ecf6 98bc
000000e0: 05c1 653c 7fe0 0bbd f3c8 a53d 75c5 d1bb
000000f0: 187b f1bb e50a e6bc 841b c73d 933d 983d
00000100: 2823 8e3d 0063 853d 9c19 a93a 3f74 3abd
00000110: 3140 9ebd d38d 4fbd 072e 8f3b fd30 b93d
00000120: 2d5f 013d d322 eabd ea74 0b3d 2e28 00be
00000130: 0a09 80bd 31bc 123d 67c8 6ebd 69be 753d
00000140: 96c0 b73d 11b1 d23d 35fc aebd d74c e9bc
00000150: 3d49 babd 5d3e e93d efda ea3d c510 6e3d
00000160: 3cb2 a23d 5634 debc 5661 86bd 25af b53d
00000170: ed6f f6bd 423a 58bc 8b29 3cbd 3dd5 36bc
00000180: c2a7 b03d 7f69 fcb9 f196 593d 1fa4 113d
00000190: 7795 00be 4f95 24bd 507b 3fb9 7458 323c
000001a0: 795e b8bd 93d1 cb3c 3afe 8ebd 9b54 b0bd
000001b0: 13af f83d cd90 7d3d 03fd 0ebc c9f6 28ba
000001c0: d3aa e9bd c7ca 1abd 6493 a4bd 9f0b 03bd
000001d0: fd1e 32bc cae6 553d 6baf 6bbd d0f6 853d
000001e0: 57da 55bd bf62 babc 9ea4 cb3d 1fb0 c7bd
000001f0: 19d3 bbbd 8b0b fb3d ddff 8ebd 837c 03bd
00000200: ca9e 9f3d 03d6 5d3c 4ad1 a23c e7a1 253d
00000210: a384 eebd c5b2 f2bd 8039 b43d cd6f debc
00000220: 7ea3 9bbc 0b7d 443c de8b f8bd 9bbd aebd
00000230: 716b 09bd 6b44 4fbd 297a b6bd 43a6 c63d
00000240: 6df7 e23d ce0e 963d 15c6 a13d 1908 dfbd
00000250: 1e6b acbd b165 d63d b1d6 153c 4956 813d
00000260: 4038 8c3d 2a3c 49bb bc99 b63c 3393 1f3d
00000270: 32e7 ce3d 4b82 2abd 06c1 47bd 0e0b 2c3b
00000280: 463f cabc 8e04 3d3c c7b5 b2bd f390 fd3d
00000290: 865e ad3c 6f93 acbd da11 923c 8d4f 72bd
000002a0: a244 05bc ff8b bcbd 0365 0fbd bb9b 023c
000002b0: b327 bbbd e17c c63d a676 da3d cac1 9c3c
000002c0: dd47 78bd b338 ed3a 0082 8fbd 225c 953c
000002d0: 266e dcbd ddb5 503d db13 993d c248 6dbd
000002e0: 169d 5d3d 1b7f 60bc 2f76 723d ac3e 93bc
000002f0: 931e c93d 0f9e b33d 5bb8 eebc 05c0 8f3d
00000300: 5df3 cb3d 5bc3 e43d dbd3 48bd 2318 9dbd
00000310: 2d29 413d 8b8f ec3b bc19 59bc f4cb c03d
00000320: 7ec0 b6bc 8305 fabd af07 823d 7368 cf3c
00000330: 7423 f7bc 3766 c9bb d6e0 bcbc ffab cfbd
00000340: 8ec3 cdbc 962f d33d c84e efbd 43a3 7fbd
00000350: 8b29 95bd 9faf 633c f619 ebbd 4991 95bd
00000360: 0150 94bd 231d fc3d 5fc4 d73d 5d71 98bd
00000370: 3114 bdbd 92f6 fe3b 98a5 9e3d 076b c4bd
00000380: b96d dbbd 14c6 003e faae a0bd df47 19bd
00000390: c67d 6c3c b042 863d 3d5a ebbd 71d6 843d
000003a0: f95e 373d 974d 43ba ddfc f93d 73ad aabd
000003b0: 566c 2f3d bb7b 65bd 9d50 983b 3d25 533d
000003c0: f3e5 4ebd 7935 423d e745 543d df6b 19bd
000003d0: 83d2 38bd d4fe 833d fa56 9e3c eefe d2bc
000003e0: b54d 403c daca c53c 4b35 5fbd 5211 df3c
000003f0: 03c9 e0bd 55a5 643b ceaa e4bc cd38 d0bd

conv2.lin_self.bias f4 [32]
0.013452161 0.02186771 0.029763225 -0.012357962 -0.09543011 0.0034130989 -0.07260275 -0.021688355
0.026177112 0.011110995 0.058306195 0.06566902 -0.01567344 -0.10933423 -0.071559995 -0.025312658
0.033623327 0.072408944 0.0100781955 -0.0027430193 0.106485486 0.07274914 -0.107369006 0.09441096
-0.119820744 -0.109817736 0.11783463 -0.09041318 -0.08546818 0.049294803 0.086541176 -0.0058942707
00000000: 7466 5c3c e923 b33c 02d2 f33c 0d79 4abc
00000010: dd70 c3bd 4cae 5f3b c0b0 94bd c7ab b1bc
00000020: 6271 d63c e40a 363c 7ad2 6e3d 7b7d 863d
00000030: 9665 80bc a0ea dfbd 0c8e 92bd 7e5c cfbc
00000040: 9db8 093d 244b 943d 041f 253c 3ac4 33bb
00000050: 1015 da3d 80fd 943d 48e4 dbbd 895a c13d
00000060: 9464 f5bd 1fe8 e0bd 4853 f13d 8c2a b9bd
00000070: f109 afbd 59e9 493d 803c b13d ba24 c1bb

bn1.weight f4 [64]
0.999 0.999 0.999 0.999 1.001 1.001 0.999 1.001
0.999 0.999 0.999 0.999 1.001 0.999 0.999 1.0009998
0.999 1.0009999 1.001 0.999 1.001 1.001 1.0009999 0.999
0.999 1.001 0.999 0.999002 0.999 1.0009999 0.999 1.0009999
1.0009996 1.001 0.99900067 0.999 1.001 0.999 1.001 0.999
0.999 0.999 1.001 1.001 1.001 1.001 0.999 1.0009999
1.001 1.0009999 1.001 0.999 0.999 1.001 0.999 0.999
1.001 1.001 1.001 1.0009999 1.001 0.999 1.001 0.999
00000000: 77be 7f3f 77be 7f3f 77be 7f3f 77be 7f3f
00000010: c520 803f c520 803f 77be 7f3f c520 803f
00000020: 77be 7f3f 77be 7f3f 77be 7f3f 77be 7f3f
00000030: c520 803f 77be 7f3f 77be 7f3f c320 803f
00000040: 77be 7f3f c420 803f c520 803f 77be 7f3f
00000050: c520 803f c520 803f c420 803f 77be 7f3f
00000060: 77be 7f3f c520 803f 77be 7f3f 98be 7f3f
00000070: 77be 7f3f c420 803f 77be 7f3f c420 803f
00000080: c120 803f c520 803f 82be 7f3f 77be 7f3f
00000090: c520 803f 77be 7f3f c520 803f 77be 7f3f
000000a0: 77be 7f3f 77be 7f3f c520 803f c520 803f
000000b0: c520 803f c520 803f 77be 7f3f c420 803f
000000c0: c520 803f c420 803f c520 803f 77be 7f3f
000000d0: 77be 7f3f c520 803f 77be 7f3f 77be 7f3f
000000e0: c520 803f c520 803f c520 803f c420 803f
000000f0: c520 803f 77be 7f3f c520 803f 77be 7f3f

bn1.bias f4 [64]
-0.0009999971 -0.0009999955 -0.0009999936 -0.0009999927 0.0009999939 0.0009999954 -0.0009999922 -0.0009999796
-0.0009999917 -0.0009999733 0.00099997 0.0009999935 0.0009999453 0.0009999878 -0.0009997713 0.0009999849
-0.0009999954 -0.0009999841 -0.0009998806 0.0009999089 0.0009999971 0.0009999721 0.0009997172 -0.0009999917
-0.0009999968 0.0009999956 -0.0009999949 -0.0009999934 0.0009999876 0.000999792 -0.0009999977 0.0009999919
-0.0009999725 0.0009999494 -0.0009999418 -0.0009999812 0.000999994 -0.0009999941 0.000999998 -0.000999997
-0.0009999967 -0.0009999904 0.0009999959 0.0009999971 0.0009999919 0.0009999961 -0.0009999973 0.0009999964
0.000999993 0.0009999874 0.0009999733 -0.0009999909 -0.000999998 -0.0009999957 -0.0009999868 -0.0009999967
0.0009999853 0.0009999977 0.0009999853 0.0009999902 0.0009999983 -0.0009999913 0.0009999943 -0.000999995
00000000: 5612 83ba 4812 83ba 3812 83ba 3012 83ba
00000010: 3a12 833a 4712 833a 2c12 83ba bf11 83ba
00000020: 2712 83ba 8911 83ba 6d11 833a 3712 833a
00000030: 9910 833a 0612 833a c20a 83ba ed11 833a
00000040: 4712 83ba e611 83ba 6d0e 83ba 600f 833a
00000050: 5612 833a 7f11 833a f108 833a 2712 83ba
00000060: 5312 83ba 4912 833a 4312 83ba 3612 83ba
00000070: 0412 833a 740b 833a 5b12 83ba 2912 833a
00000080: 8211 83ba bc10 833a 7b10 83ba cd11 83ba
00000090: 3b12 833a 3c12 83ba 5d12 833a 5512 83ba
000000a0: 5212 83ba 1c12 83ba 4b12 833a 5612 833a
000000b0: 2912 833a 4d12 833a 5712 83ba 5012 833a
000000c0: 3212 833a 0212 833a 8911 833a 2012 83ba
000000d0: 5d12 83ba 4a12 83ba fd11 83ba 5212 83ba
000000e0: f011 833a 5b12 833a f011 833a 1a12 833a
000000f0: 6012 833a 2412 83ba 3e12 833a 4412 83ba

bn1.running_mean f4 [64]
0.0051604616 0.00032422782 0.0012014153 0.00313856 0.0033991789 0.0032730275 0.0030042774 0.00018249
0.0021466273 0.0014999578 0.005705062 0.006019141 7.876539e-05 0.0025516674 0.0043483 0.004331355
0.001163697 0.0014907841 9.518323e-05 0.0075124144 0.0024411122 7.4500444e-06 3.3076456e-06 0.005596246
0.0042538177 0.0024714218 0.0030067244 0.0019699081 0.0019017725 2.8023305e-06 0.003228501 0.0010743571
0.0053846384 1.07298865e-05 7.884259e-05 0.00066010613 0.00043640975 0.0019848633 0.0052237324 0.0032295932
0.0012112664 0.0019805937 0.0012603155 0.0038096246 0.006177764 0.00222305 0.00017489649 0.0039995587
0.00092038186 0.004167301 7.4625605e-05 0.003835141 0.0017057079 0.00049726135 0.008661083 0.0023614992
0.00395922 0.0043838224 0.0019226719 0.0021253396 0.0026003425 0.0047156843 0.00014064717 0.008587291
00000000: 1719 a93b 1ffd a939 cf78 9d3a 4db0 4d3b
00000010: c2c4 5e3b 4a80 563b 69e3 443b c95a 3f39
00000020: 6eae 0c3b 3b9a c43a 87f1 ba3b 373c c53b
00000030: d92e a538 e039 273b 2f7c 8e3b 0aee 8d3b
00000040: 3187 983a 6a66 c33a 1c9d c738 b32a f63b
00000050: 11fb 1f3b 65fb f936 ebf8 5d36 b760 b73b
00000060: 9c63 8b3b 94f7 213b 770c 453b 9319 013b
00000070: e544 f93a ac0f 3c36 4295 533b 71d1 8c3a
00000080: 9f71 b03b 8304 3437 4b58 a538 f90a 2d3a
00000090: edcd e439 7b14 023b d82b ab3b 95a7 533b
000000a0: 5bc3 9e3a d9cc 013b 2c31 a53a e5aa 793b
000000b0: d76e ca3b 97b0 113b 6b64 3739 bb0e 833b
000000c0: c845 713a db8d 883b 5180 9c38 fd56 7b3b
000000d0: 0f92 df3a a55a 023a 37e7 0d3c 62c3 1a3b
000000e0: 58bc 813b 2ba6 8f3b 2a02 fc3a 4849 0b3b
000000f0: 826a 2a3b 0786 9a3b b07a 1339 b6b1 0c3c

bn1.running_var f4 [64]
0.9000695 0.90000635 0.9000424 0.90005785 0.90009904 0.90005165 0.9000769 0.9000034
0.900055 0.90002126 0.9001361 0.90008897 0.9000018 0.90005046 0.9001098 0.900083
0.90002865 0.900059 0.9000022 0.9000978 0.90004796 0.90000015 0.90000004 0.90012705
0.9001016 0.90004206 0.9000601 0.9000674 0.90005475 0.90000004 0.9000797 0.9000215
0.9000643 0.9000002 0.90000194 0.9000139 0.900011 0.90003407 0.9001866 0.9000681
0.9000312 0.9000539 0.90004116 0.90007067 0.90017056 0.90007913 0.9000037 0.900057
0.9000235 0.90005773 0.9000033 0.90011376 0.9000324 0.9000142 0.9001976 0.9000739
0.90009165 0.9001376 0.9000538 0.9000584 0.9000575 0.9000679 0.9000037 0.9001055
00000000: f46a 663f d166 663f 2e69 663f 316a 663f
00000010: e46c 663f c969 663f 716b 663f 9f66 663f
00000020: 016a 663f cb67 663f 526f 663f 3b6c 663f
00000030: 8566 663f b569 663f 996d 663f d76b 663f
00000040: 4768 663f 446a 663f 8b66 663f cf6c 663f
00000050: 8b69 663f 6966 663f 6766 663f ba6e 663f
00000060: 0f6d 663f 2869 663f 576a 663f d16a 663f
00000070: fd69 663f 6766 663f a06b 663f cf67 663f
00000080: 9d6a 663f 6a66 663f 8766 663f 5067 663f
00000090: 1f67 663f a268 663f a172 663f dd6a 663f
000000a0: 7268 663f ef69 663f 1969 663f 086b 663f
000000b0: 9471 663f 966b 663f a466 663f 236a 663f
000000c0: f167 663f 2f6a 663f 9e66 663f db6d 663f
000000d0: 8668 663f 5567 663f 5a73 663f 3e6b 663f
000000e0: 686c 663f 6b6f 663f ed69 663f 3a6a 663f
000000f0: 2b6a 663f da6a 663f a466 663f 506d 663f

bn2.weight f4 [32]
0.999 0.999 0.999 0.999 0.999 0.999 0.999 0.999
0.999 0.999 0.999 0.999 0.999 0.999 0.999 0.999
0.999 0.999 0.999 0.999 0.999 0.999 0.999 0.999
0.999 0.999 0.999 0.999 0.999 0.999 0.999 0.999
00000000: 77be 7f3f 77be 7f3f 77be 7f3f 77be 7f3f
00000010: 77be 7f3f 77be 7f3f 77be 7f3f 77be 7f3f
00000020: 77be 7f3f 77be 7f3f 77be 7f3f 77be 7f3f
00000030: 77be 7f3f 77be 7f3f 77be 7f3f 77be 7f3f
00000040: 77be 7f3f 77be 7f3f 77be 7f3f 77be 7f3f
00000050: 77be 7f3f 77be 7f3f 77be 7f3f 77be 7f3f
00000060: 77be 7f3f 77be 7f3f 77be 7f3f 77be 7f3f
00000070: 77be 7f3f 77be 7f3f 77be 7f3f 77be 7f3f

bn2.bias f4 [32]
-0.0009999996 -0.0009999993 -0.0009999996 -0.0009999993 -0.0009999996 -0.0009999995 -0.0009999976 -0.0009999996
-0.0009999996 -0.0009999996 -0.0009999996 -0.0009999997 -0.0009999961 -0.0009999991 -0.0009999995 -0.0009999997
-0.0009999996 -0.0009999995 -0.0009999996 -0.0009999997 -0.0009999995 -0.0009999996 -0.000999999 -0.0009999997
-0.0009999996 -0.0009999996 -0.0009999996 -0.0009999996 -0.0009999996 -0.000999999 -0.0009999996 -0.0009999996
00000000: 6b12 83ba 6912 83ba 6b12 83ba 6912 83ba
00000010: 6b12 83ba 6a12 83ba 5a12 83ba 6b12 83ba
00000020: 6b12 83ba 6b12 83ba 6b12 83ba 6c12 83ba
00000030: 4d12 83ba 6712 83ba 6a12 83ba 6c12 83ba
00000040: 6b12 83ba 6a12 83ba 6b12 83ba 6c12 83ba
00000050: 6a12 83ba 6b12 83ba 6612 83ba 6c12 83ba
00000060: 6b12 83ba 6b12 83ba 6b12 83ba 6b12 83ba
00000070: 6b12 83ba 6612 83ba 6b12 83ba 6b12 83ba

bn2.running_mean f4 [32]
0.02250382 0.0110129705 0.0241461 0.013612452 0.026133506 0.014287958 0.002442988 0.014751545
0.014560099 0.020823969 0.04807111 0.043193366 0.0022018042 0.0048636342 0.019014737 0.02932112
0.027419388 0.013910879 0.019793903 0.027149523 0.017000714 0.03218257 0.005899708 0.046363626
0.01642563 0.023087801 0.02041873 0.018909555 0.028889969 0.0068620793 0.033124294 0.018198593
00000000: ee59 b83c bf6f 343c 0bce c53c c306 5f3c
00000010: ef15 d63c 0a18 6a3c 8a1a 203b 77b0 713c
00000020: 7b8d 6e3c 0797 aa3c 36e6 443d 87eb 303d
00000030: 254c 103b 1f5f 9f3b cbc4 9b3c d832 f03c
00000040: a09e e03c 75ea 633c d326 a23c ad68 de3c
00000050: 1545 8b3c dfd1 033d 5652 c13b c9e7 3d3d
00000060: 0b8f 863c a122 bd3c 2e45 a73c 36e8 9a3c
00000070: a8aa ec3c 4bdb e03b 57ad 073d 3715 953c

bn2.running_var f4 [32]
0.9092459 0.90432316 0.9071255 0.90633917 0.9120981 0.9070612 0.9010144 0.90635324
0.90705466 0.90976965 0.9212841 0.9132199 0.90131575 0.9016073 0.9106155 0.914649
0.9105806 0.9063558 0.9089416 0.9078762 0.9070127 0.9088158 0.9027615 0.9148503
0.9057068 0.90724236 0.90831757 0.906268 0.91087013 0.90305245 0.91151714 0.90724504
00000000: 57c4 683f b981 673f 6039 683f d805 683f
00000010: 437f 693f 2a35 683f e1a8 663f c406 683f
00000020: bc34 683f aae6 683f 46d9 6b3f c8c8 693f
00000030: a1bc 663f bccf 663f 191e 693f 7026 6a3f
00000040: cf1b 693f ef06 683f 66b0 683f 936a 683f
00000050: fc31 683f 27a8 683f 611b 673f a133 6a3f
00000060: 67dc 673f 0941 683f 8087 683f 2e01 683f
00000070: c92e 693f 722e 673f 3059 693f 3641 683f
