best_model.pt (torch, 212898 bytes, 16 tensors)

conv1.lin_neigh.weight f4 [32, 769]
000000 3b 28 08 3d 9d a7 cc 3c 3d 82 65 bb 07 fa f8 3c
       0.03324149 0.024982268 -0.0035020255 0.03039266
000010 e0 db 62 bb ce 54 49 3c 9b 72 be bc 6e e6 bd 3c
       -0.003461592 0.012288285 -0.023248008 0.023181166
000020 8e ed 0e 3d a4 a8 fa bc 6a 49 12 3d df 58 3c 3c
       0.03489452 -0.030597992 0.035714544 0.011495798
000030 c8 df b0 3c f8 d7 02 3b 46 8b 4a 3c 56 3c 2c bc
       0.021591082 0.0019965153 0.012362307 -0.010512432
000040 a4 91 05 3d 18 99 45 3a c7 92 b2 bc 66 71 fe 3b
       0.032609597 0.00075377664 -0.021798505 0.007764983
000050 89 38 9b bc 92 13 1b bc 3e c7 18 bc 5b e4 b4 3c
       -0.018947857 -0.009465115 -0.009324847 0.022081545
000060 78 e8 d3 bc 78 58 af bc 3a 31 ad bb b1 51 b6 bc
       -0.025867686 -0.02140449 -0.0052854093 -0.02225575
000070 92 d6 e2 ba 1d 3b 17 bd 4a 52 e2 3c 53 ea 08 bd
       -0.0017306379 -0.03692161 0.02762713 -0.033426594
000080 d9 ce 01 3d c4 33 2c 3c b5 4e 88 bc fa b9 e0 3c
       0.031691406 0.010510389 -0.016639093 0.02743243
000090 8b 06 38 3c d5 e4 08 3d c3 6c ef 39 d7 1b be bb
       0.011232029 0.033421356 0.00045666666 -0.0058016586
0000a0 ca 7b 14 3c fe 18 6b bc 98 ff 26 3c f1 2f 1a 3d
       0.009062717 -0.01434922 0.010192774 0.037643377
0000b0 60 7c c6 3c c3 58 6f bc 5b fd c5 3c 91 3c da 3a
       0.024229228 -0.014608565 0.02416866 0.001665013
0000c0 5c e5 9c 3c 4d 0b 8a bc b2 fd fd bc c2 09 5b bc
       0.019152336 -0.016851092 -0.03100476 -0.013369026
0000d0 02 b5 06 bd 12 28 c9 3c 0b bf 0d 3c 23 4e 89 3c
       -0.032887466 0.02455524 0.008651505 0.016760891
0000e0 3e 52 18 3c f6 47 54 bb d6 23 ee 3c 64 0c c7 bc
       0.009296952 -0.0032391525 0.029069822 -0.0242979
0000f0 8f 3e df 3b 2e a1 a2 bc 78 75 f7 3b 4b 4a 8f bc
       0.0068128775 -0.019852247 0.007551845 -0.01749148
000100 ad 37 84 3c 60 a1 0b bb 95 5c de 3c c7 51 d4 bc
       0.01613983 -0.0021305904 0.027143756 -0.0259179
000110 40 f9 bd bc 6e 39 8f bc 13 e9 e0 3c 81 33 8d 3c
       -0.02319014 -0.01748344 0.027454888 0.017236473
000120 3a f6 f6 3c e1 32 0f bd be 94 fa bc 44 78 bc bc
       0.030146707 -0.03496063 -0.030588504 -0.023006566
000130 08 86 eb bc 3d 48 9e 3c 0b c5 95 3c 28 57 0f 3d
       -0.028750435 0.019321555 0.018282434 0.034995228
000140 70 3f a4 bc f1 1d a1 bc 51 06 7d 3c 92 25 9c bc
       -0.02004978 -0.019667597 0.0154434005 -0.019060884
000150 bf b7 da 3c f8 45 72 bb 98 34 9f 3c df 9c e1 bc
       0.026698945 -0.0036967974 0.019434258 -0.027540622
000160 5c be 6d bc 6b 46 0e 3c 35 6b 21 3b 6a a2 5d bc
       -0.014510717 0.008683781 0.002463055 -0.013527492
000170 02 4d 8c 3c 04 c0 9d 3c b1 46 e4 bc e9 2c cc bc
       0.017126564 0.0192566 -0.02786574 -0.024923759
000180 fe 44 1a 3d 48 a5 ea bb 56 de 21 bc 9c 95 0e bd
       0.037663452 -0.0071608163 -0.009879669 -0.034810647
000190 1c ab 7f bc b7 fe 65 3b e1 cb 92 39 f4 2a bf bc
       -0.0156047605 0.0035094449 0.00027999192 -0.023335911
0001a0 34 c1 cd 3b 71 35 f3 bc 93 16 12 bd 1c 03 ac bc
       0.006279135 -0.029688569 -0.03566606 -0.020997576
0001b0 fb 11 dd bc 14 50 cd bc d7 10 0e 3d be b6 f8 3a
       -0.026986113 -0.025062598 0.03468403 0.001897536
0001c0 bc 05 c8 3b 02 98 02 bd 7c 2f e9 bc e4 a0 13 bc
       0.006104199 -0.031883247 -0.028465025 -0.009010527
0001d0 06 a4 23 3c e0 7c d7 bc e2 8a 83 bc 21 31 a8 bc
       0.009987837 -0.026304662 -0.016057435 -0.020531239
0001e0 20 42 60 bb 7f 97 98 bc ba 2a 24 3b 9c 35 f1 bc
       -0.00342191 -0.018626926 0.002504988 -0.029444508
0001f0 09 a3 ed bc 9e 8b d6 bc 1d 8b 82 bc 5d 01 0a bd
       -0.029008405 -0.026189622 -0.015935475 -0.033692706
000200 fc f4 c6 3c 05 4c 07 bb 88 65 fc 3c fa cb 86 3c
       0.02428674 -0.0020644676 0.030810133 0.016454685
000210 f3 ee d4 bc ef 96 a0 3c f5 07 f7 bb aa 38 9d bc
       -0.025992846 0.01960322 -0.0075387903 -0.019192059
000220 a7 09 05 bd b8 9a 29 bd de 66 69 3c e5 66 56 bc
       -0.03247991 -0.041407317 0.014245717 -0.013086055
000230 f3 97 95 3c dd 4c 0c bd 29 50 c7 3c 1f d2 ae bc
       0.018260932 -0.03425299 0.024330216 -0.021340428
000240 13 92 37 bc e7 af 51 3c ef 98 c2 3c 1a 57 c7 3c
       -0.01120426 0.012798286 0.023754565 0.024333525
000250 f5 5f ed 3c e7 56 f3 bc d4 78 64 3c 30 b7 8c bc
       0.02897642 -0.029704524 0.013944823 -0.017177194
000260 e1 f5 d2 bb bc 25 ef bc a7 a5 12 3d 45 28 c7 bc
       -0.0064380025 -0.029192798 0.03580251 -0.024311194
000270 93 83 6d 3c c6 82 8b 3c eb 13 8b 3c b2 ff 7e bc
       0.014496702 0.017030131 0.016977271 -0.015563892
000280 81 b2 18 3d c8 1e 27 3b cf df c8 b9 6f d8 0b bd
       0.03727961 0.0025500525 -0.00038313723 -0.034141954
000290 f8 01 30 3c 57 3c 28 bc fe bb af bc ba 98 12 3d
       0.010742657 -0.010268292 -0.021451946 0.035790183
0002a0 38 8b 4e 3c 5a a9 7a bc 03 37 92 bc 96 ad 34 bb
       0.0126064345 -0.015299166 -0.017848497 -0.0027569286
0002b0 78 0d 88 3c aa b9 68 bc 7b 16 79 bc 9b 69 f1 bb
       0.016607985 -0.014204422 -0.015203114 -0.0073673255
0002c0 4d 2e f0 bc 9f d5 94 3c 12 12 ef 3c 8e 83 1f bd
       -0.029318953 0.018168269 0.029183421 -0.03894382
0002d0 dc ef 47 3b 76 1f 59 3c 19 ae 1d 3c 58 11 fd bb
       0.0030507958 0.01325213 0.009624028 -0.007723015
0002e0 19 cb c1 3c f4 44 66 3c 4d 38 98 3c f9 0a 92 bb
       0.023656415 0.014054526 0.018581534 -0.0044568744
0002f0 63 64 9e bb e0 4c 0e 3c 67 69 b6 ba 2a 59 81 bc
       -0.0048337444 0.008685321 -0.001391691 -0.015789587
000300 d9 24 e8 3c b1 93 f6 3c 7a b5 0d bc e3 ec 40 bc
       0.028337883 0.030099722 -0.008649224 -0.011775228
000310 8b 1d 95 bb 33 a0 65 3b 20 d5 59 3b 71 f4 9a 3b
       -0.004550641 0.0035038113 0.0033238605 0.0047288467
000320 df c4 19 bd 9d d7 0a bc 90 44 07 3d cb b1 a2 3c
       -0.037541267 -0.008474258 0.03302437 0.019860169
000330 f0 ec d4 bb 41 f3 d3 bc 32 9e c3 bc 56 0b f3 bc
       -0.0064979717 -0.025872828 -0.023879144 -0.029668491
000340 b9 5d e9 bb 9b 6f ea 3b 66 c8 8d 3c d5 71 36 3c
       -0.0071217683 0.0071544177 0.017307471 0.011135538
000350 e4 bb dc bc d9 b7 bf bc ec c8 c7 ba a2 7d 24 3d
       -0.026945062 -0.023403095 -0.0015242375 0.040158875
000360 63 8c 06 3c 1e c5 6e bc b0 42 8d 3c 6d c7 98 bc
       0.008212182 -0.014573364 0.017243713 -0.018649781
000370 cb 91 aa bc 24 d1 c1 3c 2a 99 3c bc a8 6b 4c bc
       -0.020821473 0.023659296 -0.0115111265 -0.012476839
000380 1e 11 f5 bc 3c aa ba 3c 2e d5 b7 3c 5b 10 05 3c
       -0.029915389 0.022786252 0.02244052 0.008121575
000390 2e 63 ab bc f2 55 fc bc b7 41 c7 bc 2c 27 05 3d
       -0.020921316 -0.0308027 -0.024323327 0.03250806
0003a0 6f 14 ba 3c 36 29 cd 3c 05 1e c4 3c 34 31 72 3c
       0.022714822 0.025044065 0.023940096 0.014782239
0003b0 a0 d7 bd bb 2e 39 b7 bc 00 8e d2 bc ae 39 ec bc
       -0.005793527 -0.022366133 -0.025702477 -0.028836098
0003c0 56 32 a1 3c bb be 53 bc 31 35 a1 bb 52 5a d3 bc
       0.019677322 -0.012923892 -0.004919671 -0.025799904
0003d0 45 6b a2 bb 9c 9e e2 bc 01 3e e6 bc db f0 89 3c
       -0.004956635 -0.027663521 -0.028105738 0.016838482
0003e0 4f e3 84 bc ea 11 8a 3c b6 0c cc bb 77 64 b1 bc
       -0.01622167 0.016854245 -0.006227101 -0.02165435
0003f0 e1 7c e6 bb 0f e8 b7 bc a2 9c 80 bc a3 e2 07 bd
       -0.0070339297 -0.022449521 -0.015699688 -0.033175122

conv1.lin_neigh.bias f4 [32]
000000 d6 3d d7 bc 69 18 94 bc 0f 7e aa bc a7 6a 7f 3b
       -0.026274603 -0.018078046 -0.020812063 0.0038973482
000010 19 e7 3f bc 60 f4 12 3d 0c 3c 96 bb 3a 37 7f bc
       -0.011712813 0.035877585 -0.004584795 -0.015577132
000020 8e fc c2 bc 2a 86 34 bc 50 bd 84 bc 4d 5c 43 bc
       -0.023802068 -0.011018315 -0.016203552 -0.011923862
000030 18 03 99 bc 73 cc 16 3d db 40 0a 3d 3d e1 86 bc
       -0.018678233 0.03681607 0.033753257 -0.016464824
000040 f7 40 f1 3c 7b a1 be bb d9 22 56 bc b0 b2 1c bd
       0.029449923 -0.00581759 -0.013069832 -0.038256347
000050 cc 7f ba bc 1a a4 53 bc 1f b0 b3 bc a8 76 bf bc
       -0.022766016 -0.012917543 -0.021934567 -0.02337201
000060 e7 96 e4 39 4a 5e 7b bc d8 c9 92 bc 32 06 b7 3c
       0.0004359998 -0.0153423045 -0.017918512 0.022341821
000070 17 91 dc bc 55 1a ca bc 81 0f 49 bc ba 2f 01 3d
       -0.026924653 -0.02467076 -0.012271763 0.031539656

conv1.lin_self.weight f4 [32, 385]
000000 72 07 f6 3b 17 ee a1 bc ec 77 fc bc a4 ea 98 3b
       0.007508212 -0.01976685 -0.030818902 0.004666643
000010 7b 31 37 3d e0 ff 15 bd 42 df 8c bc 47 a0 e0 bc
       0.044724923 -0.036620975 -0.017196301 -0.027420176
000020 04 67 07 b8 96 ac b4 bb ac d8 f4 bc e5 4d f8 3c
       -3.228245e-05 -0.005513738 -0.029888473 0.03031058
000030 cf c1 31 3c bf 0b 29 bd 61 35 12 3d c8 b5 9d bc
       0.01084943 -0.041270968 0.035695437 -0.01925172
000040 45 82 10 ba 49 8d dd 3b 2e 0b 17 3d 1c f9 b0 3b
       -0.0005512576 0.0067612273 0.036875896 0.00540079
000050 7c 38 3d 3d f3 f1 54 bb f3 5d ae bc c2 25 2b 3d
       0.046196446 -0.0032492846 -0.021285033 0.041784056
000060 4d dc 29 3d 29 49 2f bc 6f db 27 3d fb ba 22 3c
       0.04146986 -0.010698595 0.040980753 0.009932275
000070 b8 f5 a5 3c 5a 50 cd bc da 7b 4c bd 2b 32 c0 3c
       0.02025877 -0.025062729 -0.0499228 0.023461422
000080 38 c9 d2 bc a0 94 87 3c d5 0b 25 bd 17 8a 82 bc
       -0.025730714 0.016550362 -0.040294487 -0.015934987
000090 2d b7 37 bd 12 5a 01 bd 1f cd 85 bb ac 65 0c bd
       -0.044852424 -0.03158004 -0.00408329 -0.03427665
0000a0 9a 5f 19 3d 3d 86 10 3c 2b 06 02 3d 93 c4 2a ba
       0.03744469 0.008821067 0.031744163 -0.0006514277
0000b0 63 6e ac bc 63 8c 52 bd b4 58 c5 bb 33 84 99 bc
       -0.02104873 -0.051403414 -0.006022537 -0.018739795
0000c0 86 ad 1b 3c ef df fc bc e3 2c 26 3d 86 72 f1 ba
       0.00950182 -0.030868499 0.04057015 -0.0018420971
0000d0 ca a7 1a 3d 11 1f cf 3c 25 bd b7 bc ce 0b 97 b9
       0.037757672 0.025283368 -0.022429058 -0.0002880976
0000e0 3f 16 fd bb 18 34 dd bc 49 6c 84 3c 4e 3a f0 3b
       -0.007723599 -0.02700238 0.016164916 0.007331169
0000f0 37 a2 56 3d 54 54 34 3c 0a ac 07 3d 01 02 00 3d
       0.052400794 0.0110064335 0.033123054 0.03125191
000100 cb 26 69 3c 94 e6 49 bd ae 2b d0 3c 33 17 f6 3a
       0.01423044 -0.049292162 0.025411453 0.0018775224
000110 33 a4 57 ba 19 95 23 bd 07 06 19 bd fd c4 f9 3c
       -0.0008226067 -0.039937112 -0.037359264 0.03048944
000120 02 8a 9f 3c 29 32 98 3c c2 8e 29 bd f0 70 af bc
       0.019474987 0.018578606 -0.04139591 -0.021416157
000130 10 e9 09 bd dd c2 00 bd cb cb ad 3c ac 89 f1 3b
       -0.03366953 -0.031435836 0.02121534 0.007371148
000140 96 23 94 bc a8 18 10 bb d8 c3 4c bc 0a 82 b1 3b
       -0.018083375 -0.0021987353 -0.012497865 0.005417113
000150 4f 8c 26 bd 75 c6 8c 3b 31 2a 25 3d 32 90 34 3d
       -0.040661152 0.004296119 0.04032344 0.044082828
000160 5c 4e 03 3d 36 6f 87 bc 73 84 23 bd c3 f2 27 3d
       0.03205715 -0.016532522 -0.039921235 0.041003
000170 63 d0 8f 3c 79 28 a7 3c 39 a1 40 3d ee 60 53 3c
       0.017555421 0.020405041 0.047028754 0.012901528
000180 80 38 22 bd e9 14 17 3d c4 52 aa bc bd db ab bc
       -0.039604664 0.036885176 -0.020791419 -0.020978803
000190 07 ea 18 3d 0b 42 6b 37 34 4d d4 3a 8c 28 2e 3c
       0.03733256 1.4022468e-05 0.0016197325 0.010629784
0001a0 28 de c5 3c 8f 73 3e bc 47 38 14 3d 42 4f 93 bc
       0.024153784 -0.011624231 0.036186483 -0.017982129
0001b0 d0 04 74 bc ae c9 cf bb 49 69 d2 bc df 54 a8 bc
       -0.0148937255 -0.0063411808 -0.02568497 -0.020548282
0001c0 3e 97 82 bc 70 cc 92 bc 0d d0 36 3d 44 5b 58 bb
       -0.015941259 -0.017919749 0.044632006 -0.0033013383
0001d0 68 07 4e 3d f1 dd 48 3d b3 41 2d 3c 5a 08 db 3c
       0.050300032 0.049039785 0.010574746 0.02673738
0001e0 c6 a2 26 bd e9 07 25 3b 5e e8 46 3d 9e dd b6 bb
       -0.040682577 0.0025181717 0.048561446 -0.005580618
0001f0 b6 0b e3 bc 78 91 93 3b f9 46 6d bc 45 07 e7 bc
       -0.027715545 0.004503425 -0.014482253 -0.028201709
000200 e8 ea aa 3c 0e 83 24 3c da 5b 59 3c e8 22 45 bd
       0.020863965 0.0100410115 0.013266528 -0.048128992
000210 2d 11 93 37 ce ce 2f 3d 8f 8f d4 3b a7 b8 49 3d
       1.7531764e-05 0.042921834 0.00648684 0.049248364
000220 f6 4f 86 bc 6a 76 d6 3b 6f 1d bd 3c 93 32 68 bb
       -0.01639555 0.006544878 0.023085324 -0.0035430535
000230 0e e9 e0 3c 5e 5e 2f 3d 2a de 00 3d 21 16 86 3c
       0.02745488 0.042814605 0.031461872 0.016367974
000240 60 5d 06 3d 41 cb 2b 3d 8e b1 2e bd 3c d0 03 3d
       0.032803893 0.041941885 -0.042649798 0.03218101
000250 d9 6b 01 3d b8 e1 f7 3c 8b a5 fa bc 55 10 1e 3d
       0.031596992 0.030258998 -0.030596515 0.038589794
000260 4e bd 96 3c b6 4d c5 3c e1 56 47 bd 83 48 50 3d
       0.018400814 0.024084907 -0.04866684 0.050850403
000270 43 59 34 bd e4 6a 89 3c d4 85 62 3d b1 20 d4 3c
       -0.04403044 0.016774602 0.05530341 0.025894495
000280 af 7d fd bb 46 55 6b bb 89 4f 08 bd 03 3e b6 bc
       -0.00773593 -0.0035908981 -0.033278976 -0.022246366
000290 07 16 b4 bc b8 29 0a 3d c2 5d f7 3c e0 60 69 bc
       -0.02198316 0.033731192 0.030196074 -0.014244288
0002a0 0e 6c 3d 3c 62 ff 36 3c dc a7 9b bc 35 77 02 3d
       0.011561407 0.011169286 -0.01900094 0.031851966
0002b0 19 4e 0f bd 1f 87 0f 3c 12 f0 78 3c fc e1 ce 3a
       -0.03498659 0.008760243 0.015193956 0.0015783901
0002c0 a9 3a 12 3c 79 0c f8 3c c0 59 a6 3c 12 9a 09 bc
       0.0089251185 0.030279385 0.020306468 -0.00839855
0002d0 39 c2 a3 3c b0 00 ad 3c a1 01 9e bc fe 97 28 bd
       0.019990074 0.021118492 -0.019287886 -0.041160576
0002e0 7a ff 05 3d 13 32 f9 bb 6e b4 00 3d b9 23 17 3c
       0.032714345 -0.0076048463 0.03142207 0.009224826
0002f0 86 d5 07 3c f8 d3 be 3c e2 16 2e 3d 0f 0a a7 bc
       0.008290654 0.023294434 0.04250229 -0.020390538
000300 2c 49 e9 3c 14 4d a9 bb 02 b9 ce 3c 98 58 50 bd
       0.028477274 -0.005166659 0.025234703 -0.05086574
000310 46 97 32 3d cc 0b e1 3c a8 0f 2e 3d af 91 26 3d
       0.043601297 0.027471446 0.0424954 0.04066628
000320 5a 5c 81 bc 26 6f a9 bb 71 7d cb bc bc 4e 9b 3b
       -0.015791107 -0.0051707206 -0.024840089 0.0047396105
000330 64 3f 25 ba 1d 55 09 bc e6 1d ad bc cb e7 1f 3d
       -0.00063036964 -0.008382109 -0.02113242 0.039039414
000340 74 04 eb 3c 09 7e 49 bd 06 f5 52 bd a7 90 01 bd
       0.028688647 -0.049192462 -0.051503204 -0.03163209
000350 e4 46 b7 bb 85 ea 03 bc d9 7c 38 3d 65 4c 8c 3b
       -0.0055931676 -0.008051519 0.04504094 0.004281568
000360 3a 64 0f bb e6 cd f0 3c b9 8d 5b bc 46 20 0e 3d
       -0.0021879808 0.029395055 -0.0134004885 0.034698747
000370 2d b1 a1 bb b5 79 5d bc a3 cd cb 3a 75 fd 2e bd
       -0.004934451 -0.013517787 0.0015548955 -0.042722184
000380 1d 34 24 3d c7 35 39 3c 5b 2c 35 3d 97 86 62 3d
       0.04008876 0.011304325 0.044231754 0.055304136
000390 88 0b b6 3a 2d 1c 0c 3b 3e be f0 bb fd 4c 08 bd
       0.0013888935 0.0021379099 -0.0073468974 -0.033276547
0003a0 eb 4c e4 3c 6c 60 f3 bc 96 8d 38 3d ee 5c c8 3c
       0.027868709 -0.029709063 0.045056902 0.024458375
0003b0 54 33 5f bb 47 ca f9 3c b9 ab 1f 3c da f2 24 3d
       -0.0034057694 0.030491961 0.009745532 0.040270664
0003c0 a4 d8 e0 bc 9a 96 34 bd 23 57 9c bc b0 de 11 3d
       -0.027447052 -0.044088937 -0.019084519 0.035612762
0003d0 b5 e7 cb 3c bf fe 94 bc d0 1f 6c bc c7 73 d9 3c
       0.02489076 -0.018187879 -0.014411882 0.026544465
0003e0 23 f7 3b bd be 02 8d 3c 89 da 37 3c 52 23 0f 3c
       -0.045889985 0.017213222 0.011221536 0.008736448
0003f0 05 ee 4c bd 1b 06 d1 39 5b 9d 28 3c 33 7e 17 3d
       -0.05003168 0.00039868135 0.010291423 0.036985587

conv1.lin_self.bias f4 [32]
000000 e1 2f 75 3c ff 89 40 3d 59 b9 45 3c 43 b2 9b 3c
       0.0149650285 0.047006603 0.012068116 0.0190059
000010 b8 eb ea 3c fb f2 bb 3c a9 f9 2d 3d 37 60 e2 bc
       0.028676853 0.02294301 0.042474423 -0.02763377
000020 0e b2 1d 3c 4a 10 39 bd 45 6d a5 bc 33 ed 07 bc
       0.009624971 -0.04518155 -0.020193705 -0.008296299
000030 ee ea af bc ee 60 10 3d 9d 21 d3 bc 46 77 36 bb
       -0.021474328 0.03524869 -0.025772864 -0.0027842089
000040 f9 58 19 bd 2f 7e 55 bd 70 59 1d bd 44 7d 51 bd
       -0.037438367 -0.05212229 -0.038415372 -0.051144853
000050 32 62 04 3d 3e f1 c0 bb 66 75 1b 3d c8 73 d0 3a
       0.03232021 -0.0058881333 0.037953757 0.0015903646
000060 00 d7 00 bd a2 04 fe bc dc 6e 97 3c 3d c5 4e bd
       -0.03145504 -0.031008068 0.018485479 -0.05048107
000070 2b 8c c6 bc 3c bb 15 3c 05 d1 a2 3c 9f 7b a7 3c
       -0.02423676 0.009138878 0.019875059 0.02044469

conv2.lin_neigh.weight f4 [32, 416]
000000 12 18 82 bc 27 b9 00 bd 1b 9e 19 3c fd 41 69 b9
       -0.015880618 -0.031426575 0.009376074 -0.00022245194
000010 bc cb e8 bc e8 c7 84 3c ba bc 1c bc 33 82 24 3d
       -0.02841746 0.016208604 -0.00956648 0.04016323
000020 4a 30 8b bc 24 ba d8 bc a4 78 6f bc 26 0f ed bc
       -0.0169908 -0.026455946 -0.014616165 -0.028937887
000030 24 a7 9f 3c 66 99 89 bb f3 f9 c1 3c a8 2b 2e bd
       0.019488879 -0.0041991947 0.023678755 -0.042522103
000040 79 98 34 3c 5e 5f 53 3d b4 e8 0e bd 97 22 04 3c
       0.01102268 0.05160462 -0.03488989 0.0080648875
000050 12 82 36 bc 50 d3 c9 bc ee 15 31 bd 19 c8 87 bb
       -0.01113941 -0.024636894 -0.043233804 -0.0041437265
000060 8a 85 37 3c d6 48 07 3d 67 18 11 bd d4 b4 80 3c
       0.011201272 0.033028446 -0.035423663 0.015711226
000070 be 14 c8 3c 02 dd 4c bd d3 fe cb bc d0 b0 16 3d
       0.024423953 -0.050015457 -0.024901783 0.036789715
000080 5f 59 4f 3c 9d 77 11 bd 61 33 20 bd 2f f3 be bc
       0.012655585 -0.035514463 -0.0391115 -0.023309318
000090 01 8d 64 bc be ef f1 bc de 94 1d bd fe d8 10 3d
       -0.013949634 -0.029533263 -0.03847205 0.03536319
0000a0 10 79 0d 3c 54 44 07 3c 86 47 13 bd ff 3b a1 bc
       0.008634821 0.008256037 -0.035956882 -0.019681929
0000b0 2f 9b 14 3b 50 22 02 3d e3 5a 02 3d a3 b4 22 bd
       0.0022675504 0.031771004 0.031824958 -0.03972305
0000c0 b3 7c db bc ab c4 31 bd 13 90 21 3d 1a 1a 08 3d
       -0.02679286 -0.043400448 0.03944404 0.033228017
0000d0 ad 5e 4a 3d 2c d6 0f bd 6a e1 6b 3c 94 79 6e bc
       0.049406696 -0.03511636 0.014397005 -0.014555354
0000e0 5e 0e 02 bd e2 17 e9 bc 1e a4 3c bd 0c ac 8f bc
       -0.031751983 -0.028453771 -0.04605495 -0.017538093
0000f0 41 9d 5f 3c 3d 12 9f 3c 0c dd 04 3d 97 0a ad bb
       0.013648332 0.019417876 0.03243737 -0.0052808034
000100 6b c4 f4 3c 2e ce 12 bd 6b 8a e0 bc 82 69 09 3b
       0.029878816 -0.03584116 -0.027409753 0.0020967429
000110 0b 0b a5 bc e4 27 0a 3d b9 24 97 3b c2 d9 2a bd
       -0.020146867 0.03372945 0.004612532 -0.041711576
000120 f3 dd 1d 3c 83 c7 2c 39 14 4e 93 3c 93 4c 4a bd
       0.009635436 0.00016477522 0.017981566 -0.049389433
000130 bc b7 42 bc 6e a0 16 3d 0b 0e 25 3d 7b be 44 bd
       -0.011884626 0.03677409 0.040296596 -0.04803322
000140 5d 76 4c bd a2 dd 38 bb 18 72 4e 3d a4 66 58 3b
       -0.049917568 -0.0028208275 0.050401777 0.0033020163
000150 36 0d 5a 3d 3d be 33 bd c2 ed 15 bd aa 9d 87 3c
       0.053235255 -0.043882597 -0.036603697 0.016554672
000160 3a c5 a5 3c c4 c9 f8 bc 3a 52 6f 3b 5c f0 41 3d
       0.020235647 -0.030369647 0.0036517517 0.047348365
000170 81 36 6c 3c ed 72 be bc a5 b5 4a 3c 71 c9 1c bd
       0.014417292 -0.02324816 0.012372409 -0.038278047
000180 f5 76 c1 3c e7 77 71 3c 21 13 b4 3b ca 1e 02 bd
       0.023616293 0.01473806 0.0054954444 -0.031767644
000190 4c 52 07 3c 35 f3 da bb 3b 14 25 bd 88 8f 45 bd
       0.008259367 -0.0066818246 -0.040302496 -0.048232585
0001a0 73 93 5d 3d 86 43 9f 3c 29 c5 0e 3d a0 1f e6 3c
       0.054095697 0.019441377 0.034855995 0.028091252
0001b0 8f 50 c7 3c fe 43 8b 3c 9f 05 29 bd b8 d5 1c bd
       0.024330406 0.017000195 -0.041265126 -0.038289756
0001c0 18 90 83 3c 9f 20 03 3d df 61 7a bb 32 49 c6 3c
       0.01605992 0.03201353 -0.0038205308 0.024204824
0001d0 da c8 2b 3c 34 24 8c bc 14 cc 6f 3b be ad 9a bb
       0.010484898 -0.017107107 0.0036590146 -0.0047204187
0001e0 5a dd a4 bb ee e0 4d 3d 6b c0 18 bd 03 40 35 bd
       -0.00503127 0.050263338 -0.03729288 -0.0442505
0001f0 9b 3b 49 3b 98 62 20 3c 57 50 d0 bc 17 aa 7a 3c
       0.0030705694 0.009789132 -0.025428934 0.015299342
000200 7d a7 8b 3c 50 4f 01 3d ae 26 dc 3c 9d 0b f7 3a
       0.017047638 0.03156978 0.026873913 0.0018848066
000210 9e 9b 39 3d 6e 8d 15 3d db 92 3e 3c 9a 75 9e 3c
       0.045314424 0.03651183 0.011631693 0.019343186
000220 72 b1 5c ba e4 6d f8 3b 30 13 c0 3b 73 f6 44 bd
       -0.00084187754 0.0075814594 0.0058616623 -0.048086595
000230 4a 5c 0b 3d 78 d2 7c bc be 6f 1f 3d 97 0a bf bb
       0.03402356 -0.015431039 0.038924925 -0.00583012
000240 b5 d7 44 3d 1f 53 1a 3b f1 9b c6 3c b8 b2 b1 bc
       0.048057277 0.002354808 0.02424428 -0.021691665
000250 59 99 da bb cd a3 3b 3d dd 47 f3 bb df ef 6d 3a
       -0.0066711125 0.04581051 -0.0074243383 0.0009076576
000260 85 ec 25 bd 22 b3 4b 3d cb f0 46 3c 9e 51 17 3d
       -0.040508766 0.04973138 0.01214237 0.03694307
000270 8e 01 30 bd 0c 91 14 bd 53 11 f0 3c 61 69 b0 ba
       -0.042970233 -0.03627114 0.029305136 -0.001345914
000280 c4 ed e9 bc 2a f3 82 bc 46 87 53 3b 1c fd 72 bc
       -0.028555758 -0.01598509 0.0032276674 -0.014830854
000290 9b bd b9 3b c7 5f 0e bc 13 dc 3d 3c 5a f8 55 3d
       0.0056683547 -0.008689827 0.011588114 0.0522388
0002a0 2e 1e 4a 3d c9 84 a8 bc c0 f4 63 bc 26 ab 2f 3c
       0.049345188 -0.02057113 -0.013913333 0.010721957
0002b0 04 05 07 bd c4 8f fc bc 9b 09 d0 bc b5 65 14 bd
       -0.032963768 -0.030830272 -0.025395205 -0.036229808
0002c0 20 c6 e9 3c fe 85 27 3d e1 3c 81 3c 34 c2 88 3c
       0.028536856 0.04089927 0.0157761 0.016694166
0002d0 3d d0 10 bd df ff 56 bb 63 92 0d bd b9 c8 e4 3c
       -0.03535484 -0.003280632 -0.034563433 0.027927743
0002e0 aa de 7f bb cf 3b 17 3b 9d 5a 0b bc 74 c4 e2 3a
       -0.003904263 0.002307642 -0.008505491 0.0017300979
0002f0 bf d9 a2 bc 10 83 94 3c 87 7f 1c 3c ea 15 8e b9
       -0.01987922 0.018128902 0.009551889 -0.00027100678
000300 f3 e0 93 3c f2 d2 c0 bb 13 87 10 bd 62 53 c9 bc
       0.0180516 -0.0058845216 -0.035285067 -0.024575893
000310 71 5d 1b 3d f7 0a 95 bc 77 1b 0f 3d 21 01 23 3d
       0.03793091 -0.018193705 0.034938302 0.039796
000320 11 aa 58 bd 6b 96 ca bc 58 ee 31 3d de 62 e7 bc
       -0.052896563 -0.024729928 0.043440193 -0.028245386
000330 a4 17 58 3d 32 43 1c bc b9 5e fb 39 b6 59 29 3d
       0.05275692 -0.009537505 0.00047945025 0.04134532
000340 c2 b2 99 3a ff bb d2 3c 1f 46 44 3d e5 c7 ba 3b
       0.0011726248 0.02572441 0.047918435 0.005700099
000350 db 3f e8 bc fb 64 0e bd 25 0d e6 3b e2 3a 18 bd
       -0.028350761 -0.03476427 0.00702061 -0.03716553
000360 87 87 00 bd 58 2c 4b bb bc ec 41 3d 40 ba ef bb
       -0.03137925 -0.0031001773 0.047344908 -0.007315904
000370 57 40 8d bb be 26 8a bc 88 75 c4 3c f4 d6 c3 bc
       -0.0043106484 -0.016864177 0.023981825 -0.023906209
000380 d0 73 c3 bc ec 49 9b bc 22 8c 1f 3d 54 df 0d 3d
       -0.023858935 -0.018956147 0.038952 0.03463681
000390 73 05 df bc 15 a7 18 3d d9 a7 f5 bc 7d 9a c5 3b
       -0.027224278 0.037268717 -0.029987263 0.0060303793
0003a0 28 4c b5 3c 10 ae 29 3d 8e 95 80 bc 80 a3 34 bc
       0.02213104 0.041425765 -0.015696313 -0.01102531
0003b0 98 2c 02 bd 42 6e 16 3d af 67 04 bd e9 7a 9b 3c
       -0.03178081 0.036726244 -0.032325443 0.018979507
0003c0 ee 15 70 3c 1d 6c 2c bd 8c f1 da 3c bd 4c ec 3c
       0.014653666 -0.042095292 0.026726507 0.028845185
0003d0 a5 44 22 3c f0 f5 1d bd ea 5c c2 bc b3 c5 4d bb
       0.009904061 -0.038564622 -0.023725946 -0.0031398355
0003e0 6e 84 b9 3c ca 4b a9 3b 1d 9d d3 3c bf cf 2c bc
       0.022646155 0.0051665055 0.025831753 -0.010547577
0003f0 e4 50 6c bc 41 72 32 bd 1d e9 55 3c bb 49 54 bb
       -0.014423583 -0.043565992 0.013056067 -0.003239258

conv2.lin_neigh.bias f4 [32]
000000 cd ad 40 bd 3d 73 ac bc b2 70 0c 3d 81 a3 46 bd
       -0.04704075 -0.021051044 0.034287162 -0.048495773
000010 34 e1 f7 3c ec 80 06 bd 32 0b 41 bd cc c3 66 3c
       0.030258752 -0.032837793 -0.047129817 0.014084768
000020 e7 27 31 3c 8d ac fa 3c 28 fa 9e 3c 46 3e bd 3c
       0.010812736 0.030599857 0.019406393 0.023100983
000030 51 c0 3b 3c 00 78 18 bc f6 f4 1a 3d b7 69 32 bd
       0.011459426 -0.009305954 0.03783127 -0.04355785
000040 00 5a 5d bd d6 67 c0 bc b6 2d 27 bd dc d5 0b 3d
       -0.05404091 -0.023487013 -0.040815078 0.0341395
000050 38 bd 8d 3c 80 af 30 3d f8 4f 02 bd cf 91 18 3d
       0.01730214 0.04313612 -0.031814545 0.03724843
000060 ab 34 48 bd cb eb 23 bd 25 91 24 3d dd 8e cf bb
       -0.048878353 -0.04001979 0.040177483 -0.0063341693
000070 60 e8 b7 3a 44 76 dd bc 2a e4 17 3c f5 7c 88 bc
       0.0014031045 -0.027033933 0.009270707 -0.016661147

conv2.lin_self.weight f4 [32, 32]
000000 c6 89 0d 3e 94 52 b0 3d d1 5a 93 bc 5b f2 97 bd
       0.13822088 0.086095005 -0.01798764 -0.074192725
000010 c0 19 fc bd d3 d1 8a 3d 12 83 07 3d be 29 0e be
       -0.12309599 0.06778302 0.033083983 -0.13883111
000020 45 00 88 bd b5 ed 04 bc 39 57 fe 3d d1 ea d6 bd
       -0.066406764 -0.008113314 0.1241898 -0.104940064
000030 26 db 81 3b c0 75 dc bd 89 ff 16 3e 8c ee ac bd
       0.003962892 -0.107646465 0.14745916 -0.08443937
000040 8c 72 5f bd 52 b4 00 3e 32 46 0c 3e f6 17 b8 3d
       -0.0545526 0.12568787 0.13698652 0.08988945
000050 36 95 2d 3e cd 3f 03 be ac fc b2 bd 66 de 2c 3e
       0.1695145 -0.12817307 -0.087395996 0.16881713
000060 cf bc 23 3e 43 d9 23 3e 66 f7 09 be 6d 7a 81 3d
       0.15989994 0.16000848 -0.13473281 0.06322179
000070 e4 64 31 3e 48 46 ad 3d 64 80 95 3c 8c 9f 0f 3e
       0.17323643 0.08460671 0.018249698 0.14025706
000080 2f 4d 1a 3e 16 0a d1 3d ff 02 6c 3d cc fa 27 be
       0.15068506 0.10207002 0.057620045 -0.16404265
000090 3f 2f 34 be d7 bd 36 3d 9d 1f 1d be 8e 06 b5 bb
       -0.17596148 0.04461464 -0.15344091 -0.005524463
0000a0 f4 6c 8a bd a9 ff 10 bb 4e bc b9 bd 01 ef e7 3d
       -0.067590624 -0.0022125042 -0.090691194 0.11324883
0000b0 04 53 20 3e 24 5b 22 be 9b 19 18 3e a6 0a 15 be
       0.15656668 -0.1585508 0.14853518 -0.14554843
0000c0 cf d7 f5 bd 80 6d 9c 3d 00 90 44 bd ed 68 0d be
       -0.12004053 0.07638073 -0.04798889 -0.13809557
0000d0 0b 52 ce bd dd 85 31 3e 80 22 01 be 29 ec 8d bd
       -0.10074242 0.17336221 -0.12610817 -0.069298096
0000e0 68 c2 df bd 4b 87 8b 3d 7e 19 cb 3d 38 71 a9 bd
       -0.10925752 0.068129145 0.099169716 -0.08273548
0000f0 05 7a c2 3b 19 79 8b bc a9 bd 07 be 79 4b 87 3c
       0.005934956 -0.017025517 -0.13255943 0.01651548
000100 66 13 33 3d 74 c7 01 3e 08 03 33 3e ab b8 d1 bd
       0.04371967 0.12673742 0.17481625 -0.10240301
000110 f2 21 6a bd 83 ab 60 bd d7 f7 fc bd 79 2e b3 3d
       -0.05716128 -0.054851066 -0.12351959 0.08749098
000120 85 7c 5b 3d fb a6 0c bd 32 94 e4 3d 88 0a 81 bc
       0.053585548 -0.034338932 0.111610785 -0.015752092
000130 8c ee bb 3d 60 25 aa 3d 0d 89 2f be 14 94 86 bc
       0.091763586 0.0830791 -0.17142124 -0.016428031
000140 1a 8b b8 3d b4 c8 57 bd fc 29 d0 bc e5 ce c6 3d
       0.090109065 -0.05268164 -0.025410645 0.09707431
000150 21 f3 00 bc 8d b4 cf bd ac 48 01 3e 99 62 bc 3d
       -0.007870466 -0.10141859 0.12625378 0.091984935
000160 44 e2 d2 3c 57 99 01 be 7d 6c 09 be 84 a5 d0 bc
       0.025742657 -0.12656151 -0.13420291 -0.025469549
000170 44 06 9d 3b e5 7c 14 3e 39 26 66 3c bd 3d ec bb
       0.0047920067 0.14500768 0.014047199 -0.007209508
000180 e4 74 34 3d c0 48 24 be f2 db 61 bc bd 74 6e 3d
       0.044056788 -0.16043377 -0.013785349 0.0582168
000190 c0 46 90 bd 4c 7a 1b 3d f8 35 68 bd 65 9b 38 be
       -0.070447445 0.03795843 -0.056692094 -0.18028028
0001a0 50 2d 13 be c7 43 09 bb f4 20 25 be 3d a0 1b 3e
       -0.14372754 -0.002094494 -0.16125852 0.15197845
0001b0 ef bc 9e 3d d9 aa 2e 3e a7 7d 66 bd 62 53 eb 3d
       0.0775088 0.1705736 -0.056272175 0.114905134
0001c0 b6 82 25 be dd 2f 82 3d fd 90 98 3d 64 f3 7f 3c
       -0.16163144 0.063567854 0.07449529 0.015621994
0001d0 46 99 b2 bd 3c e4 9f bd 63 6b 86 bd ca 5e 13 3e
       -0.08720641 -0.07807204 -0.06563451 0.14391628
0001e0 f2 41 38 3d 2d b7 92 bd fd fa 79 bd ca 07 a1 3b
       0.044984765 -0.07163844 -0.061030377 0.0049142586
0001f0 1d 57 70 3d 7d 16 2a 3e f0 66 e0 3d 65 90 13 3e
       0.058676828 0.16610141 0.10957134 0.14410551
000200 12 42 9e bd 6c 0d 1f 3d 1e 36 f2 3d 21 b7 10 3e
       -0.07727446 0.03883116 0.11826728 0.14132358
000210 1e 13 9b 3c 5f 9a 21 3e 53 02 eb bd e3 a4 30 be
       0.018930014 0.15781544 -0.11475053 -0.172504
000220 51 f8 1e 3d 39 de d4 3d 41 b1 ca 3d 05 eb 0c be
       0.03881103 0.10393948 0.0989709 -0.13761528
000230 a8 89 19 3e 64 05 1f be 36 97 10 3e ac c3 86 bd
       0.14993918 -0.155294 0.14120182 -0.0658029
000240 c3 d2 2b 3e 67 9f a2 3d 00 1e e4 3d a1 8f e1 3a
       0.16779618 0.0794056 0.111385345 0.0017208942
000250 2b cf 35 be 65 2d 21 be a3 89 20 be 32 36 77 bd
       -0.1775481 -0.15739973 -0.15677504 -0.06035442
000260 d4 2d 78 bd 0d 09 35 3d 07 3c 29 be f8 83 0f be
       -0.06059058 0.044198085 -0.16526805 -0.14015186
000270 9c e1 b7 bc 64 18 3c bd 97 02 1e bd c6 5a 22 be
       -0.022446446 -0.0459217 -0.03857669 -0.1585494
000280 d8 a7 2d be d8 15 25 be 9d 3f b7 bd 9c 66 00 bd
       -0.16958559 -0.16121614 -0.0894768 -0.031347856
000290 c7 62 0c be 13 19 2a be e3 b0 dd bc ec 8e 2d 3e
       -0.13709556 -0.16611128 -0.027061885 0.16949052
0002a0 4a 2e f0 3d 08 ef d9 bc c6 4e 0a be c1 72 f9 3c
       0.11727579 -0.026603237 -0.13506612 0.030450227
0002b0 f5 e0 1b be e4 c3 02 be d7 0b 97 3c df 06 11 3d
       -0.15222533 -0.12770039 0.018438263 0.035406943
0002c0 3c 63 b3 bd 31 5c d9 bb 19 db 1c bc c9 ef 25 bd
       -0.08759162 -0.0066333045 -0.009573721 -0.04051188
0002d0 fb 6a 2d 3d bc ef 99 3d 81 fa d1 bd 63 c2 e7 bc
       0.042338353 0.07516429 -0.10252858 -0.028290933
0002e0 ee d6 1f be 05 d3 df bd af a1 36 be 6b c9 06 be
       -0.15609333 -0.10928921 -0.17835115 -0.13162772
0002f0 f5 39 eb bd e2 b7 1d bc 82 c8 17 bc 15 2c 91 3c
       -0.11485664 -0.009626361 -0.009264113 0.017721215
000300 16 a5 f9 3d 1a 2c ee 3c ef d8 0e bc bc 30 64 3d
       0.12189691 0.029073764 -0.008718713 0.05571054
000310 2d 95 bd bd 6a 54 23 bc 57 5e 30 3d 7b ef 18 3e
       -0.09256969 -0.009968856 0.04305872 0.14935105
000320 57 c0 16 3e 03 d4 29 be a8 19 96 3a 43 92 23 3e
       0.1472181 -0.16584782 0.0011451738 0.15973763
000330 91 96 e9 3c 86 c7 32 be 5f 76 fc 3d 99 0c 09 be
       0.028514178 -0.17458925 0.12327265 -0.13383712
000340 61 d7 00 be 89 05 04 be 8f 74 31 3e 2e e8 19 3e
       -0.1258216 -0.12892736 0.1732962 0.15029976
000350 47 cf 6f bd 77 1f 5d 3d d9 6c 3b 3d 1f 28 38 be
       -0.058547284 0.053985085 0.045758102 -0.17984055
000360 55 5b d8 bd 60 8d a1 bd 2c 21 bd ba 73 82 35 bd
       -0.10564295 -0.07888293 -0.0014429442 -0.04431386
000370 96 92 0a 3e 79 2e ef bd c5 af c7 bd e7 2a 28 3c
       0.1353248 -0.11678786 -0.09750322 0.010264135
000380 6d e0 7b bc 22 21 00 bd 2d 61 bc bd 81 70 cb 3d
       -0.0153733315 -0.031281598 -0.09198222 0.09933568
000390 67 3b c3 3d 97 b3 83 3c f3 6d 8e bb 30 2b 2c 3e
       0.095328145 0.016076846 -0.004346603 0.1681335
0003a0 fd 0c 3a 3c c3 9b 84 bd a3 d4 da bd 27 79 bf 3d
       0.011355636 -0.06475022 -0.106850885 0.0934928
0003b0 56 00 d8 bd f8 b6 77 3d 7e fc 4c bd c5 3e 9e 3d
       -0.10546939 0.060477227 -0.050045483 0.07726816
0003c0 da da 9b 3d 84 9b 06 3e 16 53 9e bc 77 8c a3 bd
       0.07610102 0.13145262 -0.019326728 -0.07985776
0003d0 24 18 9f 3c 8a 78 8f bd 86 8a 79 3d bf 73 44 bc
       0.01942069 -0.07005413 0.060923122 -0.011990487
0003e0 87 b8 02 bc a5 aa 27 3e 84 b9 01 be b4 81 19 3e
       -0.007978565 0.1637369 -0.12668425 0.14990884
0003f0 f4 b2 8a 3d e8 9d dd bd f1 fa 0c 3e 54 fa 6e bd
       0.06772414 -0.10821134 0.13767602 -0.0583442

conv2.lin_self.bias f4 [32]
000000 cb 55 79 bd dc f6 09 3e a6 03 a1 bc d6 89 11 3d
       -0.060872834 0.13473076 -0.01965506 0.03553184
000010 63 f7 13 be 54 74 4d bb 7d 45 c9 3c d9 85 4d bd
       -0.1444984 -0.0031349855 0.024569267 -0.050176475
000020 8a 50 1c 3e 27 d6 04 3e fc 42 c0 ba d7 35 dd bd
       0.15265098 0.12972318 -0.00146684 -0.10801285
000030 94 8e c1 3d 1a 47 f6 bd 6e ce 15 3e 6a 15 93 3d
       0.09451023 -0.1202528 0.14629528 0.07181819
000040 07 f2 28 be 9d f2 25 3d 9b 5a 77 3c e2 5e 37 be
       -0.16498576 0.040514577 0.015097286 -0.17907289
000050 46 21 2c be ac 1b 09 be 6c 48 b1 3c 1e 4b fc bd
       -0.16809568 -0.13389462 0.021640979 -0.12319015
000060 01 69 29 3e ac b7 e1 3d d4 a0 14 3e e1 f2 84 3d
       0.16543962 0.11021361 0.14514476 0.06491638
000070 d2 ed 23 3d f7 05 6c bc 47 55 56 3a fc 6e d8 bd
       0.040021725 -0.014405719 0.00081761595 -0.105680436

bn1.weight f4 [32]
000000 99 86 7e 3f e5 68 7f 3f a3 27 80 3f 1a d3 7e 3f
       0.9942413 0.9976943 1.0012096 0.99540865
000010 7d 38 80 3f 2b d1 7f 3f 14 95 7e 3f b8 8c 7e 3f
       1.0017239 0.9992854 0.99446225 0.9943347
000020 2c 85 7e 3f 3d bf 80 3f f9 9b 7e 3f 30 c2 80 3f
       0.99421954 1.0058361 0.99456745 1.0059261
000030 b0 b1 80 3f fb a3 80 3f 2a 86 7e 3f ec 7d 7f 3f
       1.0054226 1.0050043 0.9942347 0.99801517
000040 74 7b 7e 3f 40 bd 80 3f a8 94 80 3f b1 96 80 3f
       0.99407125 1.0057755 1.0045366 1.0045987
000050 a3 c9 7f 3f 46 73 7f 3f d6 8c 7f 3f c7 1a 7f 3f
       0.9991705 0.9978527 0.99824274 0.99650234
000060 62 b5 7e 3f d0 cc 7f 3f 95 8f 7e 3f a7 be 80 3f
       0.9949552 0.99921894 0.9943784 1.0058182
000070 3d b6 80 3f 4d 24 7f 3f 46 28 7f 3f cb 87 7e 3f
       1.0055615 0.99664766 0.9967083 0.99425954

bn1.bias f4 [32]
000000 df b4 b6 bb fb 55 3a 3b 79 ac 23 ba 85 db b6 3b
       -0.0055757607 0.0028432596 -0.0006243657 0.005580368
000010 97 3e 82 3b ae d0 6d 3b d8 7a b3 bb 69 d1 bf bb
       0.0039747464 0.0036287713 -0.0054772906 -0.005853821
000020 70 19 be bb 76 7f b9 3b b9 a8 af bb a6 3a 4a 3a
       -0.005801372 0.0056609465 -0.0053606895 0.0007714428
000030 6c 87 60 3b 77 b9 b6 3b fa 02 c2 bb e2 7a bf b8
       0.0034260405 0.0055763084 -0.005920765 -9.1304784e-05
000040 85 d8 c2 bb 8c 2f bb 3b 5b bc 5b bb b9 08 15 bb
       -0.0059462213 0.005712455 -0.0033529017 -0.0022740795
000050 55 64 b1 bb 98 d5 85 ba 2c 70 c9 ba 01 41 3f bb
       -0.005413572 -0.0010210751 -0.0015368513 -0.0029183032
000060 db 32 8a 3a d2 0e e5 37 e5 01 90 bb 8f 12 c1 3b
       0.001054372 2.7305829e-05 -0.004394757 0.005892105
000070 38 75 a1 3b 24 41 b2 bb 2a 32 26 bb 1c 87 b8 bb
       0.0049273036 -0.0054398943 -0.002535949 -0.0056313407

bn1.running_mean f4 [32]
000000 84 e6 74 3c 24 b2 64 3c db 6c 69 3b 31 bc 8b 3c
       0.014947537 0.013958488 0.0035617861 0.01705751
000010 17 bc 61 3c 51 7b e4 3c 31 44 1a 3d 42 24 b5 3a
       0.013777754 0.027890833 0.03766269 0.001382001
000020 ee b8 2d 3c 35 1d a4 39 3d cb 9b 3b 9e d0 86 39
       0.010603173 0.00031302279 0.0047544525 0.00025713904
000030 0f dc 0f 39 45 8f 62 3c 53 f1 91 3b 96 25 18 3c
       0.00013719521 0.013828103 0.004453817 0.009286305
000040 fe 8d d8 3b 1c 78 b0 39 5f ba 12 39 f1 e9 28 39
       0.0066087237 0.00033658824 0.00013993074 0.00016108878
000050 62 2d 16 3c 36 02 1a 3c 63 ba 7c 3b 93 df 29 3b
       0.009166094 0.009399941 0.0038563244 0.0025920614
000060 78 74 f2 3b e2 70 8e 3b d6 6b 26 3c 25 74 f9 39
       0.007399138 0.004346953 0.010157546 0.00047579515
000070 9c 9f 24 39 b5 f4 3f 3a b7 6d b1 3c 79 be cc 3c
       0.00015699718 0.0007322536 0.021658761 0.024993168

bn1.running_var f4 [32]
000000 5e 25 08 3f 00 20 08 3f a2 18 08 3f 6b 27 08 3f
       0.5318202 0.5317383 0.53162587 0.5318515
000010 88 23 08 3f ca 3b 08 3f 75 31 08 3f 13 0f 08 3f
       0.53179216 0.5321623 0.53200465 0.53148
000020 51 21 08 3f 67 0d 08 3f fc 17 08 3f 0f 0d 08 3f
       0.53175837 0.5314545 0.531616 0.53144926
000030 ba 0c 08 3f 5d 31 08 3f 4e 17 08 3f 21 1c 08 3f
       0.5314442 0.5320032 0.5316056 0.5316792
000040 f2 1d 08 3f f6 0d 08 3f ac 0c 08 3f c8 0c 08 3f
       0.5317069 0.531463 0.53144336 0.531445
000050 37 23 08 3f 59 29 08 3f c1 15 08 3f d3 10 08 3f
       0.53178734 0.5318809 0.53158194 0.5315067
000060 c7 1e 08 3f 9e 14 08 3f 49 1c 08 3f 55 0e 08 3f
       0.5317196 0.5315646 0.5316816 0.5314687
000070 04 0d 08 3f bd 0d 08 3f 4f 30 08 3f f8 33 08 3f
       0.5314486 0.5314596 0.53198713 0.532043

bn2.weight f4 [32]
000000 a5 75 7e 3f 64 77 7e 3f db 77 7e 3f af 77 7e 3f
       0.9939826 0.99400926 0.99401635 0.9940137
000010 2c 79 7e 3f 46 83 7e 3f 74 7a 7e 3f 37 77 7e 3f
       0.99403644 0.9941906 0.994056 0.9940066
000020 67 76 7e 3f 38 76 7e 3f 4b 77 7e 3f e5 7a 7e 3f
       0.9939942 0.9939914 0.99400777 0.9940627
000030 cc 76 7e 3f 1b 78 7e 3f 28 77 7e 3f d7 79 7e 3f
       0.9940002 0.99402016 0.9940057 0.9940466
000040 6d 82 7e 3f a2 76 7e 3f 4f 79 7e 3f c7 76 7e 3f
       0.99417764 0.9939977 0.9940385 0.9939999
000050 95 7c 7e 3f f6 7a 7e 3f 68 76 7e 3f cf 75 7e 3f
       0.9940885 0.99406374 0.99399424 0.9939851
000060 e5 75 7e 3f 01 79 7e 3f 77 7a 7e 3f f3 76 7e 3f
       0.9939864 0.9940339 0.99405617 0.9940025
000070 a5 7c 7e 3f 2d 7a 7e 3f 05 77 7e 3f 69 7a 7e 3f
       0.9940894 0.99405175 0.9940036 0.99405533

bn2.bias f4 [32]
000000 48 c2 c4 bb 89 b7 c4 bb 74 23 c4 bb c5 28 c4 bb
       -0.0060046054 -0.0060033244 -0.0059856717 -0.0059863054
000010 68 f0 c0 bb f3 30 bb bb 88 ce c3 bb de a6 c3 bb
       -0.0058880337 -0.0057126223 -0.005975548 -0.00597082
000020 26 1a c4 bb 52 59 c4 bb 1d 9d c4 bb 54 67 bf bb
       -0.0059845624 -0.005992093 -0.0060001747 -0.005841175
000030 05 ea c4 bb 07 0d c3 bb a6 ea c3 bb 6e 70 c3 bb
       -0.0060093426 -0.0059524807 -0.0059789 -0.0059643304
000040 50 c4 bd bb 56 22 c4 bb 63 2c c3 bb 31 78 c4 bb
       -0.0057912245 -0.0059855385 -0.005956219 -0.0059957732
000050 b3 73 c2 bb 82 69 c2 bb 7d 36 c5 bb 59 bc c3 bb
       -0.0059342026 -0.0059329877 -0.0060184584 -0.0059733805
000060 a8 0a c5 bb 79 4c c3 bb ca 08 c3 bb 40 23 c5 bb
       -0.006013233 -0.005960044 -0.0059519755 -0.006016165
000070 26 77 c1 bb 9a 20 c2 bb da 32 c4 bb 49 9b c2 bb
       -0.005904096 -0.0059242966 -0.0059875073 -0.0059389216

bn2.running_mean f4 [32]
000000 d7 c7 00 3e 64 b3 37 3d 84 e6 a2 3d 8b 20 85 3d
       0.12576233 0.044848815 0.079541236 0.06500348
000010 b4 71 2f 3d 2e 60 7a 3b 5b bb 49 3d ca 48 fc 3d
       0.042833045 0.00382043 0.04925094 0.12318571
000020 1a 0f 1e 3e c4 22 11 3e e1 77 eb 3d 5d 55 c3 3c
       0.15435448 0.14173418 0.114974745 0.023844415
000030 01 a8 fd 3c 7d 9b 1a 3d 26 d8 09 3e 3b 4f 2c 3d
       0.0309639 0.03774594 0.1346136 0.042067748
000040 3f c5 e3 3c 7c 2c f3 3d e6 c8 4e 3d 28 a0 fb 3d
       0.027804015 0.11873719 0.05048456 0.12286407
000050 52 11 44 3d a9 35 62 3d f1 55 4d 3d 84 ae 4a 3d
       0.04786808 0.055226956 0.05013079 0.049482837
000060 70 93 d2 3d e1 12 49 3d 00 e6 4d 3c 01 5c 64 3d
       0.10282028 0.04909027 0.012567043 0.055751804
000070 f7 80 af 3c b5 9b 92 3d 5a 5e 8a 3e 8b 66 ed 3c
       0.0214238 0.07158605 0.2702511 0.02897956

bn2.running_var f4 [32]
000000 29 e2 26 3f 07 44 0d 3f 17 42 14 3f 33 93 13 3f
       0.65188843 0.55181926 0.57913345 0.57646483
000010 05 2b 17 3f 80 64 08 3f d9 b8 0f 3f 9b df 1c 3f
       0.5905002 0.5327835 0.5614143 0.61278695
000020 02 ea 1c 3f e4 38 12 3f 38 26 15 3f 8d 0d 0d 3f
       0.6129457 0.5711806 0.5826144 0.550988
000030 5f a0 0d 3f 2f 21 0f 3f 2f ff 14 3f a6 9a 0c 3f
       0.5532283 0.5591001 0.5820188 0.54923475
000040 da e8 0f 3f e1 f5 15 3f b6 dd 0f 3f a0 d2 19 3f
       0.5621468 0.58578306 0.5619768 0.60087013
000050 6b de 12 3f 1c 2f 16 3f 03 d6 0d 3f 47 2f 10 3f
       0.5737063 0.58665633 0.5540468 0.5632214
000060 ff db 13 3f 78 fe 0d 3f 83 c6 09 3f ea b7 12 3f
       0.5775756 0.55466413 0.5381853 0.5731188
000070 27 ef 0c 3f 95 59 12 3f 58 f2 28 3f d9 f9 0b 3f
       0.5505242 0.5716794 0.6599479 0.5467811
