best_model.pt (torch, 369570 bytes, 16 tensors)

conv1.lin_neigh.weight f4 [64, 769]
000000 c4 a1 34 3d a9 76 e6 3c 7c 26 b6 bc 08 8e 27 3d
       0.044099584 0.028132753 -0.022235148 0.040906936
000010 dc af 44 bc 69 6a a9 3c 2b 3a 19 bc 25 76 67 3b
       -0.012004819 0.020680623 -0.009352247 0.0035318222
000020 a3 12 11 3d 08 8e e1 bc b0 26 e1 3c 49 02 1b 3c
       0.035418164 -0.027533546 0.027484268 0.009460994
000030 21 37 15 3d 56 1b 42 3c f8 1f 01 3d 43 a5 3a bc
       0.03642953 0.011847338 0.03152463 -0.0113919405
000040 5c 5c f5 3c cd f0 9a 3c fb 9f 2f bc dc 97 b5 3c
       0.029951267 0.01891365 -0.010719295 0.022167139
000050 85 5d e5 bc 87 9c 15 bc a0 3e 3a bc a5 58 26 3d
       -0.027998695 -0.009131557 -0.01136747 0.04061188
000060 16 a0 31 bd 7a 41 d6 bc 27 6e e8 bc 2a de ea bc
       -0.04336556 -0.026154269 -0.028372837 -0.02867039
000070 c3 ed 5d bb c0 35 d3 bc 8e 91 33 3d 68 74 ac bc
       -0.003386364 -0.025782466 0.043839984 -0.0210516
000080 8e 4e 14 3d e4 f6 1b 3c 6a 34 db 3b a0 8b 98 3c
       0.036207728 0.0095193125 0.006689598 0.018621266
000090 2a 65 98 3c 1f 6f ee 3c a5 2a 2c bb 1f cd 59 bc
       0.018602926 0.029105721 -0.0026270535 -0.013293534
0000a0 58 c7 aa 3c b2 13 a1 bc 31 39 db 3c f2 bd 14 3d
       0.020847008 -0.019662712 0.02676067 0.03631396
0000b0 9c c7 41 3c 81 6c 8b ba a0 b0 00 3d 5c 17 24 3b
       0.011827376 -0.0010637195 0.031418443 0.0025038337
0000c0 23 7b c4 3b 32 f0 9e bc de 12 44 bd 97 47 a7 bc
       0.0059961244 -0.019401643 -0.047869556 -0.020419879
0000d0 bc ab 0a bd 64 51 cd 3c f1 7c 3b 3b bd cc 62 3c
       -0.033855185 0.025063224 0.0028608406 0.013842759
0000e0 2e b6 6c 3c b7 22 10 bb 1f 9b a5 3c 18 29 16 bd
       0.014447732 -0.0021993348 0.020215569 -0.036660284
0000f0 a7 1c 5d bc da 3b 8d bc 72 29 93 3c 44 e3 1a bc
       -0.013495601 -0.017240454 0.017964099 -0.009453598
000100 8a a4 77 3c 06 43 a3 3b 44 6c 3d 3d a0 ae b8 bb
       0.015114913 0.004982355 0.04624583 -0.0056360513
000110 67 c9 f6 bb 60 bd 1b bc 6d b6 c4 3c f9 69 83 bb
       -0.0075313332 -0.0095056 0.024012769 -0.0040104357
000120 44 9d 14 3d 1b a4 db bc 81 1f fd bc 98 ee e4 bc
       0.036282793 -0.02681165 -0.030898811 -0.027945802
000130 96 33 66 bc a6 bd 5c ba 58 0f 44 3c 00 28 12 3d
       -0.014050385 -0.0008420594 0.011966549 0.03568268
000140 b5 96 c2 bc ed 13 52 bc ec aa 18 3c 6f fe 18 b8
       -0.023753503 -0.0128221335 0.009318095 -3.6476584e-05
000150 53 4b a8 3c 92 d2 f3 bb 38 e0 32 3c e6 32 bd bc
       0.02054373 -0.0074408734 0.010917716 -0.02309556
000160 5f dd 0d bc 0e 5f da 3c 41 b8 12 3c c3 d0 8b ba
       -0.008658736 0.026656654 0.008955062 -0.0010667074
000170 91 21 ab 3c 31 65 fc 3c bd 96 6a bc 3f 0f 11 bd
       0.02089003 0.03080997 -0.014318165 -0.03541493
000180 80 39 b1 3c 7c 47 ca bc 9e 69 dd bc 8e e0 26 bd
       0.021633863 -0.02469229 -0.027027901 -0.040741496
000190 93 48 e5 bc f2 31 07 3a f8 0e 0f bc 9d f6 0a bd
       -0.027988708 0.0005157284 -0.008731596 -0.033926595
0001a0 5e fe 56 bc 44 98 5a bc e7 1f 13 bd 8a 92 ac bc
       -0.013122169 -0.013341967 -0.035919096 -0.021065969
0001b0 42 3b d8 bc 0a 71 54 bc 7f bc 52 3d 9e 98 ee 3b
       -0.026395444 -0.012966404 0.051449295 0.007281377
0001c0 2a fa dd 3c 0c 91 39 bd 1d 93 99 bc d5 73 42 bc
       0.027096827 -0.045304343 -0.018746907 -0.011868437
0001d0 8f c3 08 bb b6 6f df bc 43 50 da bb 9e 6b 7c bc
       -0.0020868515 -0.027274948 -0.0066624 -0.015406517
0001e0 37 10 d2 3b 0b 01 a1 bc ac bc 79 bc 67 63 08 bd
       0.0064106244 -0.019653818 -0.015242737 -0.033297922
0001f0 d5 cd 13 bd 93 d5 99 bc 70 54 9e bc 83 69 21 bd
       -0.03608497 -0.018778598 -0.019327372 -0.039407264
000200 1e 1c c7 3a ce f9 d0 bb 09 15 3d 3d 04 35 9e 3c
       0.0015190875 -0.0063774353 0.04616264 0.01931239
000210 bd 8a 3a bd eb 92 0e 3d eb 76 c8 bc 6f e8 73 bc
       -0.045542467 0.03480808 -0.024470767 -0.014886959
000220 bc f0 52 bc d6 1a 44 bd 6b 5d 6e 3c de 5b 0b 3b
       -0.012874778 -0.047877155 0.01454864 0.0021264474
000230 70 71 2e 3c e0 1a 90 bc 52 83 1c 3d 95 91 bb bc
       0.010647163 -0.01759094 0.038211174 -0.022896567
000240 b7 f8 d9 bb 13 3e e5 3b dd e7 d2 3c 67 cb 06 3d
       -0.0066519636 0.006995925 0.025745327 0.032908823
000250 d2 50 10 3d 00 40 35 bd e7 a6 bf bb 0c 4b f5 bb
       0.035233326 -0.04425049 -0.0058487537 -0.007485753
000260 95 d1 53 bc a2 e3 59 bc 55 07 29 3d 44 5d 23 bd
       -0.012928386 -0.013298901 0.041266758 -0.039883867
000270 df e5 11 3d 50 40 b1 3c 88 86 e7 3b 60 fd cb bc
       0.035619613 0.021637112 0.007065598 -0.024901092
000280 be 81 ba 3c 2d 22 c4 3b fa 17 9b bb 5e 93 c6 bc
       0.022766944 0.0059855194 -0.004733083 -0.024240192
000290 3e 55 02 3d cd 50 0b bc 03 17 87 bc 39 0e d9 3c
       0.031819575 -0.008503151 -0.016490465 0.02649604
0002a0 0e c7 c9 3c 70 20 a1 bc 51 6a 6b bc ef 35 f1 3b
       0.02463105 -0.019668788 -0.0143686095 0.0073611657
0002b0 53 a5 fa 3c 7e e5 8e ba ff 1b 63 bc fd f9 ec bc
       0.03059641 -0.0010902134 -0.013861655 -0.028927797
0002c0 bc 24 51 bc a2 0a af 3c 05 21 88 3c 92 fb 13 bd
       -0.012765106 0.021367375 0.016617307 -0.036128588
0002d0 b5 f9 6a 3b ee eb 5a 3c 13 de da ba 10 3d f7 ba
       0.0035854403 0.013361914 -0.0016698263 -0.0018862803
0002e0 fe 18 b9 3b 2f a3 ce 3b 87 e4 2d 3c a0 0a 87 ba
       0.0056487313 0.006306074 0.010613567 -0.0010302849
0002f0 d4 0a e4 ba 26 78 c1 bb 48 80 63 bc 2b 04 b8 bc
       -0.0017398247 -0.0059042154 -0.013885565 -0.022462925
000300 03 08 e6 3c 39 bb a8 3c 3d 00 75 bc d6 e7 e2 bb
       0.028079992 0.020597087 -0.01495367 -0.0069246097
000310 9c bb bf bb 0c 11 a0 3b 4a ae a1 3b 04 db e8 3b
       -0.005851222 0.0048848446 0.004934107 0.007106187
000320 ce e0 31 bd e9 d1 1b bc c6 1d d2 3c 13 46 b1 3b
       -0.04342728 -0.009510496 0.025648963 0.005409965
000330 1b 2e b9 3b ab 18 15 bd 88 38 13 bd 06 56 44 bd
       0.005651248 -0.03640048 -0.035942584 -0.0479336
000340 04 27 1f 3a 1a 68 ec 3b 24 e7 08 3d 66 23 88 3b
       0.00060711824 0.0072145583 0.033423558 0.0041546104
000350 72 7f d4 bc 30 41 82 bc d1 33 53 bc 2c d3 40 3d
       -0.025939677 -0.015900224 -0.012890772 0.04707639
000360 9b 52 00 3c 35 bd 61 bc bf c4 44 3a 35 bf 8f bc
       0.007832195 -0.013778021 0.0007506124 -0.01754723
000370 c5 6c 01 bd c8 f0 31 3d 4a 4b 19 bc 9d d3 02 bc
       -0.03159787 0.043442518 -0.009356329 -0.007985023
000380 6f 5d b5 bb a6 30 cc 3c 7c 51 fe 3c f4 b1 2b 3c
       -0.00553482 0.024925541 0.031044714 0.010479439
000390 a2 2f 6b bc 20 0b ed bc bc 66 d2 bc 9e 37 25 3d
       -0.014354618 -0.028935969 -0.025683753 0.040336244
0003a0 73 bb 76 3b d0 4c 0c 3d d0 cc 76 3c c6 7b 6a 3c
       0.003764835 0.03425294 0.01506348 0.014311736
0003b0 8e f9 4a bc ba f9 b8 bc b9 99 fb bc 52 df 2f bd
       -0.0123886 -0.022580016 -0.03071295 -0.042937584
0003c0 9c 09 19 3c 9d 8a aa bc 73 24 c3 bc 38 1d 05 bd
       0.00934067 -0.02081805 -0.023821091 -0.03249857
0003d0 eb 15 ba bc 2a ff cb bc 6d 62 78 bc 5d 5b 53 3c
       -0.02271553 -0.024901945 -0.015160185 0.012900201
0003e0 2e 8e 39 bc e5 ca ef 3c 64 79 40 3b db 83 1b bd
       -0.011325402 0.029271552 0.002936923 -0.037967544
0003f0 3f 95 61 bc 99 22 fa bb 97 c3 6a bb 49 fb 52 bd
       -0.013768493 -0.007633519 -0.0035822147 -0.051509175

conv1.lin_neigh.bias f4 [64]
000000 0a 1f dd bc 20 9e 8e bc b1 c6 b8 b9 3f fa cc ba
       -0.02699234 -0.017409384 -0.00035243251 -0.0015638544
000010 74 a7 9e bc bd 4d c4 bc 6d 99 07 bd df 09 de 3a
       -0.019366957 -0.02396285 -0.033105303 0.0016940198
000020 ad 58 c7 bc 99 63 55 bc 83 9b 94 3b 83 d4 dc 3c
       -0.024334276 -0.013024234 0.00453514 0.026956802
000030 61 8a 1a 3d 31 f8 a2 bc a8 e4 e7 3c 58 68 a8 bc
       0.037729625 -0.019893738 0.028307274 -0.020557567
000040 ea b6 32 bc 29 bc c4 bc 1c 96 8e 3b bd aa c0 3c
       -0.010907868 -0.024015503 0.0043513905 0.023518914
000050 54 19 10 bc 1c 96 0d 3d fc 13 4d 3b 5c 8a 23 bc
       -0.008795101 0.034566984 0.003129243 -0.009981718
000060 9b 3d 3d 3c cf 72 bf 3c f2 da 1f 3b c2 85 0d 3d
       0.011550332 0.023370175 0.0024391976 0.03455139
000070 6a 4b 54 bc ec e2 67 bc 51 90 12 3d 74 62 c1 bc
       -0.012957433 -0.0141532235 0.035782162 -0.023606516
000080 f8 08 80 bb 8a 85 6a 3c e0 1a 8e 3c e6 b4 6b bb
       -0.003907319 0.014314065 0.0173468 -0.0035965978
000090 03 72 ad 3b 63 c5 30 bc 00 e3 7c 3b 6a d2 b1 bc
       0.0052931323 -0.010789248 0.003858745 -0.021706779
0000a0 d7 4f 53 3d a7 28 80 bc 10 cd 1a 3c ab d2 99 bc
       0.051589813 -0.015644385 0.009448305 -0.018777212
0000b0 a6 ac 83 3c c4 b9 11 3a 19 18 c0 bb 21 2e 92 3c
       0.016073536 0.0005558992 -0.0058622477 0.017844262
0000c0 41 09 a3 39 f6 ea 9f bc b0 36 95 3c 10 2a dd bc
       0.00031096677 -0.019521218 0.018214554 -0.026997596
0000d0 4e 4a a6 3b c5 fa d0 3c d6 bc 60 3c 2e fb c4 3c
       0.005074776 0.025510201 0.013716897 0.024045553
0000e0 a8 c0 c3 3a 23 de b4 3b fa 24 81 bc 3c dc 02 bc
       0.0014934735 0.005519645 -0.015764702 -0.007987078
0000f0 dc ae f7 bc 5d 94 b6 bc 8c cb a6 3a 52 e6 02 bd
       -0.030234747 -0.022287542 0.0012725457 -0.03195793

conv1.lin_self.weight f4 [64, 385]
000000 fc 17 e8 3c 9b 6b af 3a dd dc b5 bc 8c 5a 04 bd
       0.02833175 0.0013383509 -0.022200042 -0.032312915
000010 8f e3 01 3c e3 fc 12 bd e8 56 10 bc 8a c6 16 3c
       0.007927789 -0.035885703 -0.008809783 0.009202609
000020 13 b7 11 bb 23 af 96 bb 06 7d 1c bd d4 81 35 3d
       -0.0022234365 -0.0045985146 -0.03820517 0.044313267
000030 14 4d 50 bc f3 5e 5d 3d 4e c7 49 ba f0 9f e1 3b
       -0.012713689 0.05404563 -0.000769724 0.006885521
000040 a4 e2 ed 3c a0 63 44 bd b9 1d 1f 3d 37 db 11 bd
       0.029038735 -0.047946572 0.038846705 -0.03560945
000050 93 0f b6 bc 57 52 26 bd 79 7e b2 bb f0 b1 0f 3b
       -0.022224223 -0.04060587 -0.0054472056 0.0021926127
000060 65 ea 8a bc ae 19 2c 3d 8b 10 01 3d 2f d0 9a 3b
       -0.016957471 0.042016678 0.031509917 0.0047245244
000070 be 00 63 bc 1a 6c fc 3c 72 f4 45 bd 81 6a 9d bc
       -0.013855157 0.030813266 -0.048328824 -0.019215824
000080 17 ab 4e 3c 22 84 70 bc 6e 13 58 3d 2c 1f 2f bd
       0.012614033 -0.01467994 0.052752905 -0.042754337
000090 81 98 16 3d 39 e7 46 3d da 91 ca 3c 45 18 14 3d
       0.036766533 0.048560355 0.02472775 0.036155958
0000a0 89 36 bc 3b 87 f9 bd bc 35 55 bb 3c 56 20 ad bc
       0.005743806 -0.023190273 0.022867778 -0.021133583
0000b0 6f 62 73 bb 1a 5a 22 3d 8f 65 19 3d 8d 94 2b 3d
       -0.0037137528 0.03963671 0.03745037 0.041889716
0000c0 25 ce ab 3c 2f ce aa 3c 0c 2e 84 3b 41 ae 1d 3c
       0.02097232 0.02085027 0.0040338095 0.009624065
0000d0 31 16 23 bd 3f e1 db bc 5d f5 4b 3b 71 a7 a2 bc
       -0.039816085 -0.026840804 0.003112159 -0.019855233
0000e0 7b aa 16 bd 58 12 2e bd cb 83 18 bd f0 c0 7c 3c
       -0.036783677 -0.042497963 -0.037235063 0.015426859
0000f0 c7 a6 89 3b 8f 4d c4 3c 95 22 54 3c 5a cf c0 3c
       0.0042007896 0.023962764 0.012947698 0.023536373
000100 ec f0 da 3c 51 ab 9b bc 64 a3 1b bc 6b 73 2d 3c
       0.026726209 -0.019002588 -0.009499405 0.0105866
000110 e5 7a ca 3c dd 2f ae 3c ec 36 c5 b9 9f 73 09 3b
       0.024716804 0.021263057 -0.00037615688 0.0020973457
000120 f8 8e 30 bd 87 ef 97 3c 5e 4a eb 3c e0 27 5d 3d
       -0.043105096 0.018546833 0.028721984 0.053993106
000130 b8 88 5e bd bc 40 86 3b d1 18 b9 3c 5d 48 a4 bc
       -0.054329604 0.0040970724 0.022594841 -0.020054037
000140 66 31 68 bc ed c8 64 3c 3f f5 06 3d 79 4f e5 3c
       -0.014171934 0.01396392 0.03294873 0.027991997
000150 7f 76 cd bc 67 11 1d bd 76 30 d3 3b 80 9d 36 3d
       -0.025080917 -0.038346674 0.006444986 0.044583797
000160 3d 2b 32 3d f2 c7 61 3d db 50 3b bc 7e c2 3d bd
       0.043498266 0.055122323 -0.011432852 -0.04632806
000170 da 2e f3 3c 9a f4 13 bd 8b 39 20 3d aa cb 64 3c
       0.029685427 -0.036121942 0.039117377 0.013964573
000180 d0 bd 46 bc 16 76 f4 3b d5 9e 3b 3d 56 c3 f9 bb
       -0.012130216 0.007460366 0.04580577 -0.007622163
000190 7c c5 81 3c d2 9f 5d 3c 73 1b 44 3d 5f df 3e 3d
       0.015841238 0.013526874 0.04787774 0.046599742
0001a0 a1 ab 30 bc e1 75 e5 3c ea 7c 0a 3d 39 eb c6 bb
       -0.010783107 0.02801031 0.033810534 -0.006070521
0001b0 bf 3a 03 bd 49 07 8a 3c f4 8c 16 ba 68 ce 93 bc
       -0.032038447 0.016849177 -0.00057430496 -0.018042758
0001c0 5b 81 16 3d b2 a4 13 bd fe 48 13 3d e0 92 94 bc
       0.036744457 -0.036045738 0.035958283 -0.018136442
0001d0 e2 98 f1 ba 3a f3 77 3c 0d e4 df 3b 92 22 02 3d
       -0.0018432403 0.015133673 0.0068326057 0.03177125
0001e0 23 40 16 bb b1 69 9f bc 8a 44 ed 3c c8 a6 0c 3d
       -0.0022926412 -0.019459577 0.028963346 0.034338742
0001f0 bc 58 d6 3c b3 a5 95 bb 01 e5 2c bc 8c 77 44 3c
       0.026165359 -0.004566872 -0.010552646 0.011991393
000200 7f 94 24 b8 18 63 24 3c 56 a5 4b 3d 1c 1f 9e bc
       -3.9238945e-05 0.010033391 0.049718224 -0.019301943
000210 bc ad 2c bd ff b6 78 ba 6b bf 22 bc ab 8a 35 bc
       -0.042157874 -0.0009487718 -0.009933333 -0.011080424
000220 ed c6 cd 3c 6f a0 28 3d 6a dd 19 3d 46 af 3d 3a
       0.02511927 0.041168626 0.037564673 0.00072358956
000230 08 26 07 3d c5 ed 99 bc 14 d9 39 bd c3 7c 6d bc
       0.032995254 -0.018790135 -0.045373037 -0.014495078
000240 d2 4b 1d bd 46 ad a7 3c ba 92 ac 3c 9e 52 3e 3c
       -0.038402386 0.020468365 0.021066058 0.011616377
000250 e9 4a 4e bc fd 13 ad 3c f0 83 f2 bb e0 e5 0b bd
       -0.012591102 0.021127695 -0.007400982 -0.034154773
000260 5a 97 31 3d 70 78 48 3c 57 ee 2d bd 19 16 50 3c
       0.04335723 0.012235746 -0.042463627 0.012700581
000270 ef 24 36 3d d7 f7 8b ba 03 d9 00 3c 7e 72 b7 bc
       0.044468816 -0.001067872 0.00786424 -0.022393461
000280 58 5b bb bc a9 38 a9 bc e5 b6 b4 3b 94 32 32 bd
       -0.022870705 -0.0206569 0.005514967 -0.043505266
000290 9f d1 bb bc 1d c6 25 3d 7d e6 a3 3c 96 71 27 bc
       -0.022927104 0.04047214 0.020007366 -0.010219952
0002a0 ed 63 06 3c 6d 3e bb 3b f9 24 c6 39 03 6a 1b bd
       0.008202535 0.005714229 0.0003779305 -0.037942898
0002b0 8b a9 57 3d 99 63 ed bc d0 b9 5f 3d 16 ed de bc
       0.052651923 -0.028978156 0.054620564 -0.02721266
0002c0 6f 02 56 3c c7 02 07 bd 0b b7 d2 bb 52 19 af 3c
       0.013062104 -0.032961633 -0.006430512 0.021374378
0002d0 0a e0 5e bd d4 04 e0 bc cd 0f 06 bd 03 fa c8 bc
       -0.05441288 -0.027346052 -0.032729913 -0.024533277
0002e0 fd 10 f0 3c 12 55 c3 3c c8 dd 16 bd e5 70 c1 3c
       0.029304976 0.023844276 -0.0368326 0.023613403
0002f0 52 4d 8c bb 75 5b 17 bd c5 8c d8 bc 67 a9 40 bc
       -0.0042816782 -0.036952455 -0.026434312 -0.011759139
000300 02 32 4f bc 2a 35 13 bd 99 e3 6a bc 48 ae 09 bd
       -0.0126462 -0.035939373 -0.01433649 -0.033613473
000310 60 3f b0 3c ba 72 1d bd ac 5f 23 3b a9 a1 01 bd
       0.021514595 -0.03843949 0.002492885 -0.03164831
000320 fc 59 3a 3c 21 10 1f 3d 44 68 6e 3c 3f 7f aa 3c
       0.011373993 0.03883374 0.014551226 0.020812629
000330 be f8 1f 3d 2b 6d 54 bd 89 e0 c3 3b 33 44 1c 3d
       0.03905558 -0.051861923 0.0059776944 0.038150977
000340 f9 9a 19 3d 64 90 b5 bc be a7 5a bd 71 3f 37 3d
       0.03750131 -0.022163577 -0.053382628 0.044738237
000350 fe 5b 23 3c a8 35 d2 3b 56 4a 82 bc 0d 92 1b 3d
       0.009970663 0.0064150877 -0.015904587 0.03798108
000360 76 0d 51 bc 4b 3a 67 39 c3 14 d5 3c 30 a2 2a bd
       -0.012759557 0.00022051593 0.026010877 -0.04165858
000370 f6 49 8f bc 75 20 fc 3c 06 a3 e9 3c 94 99 96 ba
       -0.017491322 0.030777195 0.028520118 -0.0011489862
000380 b9 96 1a bb 32 d7 ba bc 86 4e 39 bd b7 fd d4 bc
       -0.0023588373 -0.022807691 -0.0452409 -0.025999887
000390 0f 67 21 bd a5 a8 7d 3d fc 15 b4 bc 1b e8 e9 3c
       -0.039404925 0.06192841 -0.02198314 0.02855306
0003a0 bc 11 b8 bc 78 dc 5e bc d5 cf d4 3b 3c 85 82 3c
       -0.022469394 -0.0136023685 0.006494502 0.015932672
0003b0 a6 c0 46 3b 17 64 69 3d 4a 68 22 bc 94 2e 3a 3d
       0.003032723 0.05698022 -0.00991256 0.045454577
0003c0 3b 52 e5 3c 12 03 a2 bc 12 d4 27 bd 11 ce 6f bd
       0.027993312 -0.019776855 -0.04097373 -0.05854613
0003d0 3d 96 67 3c db 08 f2 3c 25 94 08 3d 77 c8 91 bc
       0.014134941 0.029545238 0.033344407 -0.017795784
0003e0 59 ec b1 3c 3e 79 c3 3c d7 ef 08 3d 02 00 ba bc
       0.021719145 0.023861524 0.033431854 -0.022705082
0003f0 62 f9 a5 3c 71 5a 36 bd 9a 14 1a 3d 26 cc 4a bb
       0.020260517 -0.044519845 0.037617303 -0.0030944436

conv1.lin_self.bias f4 [64]
000000 8f 1f 8c 3d 8e 3a 08 bd 59 08 28 3d 5f 9c 53 3d
       0.06841957 -0.033258967 0.041023586 0.0516628
000010 32 19 46 3d 21 4f 1f bc 39 76 77 bd 60 45 52 bd
       0.048363872 -0.009723456 -0.06041548 -0.051335692
000020 27 1a 16 bc 22 1c 56 bd f1 8c df 3c 92 89 ab bb
       -0.009161509 -0.052272923 0.027288886 -0.0052349055
000030 47 90 bf 3c 37 6a 15 3d 59 62 ae 3b cc 53 12 bd
       0.023384226 0.036478247 0.0053217825 -0.035724446
000040 53 0d da bc dc 5b 78 3c 0f ee 3c bd ca be fd bb
       -0.026617682 0.01515862 -0.046125468 -0.007743691
000050 d5 1b 53 bd 51 a9 0b 3d 20 d4 3c 3d 4e 0c 87 3c
       -0.051540215 0.03409702 0.046100736 0.01648536
000060 9b 53 e2 bc 68 c2 20 3c 1e ac 52 bd ed 9b 2b b8
       -0.027627757 0.009811975 -0.051433675 -4.0914794e-05
000070 23 d5 7b 3b 99 e0 88 bc a9 81 db bc 70 df 59 3d
       0.00384266 -0.016708659 -0.026795225 0.053191602
000080 1e 20 67 bd f7 30 83 3c cb a4 0b 3d 64 fd d5 3c
       -0.056427114 0.01601456 0.034092706 0.026121803
000090 3f 05 12 bc 90 0a de bc e7 96 7b 3d 80 86 85 bb
       -0.008912384 -0.027104646 0.06142321 -0.0040748715
0000a0 9a 12 d3 3c 20 30 33 3d 4c d2 33 3d c3 63 09 3d
       0.025765706 0.043747067 0.043901727 0.033542406
0000b0 96 b1 83 3c 48 f2 e3 bb e9 47 34 3c 2d aa 8e 3c
       0.01607589 -0.0069563724 0.011003473 0.01741513
0000c0 d9 e9 85 3d a8 e7 85 3c 3e 53 8c bc 95 15 5d 3d
       0.065387435 0.016345814 -0.017129537 0.05397566
0000d0 37 d6 cd 3c 60 e0 31 3d 13 66 0c 3c fe f4 08 3c
       0.02512656 0.04342687 0.008569258 0.008359192
0000e0 98 84 02 3d b1 91 2c bd 5b f3 1d bd b0 58 8a 3a
       0.031864733 -0.04213113 -0.03856216 0.0010554995
0000f0 01 20 92 bb cf 9a 87 3d 47 f2 ae bc 50 92 22 bd
       -0.0044593816 0.06621324 -0.021355761 -0.039690316

conv2.lin_neigh.weight f4 [32, 448]
000000 8a 24 5d bd 74 87 96 bb 5a c3 62 bc 24 79 49 bd
       -0.053989924 -0.004593784 -0.013840521 -0.049187794
000010 31 d5 a3 ba 49 9a 4c 3c 85 49 72 bd 39 d6 32 bd
       -0.0012499449 0.012487956 -0.059152145 -0.04366133
000020 fa 5c 1f 3d 9f 3b f9 bc 7c 54 12 3d f8 e0 6b bd
       0.03890703 -0.030423937 0.0357251 -0.057587594
000030 46 d6 a0 3b 3b 20 ac 3c bd 0b 1a bd 14 26 44 bd
       0.004908356 0.021011462 -0.03760885 -0.047887877
000040 24 b8 37 bc 63 3e 9c bb 0a f7 a6 bc c4 19 d5 ba
       -0.011213336 -0.0047681793 -0.02038147 -0.0016258289
000050 b2 6e c1 bb e7 e1 1d bd b0 55 09 3c f5 39 24 bd
       -0.0059030885 -0.038545515 0.008382246 -0.040094335
000060 59 61 54 bb 7c 07 86 bd b5 b9 0b bd c9 e6 ca 3c
       -0.0032406657 -0.06544396 -0.03411265 0.02476825
000070 59 1c 80 3c 08 30 ef bc 20 35 bc bc 1b 51 7b bd
       0.015638517 -0.029197708 -0.02297455 -0.061356645
000080 27 4f 96 bb 8d 21 cf 3c 2d 4b 87 bd e5 e3 00 3b
       -0.0045870724 0.025284553 -0.066061355 0.0019667086
000090 56 45 63 bd 23 d9 c0 3c 6b 0b 87 bd a8 e0 a2 3c
       -0.055486046 0.023541039 -0.06593975 0.019882515
0000a0 df a4 92 3c 7d 20 8e bd 4e b5 ea 3b b3 e6 1e bd
       0.017900882 -0.069397904 0.0071627265 -0.03879423
0000b0 39 b1 6b bc 93 ec 05 bd ef 1d 39 3b 11 9b 19 bc
       -0.014385515 -0.032696318 0.0028246602 -0.00937535
0000c0 3e e3 a2 bc 31 1c a3 bc 42 dd 0b bd ae e3 73 3c
       -0.019883748 -0.019910904 -0.034146555 0.014885826
0000d0 75 47 47 3c 5f 5b ee 3a 1f b6 e9 bc 8b e6 ff bc
       0.012163033 0.001818519 -0.028529225 -0.031237861
0000e0 0c 7f 97 3d dc 59 46 bc d3 4f 68 3a 71 4c 55 bd
       0.07397279 -0.012106385 0.00088619924 -0.052074853
0000f0 27 af ec 3c 2f f8 3a bc 92 f6 8a 3b 19 49 17 bd
       0.028892113 -0.011411711 0.0042408193 -0.036934946
000100 d2 3f 6b 3d f1 bb 88 bb 4c de a7 3c 70 f2 d5 bc
       0.05743391 -0.004172795 0.020491742 -0.02611658
000110 4a e4 37 3b 5b 59 4e 3c 53 83 1f bd 37 89 f2 3c
       0.0028059655 0.012594546 -0.0389436 0.029606445
000120 94 16 33 3d 28 ff 20 3c 68 9d 98 3c 79 42 8e bb
       0.043722704 0.009826459 0.018629745 -0.0043414203
000130 86 63 49 bd 47 be cd bc f7 70 57 3d 2a 37 4c bd
       -0.04916718 -0.025115145 0.052597966 -0.049857296
000140 45 ab 9b 3c c1 24 1c 3d f7 9f d5 bc fc fe 15 3c
       0.019002566 0.03812099 -0.026077254 0.009155031
000150 34 c0 f0 3c eb 2e 02 3c ea 9e 8e bc 41 70 8c 3d
       0.029388525 0.007945756 -0.01740976 0.06857348
000160 60 a7 9c 3b 0c 8b ae bc 3f 85 cd bb 1d fa ee 3b
       0.004780695 -0.021306537 -0.0062719877 0.0072929994
000170 ce d4 87 bc 9f f2 11 3b c9 12 af 3c ae 42 a6 3b
       -0.016580965 0.0022269858 0.021371262 0.005073867
000180 1c 9d 53 bc e9 6e 1a bd c7 0d fe bc 02 15 5b bd
       -0.012915876 -0.03770343 -0.031012429 -0.05348683
000190 b7 6e 20 bd 30 74 b9 bb cb 76 e0 3c e8 33 b4 bc
       -0.039168086 -0.0056596026 0.027400395 -0.021997407
0001a0 6c cf b6 3c 92 12 e8 bc c8 f6 d0 ba 8e 6d b2 ba
       0.022315703 -0.028329168 -0.0015942687 -0.0013612972
0001b0 5d f2 6b 3c d8 d0 96 3c 97 c3 09 3d 33 8b 47 3d
       0.014401046 0.018410131 0.033633795 0.048716735
0001c0 dd 7f aa b9 ec 41 e0 bc 51 02 67 3d f5 06 07 bd
       -0.00032520192 -0.027375184 0.056398693 -0.03296562
0001d0 84 a2 8f 3c 9e db e4 bc c7 85 66 bc cb 0d 8c bc
       0.017533548 -0.027936753 -0.014069981 -0.01709642
0001e0 60 61 aa 3c a6 33 0b bc cb 62 ba 3c 60 b8 87 3d
       0.020798385 -0.008496201 0.022752186 0.066269636
0001f0 9e 7f f0 bc c5 a4 6e b9 34 2f a0 3c dc ed 85 ba
       -0.029357728 -0.0002275883 0.019553758 -0.0010217982
000200 f7 a4 36 bd 7d 67 c4 3c 06 93 f0 bc 8b 4c 15 bd
       -0.044590916 0.023975128 -0.029366981 -0.03644995
000210 7d 76 8d bd 30 40 6d bc e8 82 74 3c 05 2f 09 3c
       -0.069073655 -0.0144806355 0.014923789 0.008373027
000220 5f ff 74 bc cd 36 c4 bb 63 04 df bc 1e 97 5c bd
       -0.014953463 -0.005987978 -0.027223771 -0.053855054
000230 99 c3 0e bc f2 18 60 3c b2 a9 f1 3b 4e 62 89 bc
       -0.008713626 0.013677822 0.0073749656 -0.016770508
000240 3d a4 6e bc 68 53 19 bd 42 19 89 3c 7c d0 cd 3c
       -0.014565525 -0.037433058 0.016735677 0.025123827
000250 61 9a 45 3d 29 09 85 bc 9d 99 98 3c 1b c1 0b bd
       0.04824293 -0.01623972 0.018627936 -0.034119707
000260 ed 22 49 bc 46 7c 8e bb 4a ee f6 3a 93 bc 97 3c
       -0.012276393 -0.0043483106 0.0018839326 0.018522536
000270 24 65 a1 bc 1f 69 2c bd 86 a5 9b 3c ee 33 9d 3c
       -0.019701548 -0.04209244 0.018999826 0.019189801
000280 ce 0d c1 3a 86 1c c8 3b 87 ed 7d bd 98 06 75 3c
       0.0014728846 0.006106916 -0.0619941 0.014955185
000290 02 26 d7 3c d8 2d 43 3d bd 2a 33 bd 65 d3 1f 3d
       0.02626324 0.047651142 -0.04374193 0.03901996
0002a0 ca c6 8e bc 4d c3 5d 3d c5 63 8a 3c 55 74 a9 3c
       -0.017428774 0.05414133 0.016893277 0.020685354
0002b0 ae 8c f9 bc c3 c4 7d bb 45 8c 5c 3c 7d 99 5b bd
       -0.03046259 -0.0038722015 0.013461177 -0.053613175
0002c0 03 3e 7f bc e7 e2 09 3d 12 22 41 bd db 77 bf 3c
       -0.01557875 0.033663657 -0.047151633 0.023372581
0002d0 f9 f6 46 3c 51 93 4c bd 1e b9 fc bc 49 71 8d 3c
       0.012143844 -0.04994518 -0.03084999 0.017265933
0002e0 35 5e 87 3d 4f e0 d3 3b 7e 67 2a bc b8 61 54 bd
       0.066097654 0.0064659487 -0.010400651 -0.051851004
0002f0 bf 03 09 3d 2c e6 46 3b 72 21 51 3d ec 33 59 ba
       0.03345084 0.0030349595 0.051057287 -0.000828563
000300 16 96 24 3d ad ea e1 bc d4 34 1a 3d 20 e4 70 bd
       0.040182196 -0.027577722 0.037648037 -0.058811307
000310 71 36 90 bb 60 2e c7 bc 23 76 49 3c c4 bd a9 bc
       -0.004401021 -0.024314106 0.012296232 -0.02072037
000320 33 d6 1b 3d ef 31 59 bd 53 e6 7a 3d 38 8a 47 bd
       0.038046073 -0.053026136 0.06125481 -0.0487158
000330 c5 6c 7a bc 13 46 fe bc 57 bd c6 3c e0 fd 39 bc
       -0.015284722 -0.031039273 0.024260206 -0.011352032
000340 37 73 6f 3d 7f 67 07 3c da 50 49 3d 8d 10 32 3d
       0.058459487 0.0082644215 0.04914937 0.043472815
000350 c4 20 0c bd 32 09 23 bd da f4 cb 3c ca d7 4f bb
       -0.034210935 -0.03980369 0.024897028 -0.0031714314
000360 4c 45 41 3d ed c1 77 bd bc 5d f4 bc 98 6e 3d 3c
       0.047185227 -0.060487676 -0.029829852 0.011562012
000370 47 b2 06 bd 71 b8 22 bb 4a d3 95 3c 37 fa b8 bc
       -0.032884862 -0.0024829174 0.018289227 -0.02258025
000380 90 65 26 bd 75 69 c8 bc 71 f8 81 bc 8c 11 c1 3b
       -0.0406242 -0.024464348 -0.015865536 0.0058919843
000390 e9 43 42 3d c6 13 a9 bc 69 b8 32 bd bc 59 91 3c
       0.047428045 -0.020639312 -0.0436329 0.017742984
0003a0 03 45 3e bd f0 5d 33 bd c3 12 16 3c aa e4 8d 3b
       -0.046452533 -0.043790758 0.009159747 0.0043302374
0003b0 32 7d c4 3b 4f 68 db bc 46 da 93 bc 8c 9f 35 bd
       0.0059963698 -0.026783137 -0.018048417 -0.04434161
0003c0 71 21 07 3c 64 8f 2b 3b 80 31 c1 bc f2 26 82 3c
       0.008247719 0.0026177997 -0.023583174 0.015887711
0003d0 86 33 95 bc 63 39 21 bb 25 58 e5 bc ed f3 3b bb
       -0.018213045 -0.0024600856 -0.027996132 -0.0028679327
0003e0 d0 8b 08 bd 38 5b 0d bd 28 ff 5c bd 02 df 79 bc
       -0.03333646 -0.03451082 -0.053954273 -0.015250923
0003f0 2b d1 92 3c 69 74 38 bd f8 62 03 3d 8d f8 0b bd
       0.017922005 -0.045032892 0.032076806 -0.034172583

conv2.lin_neigh.bias f4 [32]
000000 02 ed a0 bc b1 5d 47 bc 6f 0b b0 3c 1a 8f 4a bd
       -0.019644264 -0.012168334 0.021489827 -0.04945288
000010 80 56 a9 bb d6 a5 1d bd de a8 76 bd 00 31 30 bd
       -0.0051677823 -0.03848823 -0.060219638 -0.04301548
000020 ca 45 05 bd 63 9a f2 bc 20 39 82 3b 68 40 5b bd
       -0.03253726 -0.029614633 0.003974095 -0.05352822
000030 de 2a ee bc a5 90 08 bc 11 8b 6b bb c3 ea 66 bc
       -0.029073175 -0.008335267 -0.0035941044 -0.0140940575
000040 79 f2 5e 3c 15 c7 6f 3c 1c 32 9f bb 07 3e ab 3c
       0.013607615 0.014634867 -0.0048582684 0.0209036
000050 35 e8 07 bc ce a8 1e bd ba 5c 28 bd 1f db d2 3c
       -0.008295109 -0.038735203 -0.041104056 0.02573925
000060 32 9b 61 bd 4a f3 c0 bc fb 7b e2 bb 13 4a 0b bd
       -0.055079646 -0.02355351 -0.0069117523 -0.03400619
000070 08 0f cc 3c 6e 9f 90 bc 1d 07 9b bb d8 6b bc bc
       0.024909511 -0.017654147 -0.0047310726 -0.023000643

conv2.lin_self.weight f4 [32, 64]
000000 10 e0 53 3b af 63 f2 3c 22 12 6e bd f5 e1 bd 3d
       0.0032329597 0.029588548 -0.05812276 0.092716135
000010 28 22 cf bd 33 2a 89 3c c2 78 89 bc c3 d8 97 bd
       -0.10113937 0.016743755 -0.016781215 -0.07414391
000020 23 56 0e 3e 44 ff d0 bd 5c 26 4c 3d e9 35 d5 3c
       0.13900046 -0.10204938 0.04984127 0.026026683
000030 f6 f9 01 bd d0 44 ec bd 83 a9 3f bd 3f 3d 8a 3d
       -0.031732522 -0.115365624 -0.04679252 0.06749963
000040 27 ab 85 3d ce cf ce bd f8 43 a3 bc ec 1e 22 3d
       0.06526785 -0.10098229 -0.019929871 0.03958027
000050 d0 cd f5 bd 65 2e 04 be aa 70 04 3d f4 99 cb 3c
       -0.12002146 -0.12908323 0.032334007 0.024853684
000060 83 9e 3a bd c8 9b 91 bd 8b 79 ac bd ef 76 a6 3d
       -0.045561325 -0.07109791 -0.0842162 0.081281535
000070 08 8f 9c 3d 6c de 05 3d 9d 9c 32 bc c7 98 4c bd
       0.076444685 0.03268282 -0.010901597 -0.049950387
000080 d4 f1 bf bb 22 2d 79 3d 6b 13 b1 bd f8 3f 6f 3c
       -0.0058576856 0.060834058 -0.08646282 0.014602654
000090 06 bd 05 be 42 7a 88 bd 67 d3 82 bd c0 14 7a bd
       -0.13060388 -0.06663944 -0.06387978 -0.061054945
0000a0 6a 83 a8 bd 17 08 97 bc 2d 43 84 3d 86 02 d1 bd
       -0.0822819 -0.018436475 0.06458125 -0.102055594
0000b0 04 3c 87 bd 44 52 39 3d 92 76 a2 3d 41 9e 0e bc
       -0.06603244 0.04524447 0.07932772 -0.008704723
0000c0 26 33 6c bd 35 bf d1 bc 34 66 f8 bd 9b 64 17 3b
       -0.057665966 -0.02560387 -0.12128869 0.0023100737
0000d0 b9 22 b3 3d 56 43 09 be 3d 8f e5 bd b8 84 c9 3d
       0.08746857 -0.13404593 -0.11208961 0.09839767
0000e0 51 33 07 3e d1 1e 12 3e 4f 5e dd bc 10 31 e2 bd
       0.1320317 0.14269568 -0.027022509 -0.11044514
0000f0 00 b3 db 3c 7f 6e ab 3d 32 5b db bd bf 6d bf bd
       0.026818752 0.08370685 -0.107107535 -0.09347104
000100 ac 79 b2 bd 85 dd f1 3c 6a 2c 93 3d 7c 2c f6 bd
       -0.08714613 0.029524574 0.07186206 -0.120202035
000110 aa 2a ca bc 07 95 f2 3d 60 1b 47 3d 6f bf 51 bd
       -0.024678547 0.11844831 0.04861009 -0.051207956
000120 23 3b c7 bd ab 38 4c 3d 1e d0 e2 bd d4 64 37 3c
       -0.09728076 0.04985873 -0.110748515 0.011193473
000130 77 ab 80 bc 78 0b 56 bc f3 ff d5 3d a1 79 f3 bd
       -0.01570676 -0.013064258 0.10449209 -0.11888433
000140 0d f9 be bd 3b 7c da bd 78 96 25 3d 02 2a d3 bd
       -0.093248464 -0.10668226 0.0404267 -0.10310747
000150 5a 89 01 bc a6 e1 a2 bc 56 ba 58 bd 14 ab a9 3d
       -0.007906282 -0.019882988 -0.05291208 0.08284584
000160 7a ad 42 bd e9 fc d8 bd c1 d5 e8 bd 14 2b e0 bd
       -0.04752872 -0.10595114 -0.11368895 -0.109457165
000170 65 24 d3 3d 26 7b a8 bc 43 2c 4d bc 31 1e b6 3d
       0.10309676 -0.020566534 -0.01252276 0.08892477
000180 db 62 05 3e 7d e9 58 3c 8e 8d 9f bd 7c 64 79 bd
       0.13025992 0.013239262 -0.07790671 -0.060886845
000190 09 0b 82 3b ff 3d dc 3d 98 55 a1 3d 02 9a e9 3c
       0.0039686006 0.10754012 0.07877654 0.02851582
0001a0 eb d8 33 bd f6 25 93 bd e7 39 d3 bd 6e de f8 bd
       -0.04390804 -0.07184975 -0.10313778 -0.121518
0001b0 f0 37 5a bd 0b 74 eb bd 2c da cd bd fa 55 0b be
       -0.053276002 -0.11496743 -0.100513786 -0.13607016
0001c0 36 1b 5b bd 46 29 4d 3d 30 fc c5 3d b9 24 82 3d
       -0.053492747 0.05008819 0.096672416 0.063546605
0001d0 e3 ed 16 bd 31 07 0e be f6 d2 4c bd 6b 12 a0 bb
       -0.03684796 -0.13869931 -0.050005876 -0.004885008
0001e0 72 83 ab bd d5 cf be bd 7f 77 b3 bd 25 20 bf bd
       -0.083746806 -0.093169846 -0.087630264 -0.09332303
0001f0 1c 1b 8d 3d b3 3e b6 bd f2 68 35 3d 5f fc 8f bd
       0.06889936 -0.08898678 0.044289537 -0.07030558
000200 bc 3f 09 be a1 d3 bb bd cd 6d b5 3d 41 05 f9 bd
       -0.13403219 -0.091712244 0.088588335 -0.12159205
000210 1d 07 a7 bd f3 5a f5 bd 1a 49 dd 3c 66 fb 7b bd
       -0.081556536 -0.11980238 0.027012397 -0.06151905
000220 1b b8 64 bd f3 7e bf 3d 66 7b c2 bc 89 18 52 3c
       -0.05583964 0.093503855 -0.023740482 0.012823232
000230 73 c2 3d 3c ae 46 e3 3d 87 7a 63 3c 59 aa 2b bd
       0.011582005 0.110974655 0.013884193 -0.041910503
000240 1a 84 94 bc 78 45 f6 3c 11 52 f7 3c 3f df 13 bd
       -0.018129397 0.030062422 0.0301905 -0.036101576
000250 9c 5c 0e 3c fa 02 71 3c ce c0 98 3b 90 5f d4 3c
       0.008689072 0.014710182 0.004661656 0.025924474
000260 58 f1 a2 3d ac 37 25 3d 19 f6 ec bd 14 0b 85 bd
       0.07956189 0.040336296 -0.11570377 -0.064962536
000270 38 b2 4a bb 96 8b 3a bd 53 52 0c bc 9f 63 8d bb
       -0.003092898 -0.045543276 -0.0085645495 -0.0043148543
000280 c3 c5 d8 3c 2b 57 9c 3d b9 1a 10 be 5e a5 58 3d
       0.026461488 0.076338135 -0.14072694 0.05289208
000290 75 29 37 3d 0e 3e 24 bd 7f b9 94 bc 1e ff 85 bd
       0.04471727 -0.040098242 -0.018154858 -0.065428
0002a0 88 5b f2 bd 8d a9 15 be c8 d4 6d 3c 19 97 dd 3c
       -0.118338645 -0.1461546 0.014516063 0.027049588
0002b0 20 a6 aa bd 48 d1 9c 3d 09 ae d4 bd 60 28 89 3d
       -0.08332467 0.07657105 -0.10384757 0.06697154
0002c0 bb fc c2 bd 75 f9 8a bd 2d 76 8b 3d f1 e8 ed bd
       -0.09520861 -0.067858614 0.068096496 -0.11616696
0002d0 79 c3 aa bd b7 9b 02 bd 37 47 a3 bd d3 c5 d6 bd
       -0.08338065 -0.031886782 -0.079725675 -0.10486951
0002e0 49 04 3a bd 1a a7 de bc 15 55 96 bc a4 39 85 3b
       -0.045414243 -0.02717929 -0.018351117 0.004065709
0002f0 b4 91 ff bc 3a 33 93 bd c8 51 83 bc bc b2 a6 bd
       -0.031197406 -0.07187505 -0.016030207 -0.081395596
000300 f2 26 da bd d6 2d c2 3d e9 9e 09 be af c8 d7 bb
       -0.106519595 0.09481399 -0.13439526 -0.0065852026
000310 ae a2 60 bd 99 8a b0 b8 23 b3 37 3d 4a 82 0a 3e
       -0.054842643 -8.41815e-05 0.044848572 0.13526264
000320 66 d6 b3 bd 7d 40 39 bd ef 49 c9 bd 09 4b 1e 3d
       -0.08781128 -0.045227516 -0.09828555 0.038645778
000330 81 02 31 3d 80 bc 9f 3d 84 8f 91 3d 50 e9 24 bd
       0.04321528 0.077996254 0.071074516 -0.040261567
000340 d0 7f 58 3d fe 46 e6 bd 7d 33 58 3d 4d 26 e4 bd
       0.052856266 -0.112440094 0.052783478 -0.11140118
000350 e0 52 6b bd 16 90 07 be 86 89 a8 bd 58 6e 9c 3d
       -0.057452083 -0.13238558 -0.082293555 0.07638234
000360 b8 0e bd 3d 37 37 de 3d 04 2e 93 bd c8 bd 97 3d
       0.09231323 0.10850375 -0.07186511 0.07409245
000370 27 be c3 3d 69 c0 7a 3d 97 23 b7 3d 81 e7 b0 bc
       0.09557753 0.061218653 0.08942335 -0.021594765
000380 d1 60 90 3d 4e ec 57 bb 74 56 a6 3d 48 8f c8 bd
       0.07049716 -0.0032947245 0.081219584 -0.09792954
000390 c8 b5 df 3d ce b2 9d 3c be a6 9e bc f1 fe eb 3d
       0.10923344 0.0192503 -0.019366618 0.115232356
0003a0 3a b1 99 3d 20 d6 58 bd ca 6d 0c be 44 f8 b6 bc
       0.075045064 -0.05293858 -0.13713756 -0.02233518
0003b0 b7 1b a2 3d d3 34 60 bd 9d 82 87 bd a7 22 f4 bd
       0.079154424 -0.054737877 -0.066167094 -0.11920672
0003c0 a4 9e a6 bd ab 07 b6 bb bb b3 bc 3d 42 97 e5 bd
       -0.08135727 -0.0055551133 0.09213968 -0.11210491
0003d0 5a 3b 97 bd 19 1c aa 3b 5b 01 76 3d 5d 65 a6 bd
       -0.07384367 0.005191338 0.060059886 -0.08124802
0003e0 ca b3 34 3c a2 02 18 be f3 50 b5 3d db 0a ec bd
       0.011029193 -0.14844754 0.088533305 -0.11525508
0003f0 8c 14 f0 3d a3 64 a3 bd 92 fd 30 bd 40 44 ef bd
       0.11722669 -0.07978179 -0.043210573 -0.116829395

conv2.lin_self.bias f4 [32]
000000 21 2e 88 3d db 1d 03 3d da e4 4f bd 7a 3c db 3c
       0.066494234 0.032010894 -0.05075536 0.026762236
000010 d8 f1 70 3d 57 1b 89 3d 90 9d cc bd 0f 9d 06 be
       0.05882439 0.06694668 -0.0999099 -0.1314585
000020 35 64 0f 3d 0e 19 3a bc 47 af 8e bd 17 96 9b bd
       0.035007674 -0.011358513 -0.06967025 -0.07596987
000030 4d 73 40 3d b3 25 00 3d be 9d 59 3d df 2a 8c bd
       0.04698496 0.031285953 0.05312895 -0.068441145
000040 48 1f b2 3d 67 e1 5f 3d 26 68 79 bd ea 97 8c bc
       0.08697373 0.05465832 -0.06089034 -0.017162282
000050 39 38 05 be 3a 56 6d 3a e5 32 03 be f9 06 ce bd
       -0.13009728 0.0009053681 -0.12812383 -0.10059924
000060 8e 2c e9 3c fe 14 f4 3b 99 c5 a7 bd 89 fd 29 3c
       0.028463628 0.0074487915 -0.08191986 0.010375389
000070 36 d4 65 3c fe 3d d5 bd aa 34 0e be 4a c6 b8 3d
       0.014027646 -0.10412215 -0.13887277 0.09022196

bn1.weight f4 [64]
000000 a9 bd 7d 3f 12 33 82 3f 9f 5a 7d 3f a6 40 7a 3f
       0.99117523 1.0171835 0.989664 0.97754896
000010 95 dd 81 3f ac 5d 82 3f 4d 2d 83 3f 59 a6 82 3f
       1.0145746 1.0184836 1.02482 1.0207015
000020 71 ed 81 3f fc 31 80 3f d3 a9 7d 3f ce 22 81 3f
       1.0150586 1.0015254 0.99087256 1.0088747
000030 02 3a 7f 3f 49 45 80 3f 34 d3 7b 3f c4 9b 7a 3f
       0.9969789 1.0021144 0.98369145 0.9789393
000040 56 af 82 3f 70 c6 7d 3f f7 9a 80 3f 6f 07 7a 3f
       1.0209758 0.99130917 1.0047292 0.9766759
000050 b9 a5 81 3f 31 6e 7a 3f 18 4b 7d 3f fe 9a 81 3f
       1.01287 0.9782439 0.9894271 1.0125425
000060 2f 74 82 3f aa c5 7f 3f e9 94 7e 3f 15 6a 7a 3f
       1.0191706 0.99910986 0.9944597 0.9781812
000070 0d 70 7b 3f 9e 9f 7e 3f c9 19 7c 3f 7f f9 79 3f
       0.9821785 0.99462306 0.98476845 0.97646326
000080 93 2c 80 3f 25 fe 7a 3f 87 d1 80 3f 62 60 7a 3f
       1.0013603 0.98044044 1.0063943 0.9780332
000090 e9 1d 7d 3f 2f 80 83 3f 01 49 82 3f 03 1f 81 3f
       0.98873764 1.0273494 1.0178529 1.0087589
0000a0 1b 23 81 3f 5b c1 7b 3f 54 85 82 3f f0 85 81 3f
       1.0088838 0.9834191 1.0196939 1.0119
0000b0 cb af 82 3f f8 9b 7e 3f 69 5e 7a 3f 83 09 7c 3f
       1.0209898 0.9945674 0.9780031 0.98452014
0000c0 40 33 81 3f 40 37 7d 3f 45 a3 82 3f d2 d5 7a 3f
       1.0093765 0.9891243 1.0206076 0.97982514
0000d0 d1 48 81 3f 75 87 81 3f 59 ff 7f 3f 21 6a 83 3f
       1.0100347 1.0119463 0.99999005 1.0266763
0000e0 fd 54 82 3f d0 0e 82 3f 48 83 7f 3f 64 c6 7b 3f
       1.0182186 1.016077 0.99809694 0.98349595
0000f0 75 22 82 3f 01 36 7b 3f 08 0d 7c 3f c2 4c 7e 3f
       1.0166765 0.9812928 0.98457384 0.99335873

bn1.bias f4 [64]
000000 0a 88 1e 3c c6 23 ed 3b d6 9f 04 bb 50 7a bd bc
       0.009675989 0.0072369305 -0.0020236871 -0.023129612
000010 b2 23 cf 3c 68 60 18 3c 9f c4 ba 3c 02 d1 5e 3c
       0.025285576 0.009300329 0.022798834 0.013599636
000020 d7 86 a0 3c 46 6e 1f bc f7 2c 13 bb d6 41 2f bc
       0.019595547 -0.009730881 -0.002245722 -0.010696849
000030 6c 8f ad ba 85 cc d1 bb 43 4c a6 bc c3 65 9b bc
       -0.0013241596 -0.0064025545 -0.020300036 -0.018969422
000040 e4 c1 7b 3c e2 47 97 bc e0 15 27 bc 4f 1d d6 bc
       0.015366051 -0.018466894 -0.0101980865 -0.026137022
000050 3d 75 80 3a 26 62 99 bc 75 d4 b4 bb 5b 60 77 bc
       0.0009800565 -0.018723559 -0.005518491 -0.0150986565
000060 65 78 41 3c e0 8b 15 3c a2 1c 42 bc 31 74 a8 bc
       0.011808489 0.009127587 -0.011847647 -0.020563217
000070 aa 62 9b bc 07 b5 47 bc e4 1b 65 bc 5f 03 8e bc
       -0.018967945 -0.012189156 -0.0139837 -0.017335592
000080 ac 82 8a bb f6 09 b9 bc bc 59 b5 3c 14 02 ad bc
       -0.004227003 -0.022587758 0.022137515 -0.021119155
000090 8c 73 4a bc 6b e0 93 3c 0f 36 bf 3c d2 ff 56 bc
       -0.01235665 0.018051347 0.023341207 -0.013122516
0000a0 da d8 00 bb 9e f8 b7 bc 4b 1e c5 3c 16 13 c1 3c
       -0.0019660504 -0.022457417 0.024062296 0.023568671
0000b0 a7 7d ce 3c 0e 58 a2 bc 93 0b 19 bc 8b 09 e0 bb
       0.0252064 -0.019817378 -0.009341138 -0.006837075
0000c0 8f e2 9e 3c 7c 2a b4 ba 33 91 72 3c 9d 19 85 bc
       0.01939514 -0.0013745571 0.014805126 -0.016247565
0000d0 8b 94 cb 3a ac a6 52 3c 7b 53 40 3c 86 0a bd 3c
       0.001553194 0.0128571205 0.011738653 0.023076307
0000e0 2e b4 5b 3c 64 0f 7e 3c e5 80 8f bc 88 fb 3c bc
       0.013409657 0.015506599 -0.017517516 -0.011534579
0000f0 a6 67 5e bc 81 df 81 3b b8 c3 23 bc b2 08 46 bc
       -0.013574516 0.0039634113 -0.009995393 -0.012087034

bn1.running_mean f4 [64]
000000 5e 67 95 3d 56 b3 7d 3a db e2 e0 3d b3 50 90 3d
       0.07295106 0.0009677907 0.10980769 0.07046642
000010 7e 06 6d 3d bf c9 c8 3b ae 57 ea 39 5d d8 b3 3b
       0.05786752 0.0061275656 0.00044697284 0.005488439
000020 a0 3b 39 3d 0b 03 47 3b 32 0e 10 3d 5f c5 ce 3b
       0.04522288 0.0030366804 0.035169788 0.0063101496
000030 a6 b6 99 3d 6e a0 09 3c 31 5a 4e 3d 17 a4 56 38
       0.075055405 0.008400066 0.050378982 5.1174397e-05
000040 42 f9 c5 3b d0 09 19 3b eb 24 42 3c 66 c3 d0 3d
       0.0060416767 0.0023351796 0.011849622 0.10193519
000050 be 7a ea 38 9b ae f3 3d 0e eb d2 3d e1 0c c3 3c
       0.00011180852 0.11898538 0.102987394 0.023809852
000060 b3 7e 6e 3b 5c 01 42 3d 18 83 63 39 d8 a7 17 3e
       0.0036391437 0.047364578 0.00021697243 0.14810121
000070 da 6d 16 3e 05 e7 35 3c 9a 94 7a 3d 4b 1c a0 3d
       0.14690343 0.011102443 0.061176874 0.078178965
000080 ff 79 4f 39 96 52 d8 3b a6 63 fb 3d d1 c7 e5 3d
       0.00019786505 0.006601642 0.12274866 0.112197526
000090 12 a0 0a 3d f0 50 4a 3a b1 97 91 3d 68 fa 17 3c
       0.03384406 0.0007717749 0.07109011 0.00927601
0000a0 5f a6 6a 3d 7c 77 d0 3d 63 ad 69 3d f8 35 84 3d
       0.05728757 0.1017904 0.05705012 0.06455606
0000b0 c7 4a 9c 3d 02 bf 4b 3b af dc d2 3d 58 c1 dd 3d
       0.0763145 0.0031089191 0.10295998 0.10827893
0000c0 e5 98 97 3d 32 69 8d 3d 7e 9a 47 3b 3f d0 fc 3d
       0.07402209 0.0690483 0.0030457075 0.12344407
0000d0 8f bd 65 3d 34 10 08 3d 0f d3 9c 3d c5 d0 9f 3d
       0.05608898 0.033218578 0.07657444 0.078034915
0000e0 eb 30 e4 3c 97 22 ec 3b 4a d6 da 38 54 62 b6 3d
       0.027855357 0.007206272 0.000104349645 0.08905473
0000f0 c0 7a db 3b a8 b2 7f 3d 3a 28 13 3d ec 19 2e 37
       0.0066979825 0.06242624 0.035927035 1.0377244e-05

bn1.running_var f4 [64]
000000 59 c0 d1 3c ab 9e b9 3c 1e 21 f2 3c ad e5 df 3c
       0.025604414 0.022658667 0.029556807 0.027331198
000010 e2 43 cc 3c 27 22 c7 3c 75 d6 b8 3c 69 18 c3 3c
       0.024934713 0.024308277 0.022563199 0.02381535
000020 be 89 d3 3c 76 1f bb 3c 3b 62 d2 3c 5a da c2 3c
       0.025822517 0.02284215 0.025681606 0.023785759
000030 3a 8c d8 3c 4c 04 cb 3c d0 9d da 3c 69 90 b8 3c
       0.026434053 0.024782322 0.026686579 0.022529798
000040 38 f6 c5 3c d2 24 bb 3c 2d 12 c4 3c b0 79 04 3d
       0.024165258 0.022844706 0.023934448 0.032342613
000050 4f c1 b8 3c c3 8f 10 3d d4 e3 ec 3c fb 9a e5 3c
       0.022553114 0.03529335 0.02891723 0.028028002
000060 27 a4 bd 3c eb fe d8 3c 76 b7 b8 3c 48 ef 09 3d
       0.023149563 0.026488742 0.022548418 0.033675462
000070 3f 7a 04 3d 11 69 cc 3c 60 fd de 3c 82 39 d2 3c
       0.032343145 0.024952443 0.027220428 0.025662187
000080 b2 b4 b8 3c 93 85 c3 3c fd 80 d8 3c 39 16 0c 3d
       0.0225471 0.023867404 0.026428694 0.03420088
000090 56 60 d3 3c 4e 43 ba 3c 67 9a ca 3c 73 c1 ce 3c
       0.025802772 0.022737172 0.024731828 0.025238728
0000a0 ec 3e df 3c cd e6 cc 3c 48 6d d5 3c 43 8e d5 3c
       0.027251683 0.025012398 0.026053086 0.026068812
0000b0 c6 d1 d9 3c 22 9d bc 3c 70 59 d6 3c 41 6d da 3c
       0.026589286 0.023024146 0.026165694 0.026663424
0000c0 fb 9c d4 3c 77 c9 cd 3c c5 ef be 3c 8a 09 e8 3c
       0.02595376 0.02512048 0.02330769 0.028324861
0000d0 c7 54 d7 3c c0 a0 d5 3c 87 c3 e0 3c 20 a8 dd 3c
       0.026285542 0.026077628 0.027436985 0.027057707
0000e0 dc 66 e2 3c 45 67 bf 3c 88 9b b8 3c d2 40 e1 3c
       0.027636938 0.023364672 0.0225351 0.027496729
0000f0 db 7e c9 3c 57 e6 d5 3c 63 ea cc 3c 06 8e b8 3c
       0.024596622 0.026110811 0.025014108 0.02252866

bn2.weight f4 [32]
000000 07 c7 77 3f b5 f8 79 3f 4e 59 79 3f ce 6b 77 3f
       0.96788067 0.9764512 0.97401893 0.9664887
000010 de 73 79 3f 1a 18 78 3f c5 08 7b 3f f0 90 76 3f
       0.97442424 0.96911776 0.98060256 0.9631491
000020 f4 63 78 3f 3e 31 78 3f 50 8c 78 3f 4b 77 79 3f
       0.97027516 0.9695014 0.970891 0.9744765
000030 68 a4 78 3f 08 f0 78 3f 87 b8 77 3f ed 49 79 3f
       0.97125864 0.9724126 0.9676594 0.97378427
000040 32 da 78 3f 85 7d 79 3f 7c 7c 78 3f 68 d3 77 3f
       0.9720794 0.9745715 0.9706495 0.96806955
000050 f2 86 79 3f a2 52 77 3f b7 17 78 3f 69 47 78 3f
       0.97471535 0.9661046 0.96911186 0.96983963
000060 8a 17 79 3f 86 57 78 3f a2 6b 79 3f 1f 6b 7a 3f
       0.9730154 0.9700855 0.9742986 0.97819704
000070 33 d1 79 3f b8 98 79 3f d6 04 7b 3f 4b d7 77 3f
       0.9758484 0.97498655 0.98054254 0.96812886

bn2.bias f4 [32]
000000 3e e4 e8 bc de 57 d7 bc a9 b3 a3 bc 28 2f ce bc
       -0.028429147 -0.026287016 -0.01998313 -0.02516897
000010 b7 ef d4 bc 2c 84 c8 bc 19 d6 81 bc 48 48 0b bd
       -0.025993211 -0.024477087 -0.01584916 -0.03400448
000020 0a 1f da bc b0 c9 c7 bc c2 ed b5 bc 19 5c b4 bc
       -0.026626129 -0.024388164 -0.022208098 -0.022016572
000030 4e 11 02 bd 9c 49 e2 bc a9 e1 da bc 17 33 ba bc
       -0.031754784 -0.02762299 -0.026718931 -0.02272944
000040 fe 58 d8 bc fe f8 c8 bc 42 a3 ba bc 35 aa c4 bc
       -0.026409622 -0.024532791 -0.022782926 -0.024006942
000050 ff b4 a7 bc fa 49 ec bc 16 9f af bc 9a c2 b5 bc
       -0.020472048 -0.028843869 -0.021438163 -0.02218752
000060 5c 94 c5 bc ee 82 bf bc 80 fd b7 bc 06 89 bc bc
       -0.024118595 -0.023377862 -0.022459745 -0.023014557
000070 32 dc d2 bc 20 99 ac bc 02 42 91 bc fb 6d e0 bc
       -0.025739763 -0.02106911 -0.01773167 -0.027396193

bn2.running_mean f4 [32]
000000 eb ec c9 3d d5 c9 0e 3c 9d f3 d9 3c f1 f1 0b 3e
       0.09859642 0.008715113 0.026605422 0.13666512
000010 cd 35 ba 3d ab f5 3c 3e cf 78 ee 3b d2 83 ac 3d
       0.09092293 0.1845309 0.007277585 0.0842358
000020 e6 01 b3 3d fe 9e de 3d 30 13 f4 3d 19 27 9e 3c
       0.087405965 0.10870169 0.11917722 0.019305753
000030 e7 a1 07 3d 0f 61 1b 3d c7 f3 53 3e a0 a3 b4 3b
       0.033113386 0.03793436 0.20698462 0.0055126697
000040 b6 64 d3 3c d3 09 bf 3c de 32 bd 3c ee 0d 96 3d
       0.025804859 0.023320114 0.023095544 0.073268756
000050 b9 c8 38 3c f4 87 31 3e 83 1a 8c 3d c3 bf 99 3d
       0.011278325 0.17337018 0.06840994 0.07507279
000060 d0 ed d4 3c 3e f2 00 3e 20 fe b4 3c 43 af 91 3b
       0.025992304 0.12592408 0.022093832 0.0044459417
000070 fb e6 10 3c 51 fa 9c 3c cb 50 cc 3a 6b 78 66 3d
       0.008844133 0.019162329 0.0015588043 0.056267183

bn2.running_var f4 [32]
000000 73 17 43 3e 43 54 22 3d 86 0d b4 3d 68 c2 36 3f
       0.19051914 0.03963114 0.08791642 0.7139039
000010 ee 62 b3 3e f8 bb 04 3f 0b 5f 2b 3d a9 11 02 3e
       0.35036415 0.5184932 0.041838687 0.1270205
000020 4e 74 9b 3e e5 d9 01 3f e0 5f 22 3f d2 a5 78 3d
       0.3036217 0.50723106 0.63427544 0.060705014
000030 31 c1 ae 3d 78 ea cd 3d dd 3c 86 3f 5b 65 dc 3c
       0.08532942 0.10054487 1.0487324 0.026903799
000040 c0 95 6c 3d 09 8c 8d 3d fa d8 37 3d da b4 88 3e
       0.05776 0.06911475 0.04488466 0.2670048
000050 cc 67 29 3d 40 03 a5 3e d2 9a 77 3e 21 44 97 3e
       0.041358754 0.32229042 0.24180153 0.29544166
000060 e1 83 85 3d 61 dd 1b 3f 72 b6 48 3d 11 8d 00 3d
       0.065192945 0.6088467 0.04900212 0.03138453
000070 c6 6e 27 3d 53 9e 72 3d ad ad c2 3c 16 46 e1 3d
       0.040877126 0.05923302 0.023764456 0.10999696
