best_model.pt (torch, 369570 bytes, 16 tensors)

conv1.lin_neigh.weight f4 [64, 769]
0.028569961 0.030930838 -0.009448076 0.03412595 -0.0069011 0.008276751 -0.01655645 0.02017796
0.030789293 -0.027455278 0.030344088 0.0057491837 0.027642109 0.003883799 0.018388137 -0.004091487
0.028798837 0.0043301485 -0.0158347 0.010191831 -0.017614583 -0.0052289055 -0.013646459 0.02492176
-0.029465392 -0.017624455 -0.011182688 -0.020682504 0.004403527 -0.034616638 0.03356694 -0.029632617
0.028839946 0.0050012493 -0.010709154 0.021283863 0.006620114 0.02813593 0.0029421821 -0.012372639
0.010688949 -0.010778971 0.016176503 0.03319481 0.01984538 -0.014764859 0.021816678 0.0054522543
0.01731304 -0.022979282 -0.036696997 -0.012932527 -0.02865953 0.030589381 0.011386616 0.015936898
0.01040468 -0.0016272956 0.027221585 -0.026621768 0.001270545 -0.023613054 0.012119421 -0.011418765
0.010049663 -0.008512973 0.030908624 -0.020373408 -0.020506667 -0.02050797 0.033434648 0.011017347
0.033699777 -0.028760243 -0.03476799 -0.029212747 -0.023257846 0.0136061255 0.011912554 0.02896392
-0.01762291 -0.02358317 0.020133128 -0.013575992 0.022886194 -0.0075572887 0.019628538 -0.02901815
-0.017198158 0.009994768 0.0086235395 -0.008194075 0.02049482 0.025514526 -0.025150431 -0.020251764
0.032019697 -0.013168108 -0.013784177 -0.035892345 -0.021651013 0.008008162 -0.005759789 -0.027176108
-0.00015411038 -0.023632554 -0.031593956 -0.018857412 -0.03256094 -0.021961385 0.03704681 0.007810988
0.012112515 -0.03463303 -0.02268391 -0.011003216 0.0046389 -0.030730803 -0.0145376865 -0.022588512
-0.0008998858 -0.012418395 -0.0014989004 -0.025435904 -0.025752032 -0.020038012 -0.01134362 -0.027462207
0.029239293 -0.008156786 0.032026686 0.0122358855 -0.03153584 0.025955422 -0.010921966 -0.012823106
-0.028933128 -0.0348504 0.01131738 -0.006877337 0.013039364 -0.028593889 0.027772669 -0.027470646
-0.0052267816 0.008531894 0.01761653 0.030112237 0.03185058 -0.029593382 0.008075371 -0.014510754
-0.0049517076 -0.02599132 0.03384639 -0.025466949 0.020272799 0.013673231 0.010718233 -0.020496197
0.031777665 0.008924394 0.0036388873 -0.030778872 0.01613794 -0.004409899 -0.0155204 0.02997442
0.007039772 -0.018951671 -0.017251864 -0.00072227826 0.019135091 -0.008214806 -0.019575479 -0.013348795
-0.025940286 0.0118605085 0.028912479 -0.034948673 0.0073751844 0.019628713 0.005539092 -0.011842235
0.017821718 0.017950512 0.014484138 -0.0053366884 -0.008549116 0.0048578014 -0.0073703052 -0.011746179
0.0240503 0.03199057 -0.0045699305 -0.0070739384 -0.0004737746 -0.0031531071 0.007670238 0.011105457
-0.03175259 -0.014307826 0.031367913 0.0130477175 -0.0027935677 -0.022741329 -0.023062212 -0.03330216
-0.010754513 0.013177895 0.023993216 0.01564925 -0.03087585 -0.020685697 -0.0066910004 0.035883352
0.0062164715 -0.010338706 0.013918959 -0.012734954 -0.024340617 0.027320402 -0.015396981 -0.008228989
-0.03487634 0.025134502 0.02832099 0.014142317 -0.026144322 -0.03458998 -0.028287932 0.027890628
0.016313065 0.031345405 0.017891241 0.008126908 -0.001353083 -0.026424572 -0.031895984 -0.03272956
0.013762003 -0.018704752 -0.006257408 -0.021753227 -0.0075711203 -0.024380961 -0.022562787 0.012961765
-0.011717147 0.023261938 -0.010568668 -0.0274531 -0.0053625586 -0.016480457 -0.010032761 -0.035329834
00000000: 8d0b ea3c ab62 fd3c 1acc 1abc a7c7 0b3d
00000010: 9f22 e2bb 369b 073c 64a1 87bc 404c a53c
00000020: d439 fc3c e4e9 e0bc 2a94 f83c a663 bc3b
00000030: b471 e23c 5687 7e3b b8a2 963c e111 86bb
00000040: 8aeb eb3c ebe3 8d3b c6b7 81bc a3fb 263c
00000050: 754c 90bc 3d57 abbb 6695 5fbc b828 cc3c
00000060: 6861 f1bc 2961 90bc 9837 37bc 5b6e a9bc
00000070: 764b 903b 2dca 0dbd 7d7d 093d 1ac0 f2bc
00000080: c041 ec3c 85e1 a33b 7375 2fbc 7f5b ae3c
00000090: 8bed d83b 527d e63c a0d1 403b 9cb6 4abc
000000a0: b420 2f3c 489a 30bc 9684 843c 48f7 073d
000000b0: c792 a23c 4fe8 71bc e4b8 b23c d3a8 b23b
000000c0: 14d4 8d3c 0c3f bcbc 974f 16bd f3e2 53bc
000000d0: 64c7 eabc 9596 fa3c ee8e 3a3c 198e 823c
000000e0: 6478 2a3c fb4a d5ba cdff de3c e515 dabc
000000f0: 6a88 a63a 2a70 c1bc 8990 463c c615 3bbc
00000100: 57a7 243c ff79 0bbc 1534 fd3c 22e6 a6bc
00000110: 99fd a7bc 5500 a8bc c5f2 083d 1a82 343c
00000120: c708 0a3d 9a9a ebbc e168 0ebd 924f efbc
00000130: 3d87 bebc 3aec 5e3c df2c 433c be45 ed3c
00000140: ec5d 90bc 7e31 c1bc 3bee a43c d66d 5ebc
00000150: d47b bb3c 22a3 f7bb 07cc a03c 79b7 edbc
00000160: 27e3 8cbc 18c1 233c bf49 0d3c 7140 06bc
00000170: c1e4 a73c d703 d13c 4708 cebc 07e7 a5bc
00000180: 1627 033d 0cbf 57bc 07d7 61bc da03 13bd
00000190: 775d b1bc aa34 033c 9dbc bcbb 6ea0 debc
000001a0: b198 21b9 0f99 c1bc aa68 01bd dc7a 9abc
000001b0: 9f5e 05bd 5de8 b3bc 65be 173d 51f3 ff3b
000001c0: 9273 463c 5ddb 0dbd 9bd3 b9bc d546 34bc
000001d0: ea01 983b 2abf fbbc 7a2f 6ebc 8b0b b9bc
000001e0: 50e6 6bba 8676 4bbc c076 c4ba f55e d0bc
000001f0: edf5 d2bc c226 a4bc 97da 39bc 6cf8 e0bc
00000200: 3e87 ef3c 0aa4 05bc 6a2e 033d 0679 483c
00000210: ba2b 01bd 77a0 d43c 0cf2 32bc 0118 52bc
00000220: 2b05 edbc 4bbf 0ebd 886c 393c 495b e1bb
00000230: 0ea3 553c bb3d eabc 8283 e33c 1f0a e1bc
00000240: 6c45 abbb 5bc9 0b3c 8b50 903c f0ad f63c
00000250: c175 023d d26d f2bc 904e 043c 83be 6dbc
00000260: ef41 a2bb c0eb d4bc 83a2 0a3d 10a0 d0bc
00000270: 2413 a63c b005 603c 879b 2f3c a4e7 a7bc
00000280: 4c29 023d 9f37 123c 667a 6e3b f923 fcbc
00000290: b733 843c ea80 90bb 4749 7ebc ea8c f53c
000002a0: e3ad e63b 8940 9bbc c853 8dbc 4657 3dba
000002b0: 32c1 9c3c 6597 06bc c15c a0bc e7b4 5abc
000002c0: b980 d4bc 9452 423c ddd9 ec3c 5726 0fbd
000002d0: 88ab f13b 65cc a03c 4581 b53b ef05 42bc
000002e0: dafe 913c f40c 933c e14e 6d3c 63df aebb
000002f0: 9711 0cbc 312e 9f3b 9a82 f1bb 0c73 40bc
00000300: 2205 c53c 8b08 033d 5bbf 95bb 7fcc e7bb
00000310: f364 f8b9 5ca4 4ebb 9f56 fb3b aaf3 353c
00000320: 010f 02bd 5f6b 6abc a47b 003d 18c6 553c
00000330: 4a14 37bb 064c babc f7ec bcbc d967 08bd
00000340: b233 30bc 19e8 573c 6c8d c43c db32 803c
00000350: 5aef fcbc 0d75 a9bc 2e40 dbbb 6cfa 123d
00000360: 8bb3 cb3b ad63 29bc 580c 643c 45a6 50bc
00000370: f965 c7bc 09cf df3c 9e43 7cbc e2d2 06bc
00000380: 7eda 0ebd dfe6 cd3c 6c01 e83c 2db5 673c
00000390: 9e2c d6bc 39ae 0dbd 18bc e7bc e37a e43c
000003a0: faa2 853c 0a64 003d a790 923c b926 053c
000003b0: ee59 b1ba 5878 d8bc 5da5 02bd 6e0f 06bd
000003c0: 067a 613c b53a 99bc f10a cdbb d333 b2bc
000003d0: 2917 f8bb 95ba c7bc 98d5 b8bc 955d 543c
000003e0: 47f9 3fbc d28f be3c 3528 2dbc 53e5 e0bc
000003f0: 67b8 afbb 0602 87bc 7360 24bc 04b6 10bd

conv1.lin_neigh.bias f4 [64]
-0.03398947 -0.009438207 -0.015488609 -0.015063359 -0.017281385 -0.024416126 -0.034970116 0.016958404
-0.029765695 -0.01514774 0.003993518 0.032021064 0.02130666 -0.016512698 0.022445545 -0.01468592
-0.0009671356 -0.013230404 0.0062018693 0.016768314 -0.0018783384 0.01859141 -0.004918293 -0.021628877
0.022214904 0.025506798 0.00849401 0.022607962 -0.031015404 -0.023727227 0.029126259 -0.027629325
0.003090569 0.023153456 0.0064343065 -0.011137723 -0.0029528528 -0.00914999 -0.004978277 -0.033842046
0.033201214 -0.022056496 0.010928935 -0.022675632 0.010421742 0.00027070736 -0.017215783 0.0043947594
-0.0054143853 -0.027643315 0.025231259 -0.03240687 0.0019646792 0.016961683 0.00032642003 0.015119794
-0.008296484 -0.00023097421 -0.005341866 -0.018998537 -0.029570453 -0.030850442 -0.008918937 -0.024739023
00000000: 8b38 0bbd b6a2 1abc efc3 7dbc 4fcc 76bc
00000010: b191 8dbc 5404 c8bc d33c 0fbd 5aec 8a3c
00000020: 30d7 f3bc 3a2e 78bc 0fdc 823b 8528 033d
00000030: 4e8b ae3c a345 87bc b8df b73c 379d 70bc
00000040: 5f87 7dba 56c4 58bc 0d39 cb3b b45d 893c
00000050: 9432 f6ba 034d 983c a229 a1bb 0b2f b1bc
00000060: 08fc b53c a2f3 d03c 762a 0b3c 5534 b93c
00000070: 0414 febc 9a5f c2bc 319a ee3c e556 e2bc
00000080: 258b 4a3b 51ac bd3c e0d6 d23b ff7a 36bc
00000090: a684 41bb d7e9 15bc d020 a3bb f59d 0abd
000000a0: fffd 073d d3af b4bc 470f 333c 3fc2 b9bc
000000b0: f4bf 2a3c baed 8d39 1d08 8dbc ea01 903b
000000c0: 286b b1bb 3c74 e2bc c9b1 ce3c 11bd 04bd
000000d0: d9c1 003b 3af3 8a3c 5b23 ab39 03b9 773c
000000e0: faed 07bc ab31 72b9 d20a afbb d2a2 9bbc
000000f0: bc3d f2bc 11ba fcbc bc20 12bc 7ea9 cabc

conv1.lin_self.weight f4 [64, 385]
0.012288375 -0.0014246609 -0.032469727 -0.027636643 -0.001622212 -0.025644973 -0.020847877 0.004677601
-0.009698805 -0.018487152 -0.044373702 0.039250724 -0.002262071 0.04053598 0.02309247 0.01631826
0.040418003 -0.041101016 0.04295519 -0.031274296 -0.022493556 -0.027902113 0.0025556397 0.009815254
-0.018992567 0.049182918 0.029298995 0.0049698167 -0.023132797 0.03751849 -0.043522194 -0.030737912
-0.0026065877 -0.022823986 0.05096617 -0.030943515 0.036649514 0.048005816 0.03627241 0.038174756
-0.0013656783 -0.014690521 0.013450131 -0.012252616 -0.009206849 0.044321947 0.047338873 0.042630557
0.019183196 0.019326007 0.006677526 0.0013571592 -0.051772665 -0.03281162 0.0031706255 -0.01043751
-0.040784296 -0.03491614 -0.036183573 0.011074779 -0.0014042291 0.019983951 0.0071170954 0.030702932
0.032997083 9.7257935e-06 -0.009167277 0.0174541 0.018777452 0.013727736 -0.007638406 0.012611251
-0.045718014 0.026962755 0.0345687 0.044183888 -0.04718106 0.010256085 0.038120158 -0.020076789
-0.0045794216 0.012519556 0.037626654 0.02797457 -0.023634411 -0.0494926 0.005725789 0.03222621
0.046571057 0.04957809 -0.010269387 -0.046146072 0.029607572 -0.033696935 0.03205192 0.021320907
-0.023387725 0.001448824 0.04170923 -0.005511469 0.011335675 0.01276031 0.042429283 0.049816135
0.00019889175 0.034833226 0.040783864 -0.01182278 -0.034208354 0.02611416 0.0119443955 -0.015312631
0.04489348 -0.036349904 0.037617307 -0.01600024 -0.008787212 -0.00020149039 0.022033889 0.037060034
0.0062286113 -0.020962894 0.033086255 0.02923971 0.036394466 -0.003681522 -0.0026805573 0.0031873756
0.0005247161 0.015724285 0.0495246 -0.023671545 -0.049144983 0.004621484 -0.012254671 -0.021599337
0.017671475 0.04957258 0.036396377 -0.008304487 0.03809574 -0.014046489 -0.045816768 -0.023489194
-0.037596643 0.015849896 0.03479207 0.014618638 -0.0076770806 0.015864925 -0.0052591823 -0.037286647
0.049393047 0.008313717 -0.044554174 0.0054441 0.045535687 -0.0030638387 -8.915297e-05 -0.019369328
-0.02342252 -0.023180027 0.010377542 -0.04805625 -0.024180006 0.041171174 0.009329104 -0.012929808
0.007835319 -0.008738657 0.0052186823 -0.04481501 0.0498149 -0.0348154 0.037980855 -0.037959892
0.0056333817 -0.043712728 -0.0035611156 0.023543276 -0.05053474 -0.029491814 -0.035764735 -0.030485066
0.028659672 0.039055422 -0.038011335 0.029260546 0.0011577181 -0.04533913 -0.034601737 -0.0026496479
-0.009007492 -0.02757343 -0.011132428 -0.033179384 0.02372069 -0.04514656 0.018842855 -0.024723265
0.018072627 0.04048322 0.013741392 0.018263806 0.032793634 -0.03872502 0.018100476 0.03824549
0.035014194 -0.013263681 -0.036862176 0.043232467 -0.0035711944 0.010666176 -0.02099751 0.038304746
-0.017019054 -0.0019007081 0.02504812 -0.04135989 -0.018965652 0.019347157 0.032770295 -0.014182607
0.016258452 -0.025508398 -0.048413485 -0.025436373 -0.045234244 0.047508072 -0.03194911 0.022723949
-0.0146174 -0.014482182 0.008467945 0.01576659 0.020737913 0.038991533 -0.0024870245 0.038454402
0.01790767 -0.028688334 -0.041174125 -0.051948864 0.032511774 0.041266464 0.040535163 -0.021959577
0.02922134 0.02817932 0.036966834 -0.03583008 0.026001366 -0.037263934 0.021583576 0.00023528145
00000000: 2e55 493c b0bb baba fafe 04bd 3e66 e2bc
00000010: 67a0 d4ba 6815 d2bc 2bc9 aabc 9046 993b
00000020: bde7 1ebc 5e72 97bc 33c1 35bd 5ec5 203d
00000030: 413f 14bb 0e09 263d 6b2c bd3c dfad 853c
00000040: 598d 253d 8a59 28bd c8f1 2f3d 7a19 00bd
00000050: 6844 b8bc f992 e4bc 857c 273b 29d0 203c
00000060: 4d96 9bbc 0774 493d 7204 f03c d8d9 a23b
00000070: fe80 bdbc fdac 193d 5444 32bd 13ce fbbc
00000080: 49d3 2abb 5ef9 babc e7c1 503d 417d fdbc
00000090: cd1d 163d bfa1 443d 6192 143d 225d 1c3d
000000a0: 8f00 b3ba 83b0 70bc f05d 5c3c 32bf 48bc
000000b0: 53d8 16bc ee8a 353d 68e6 413d 619d 2e3d
000000c0: 1426 9d3c 9351 9e3c 26cf da3b b5e2 b13a
000000d0: 930f 54bd 7a65 06bd 45ca 4f3b 1702 2bbc
000000e0: 6f0d 27bd 3a04 0fbd 3a35 14bd fd72 353c
000000f0: 1c0e b8ba 62b5 a33c 8636 e93b b784 fb3c
00000100: f327 073d f72b 2337 5932 16bc e7fb 8e3c
00000110: 2cd3 993c 4cea 603c 984b fabb 6c9f 4e3c
00000120: d042 3bbd ffe0 dc3c e997 0d3d 2afa 343d
00000130: ed40 41bd 2309 283c e223 1c3d 1478 a4bc
00000140: f90e 96bb d31e 4d3c 681e 1a3d ed2a e53c
00000150: f49c c1bc c1b8 4abd 669f bb3b a1ff 033d
00000160: 4bc1 3e3d 6512 4b3d ee40 28bc aa03 3dbd
00000170: 948b f23c cc05 0abd e048 033d 2fa9 ae3c
00000180: 9d97 bfbc 77e6 bd3a 4cd7 2a3d 8e99 b4bb
00000190: 44b9 393c 9f10 513c 54ca 2d3d 010c 4c3d
000001a0: 998d 5039 49ad 0e3d fb0c 273d 55b4 41bc
000001b0: 0f1e 0cbd 5ded d53c 6db2 433c d4e1 7abc
000001c0: 3ae2 373d a3e3 14bd 9b14 1a3d ef12 83bc
000001d0: 3df8 0fbc 2a47 53b9 6a80 b43c 43cc 173d
000001e0: 6119 cc3b 60ba abbc 7485 073d 1e88 ef3c
000001f0: 5d12 153d b145 71bb 4aac 2fbb 4ae3 503b
00000200: 1a8d 093a 37d0 803c 4fda 4a3d d4ea c1bc
00000210: 404c 49bd d16f 973b d1c7 48bc 18f1 b0bc
00000220: c5c3 903c 9e0c 4b3d 5e14 153d 8b0f 08bc
00000230: 470a 1c3d 3f23 66bc 5daa 3bbd 696c c0bc
00000240: f0fe 19bd a4d7 813c 2182 0e3d 0383 6f3c
00000250: 0590 fbbb 29f7 813c 3855 acbb e2b9 18bd
00000260: 5d50 4a3d 4236 083c 707e 36bd 6c64 b23b
00000270: a183 3a3d afca 48bb a3f7 bab8 6dac 9ebc
00000280: 96e0 bfbc 0ae4 bdbc 9106 2a3c a1d6 44bd
00000290: 2615 c6bc 1ba3 283d 19d9 183c 8cd7 53bc
000002a0: b65f 003c 962c 0fbc 7b01 ab3b f28f 37bd
000002b0: b50a 4c3d 989a 0ebd d091 1b3d d57b 1bbd
000002c0: 3b98 b83b 1e0c 33bd 9b61 69bb d4dd c03c
000002d0: 84fd 4ebd d198 f1bc 0b7e 12bd d1bb f9bc
000002e0: b0c7 ea3c 94f8 1f3d c6b1 1bbd d0b3 ef3c
000002f0: 93be 973a 86b5 39bd 8dba 0dbd b7a5 2dbb
00000300: 2994 13bc ade1 e1bc ca64 36bc 1be7 07bd
00000310: e451 c23c 99eb 38bd 555c 9a3c 7288 cabc
00000320: 0c0d 943c bcd1 253d 9323 613c fa9d 953c
00000330: 9e52 063d 209e 1ebd 7347 943c 4ea7 1c3d
00000340: 0b6b 0f3d e94f 59bc cbfc 16bd 8714 313d
00000350: b30a 6abb 2fc1 2e3c f802 acbc 70e5 1c3d
00000360: 8b6b 8bbc 2e21 f9ba b731 cd3c fd68 29bd
00000370: db5d 9bbc ee7d 9e3c 253a 063d 2a5e 68bc
00000380: 7230 853c fdf6 d0bc 384d 46bd f15f d0bc
00000390: 8b47 39bd d397 423d 12dd 02bd 9327 ba3c
000003a0: d27d 6fbc ad46 6dbc 23bd 0a3c f028 813c
000003b0: 8ee2 a93c 96b5 1f3d 59fd 22bb 5d82 1d3d
000003c0: 1bb3 923c cc03 ebbc 33a6 28bd 55c8 54bd
000003d0: 112b 053d 0607 293d 3308 263d 92e4 b3bc
000003e0: 9761 ef3c 51d8 e63c 896a 173d 90c2 12bd
000003f0: d100 d53c 11a2 18bd 0ad0 b03c e2b5 7639

conv1.lin_self.bias f4 [64]
0.045428917 -0.013994886 0.025503278 0.034765914 0.027727949 -0.0026809745 -0.046005454 -0.0437354
-0.021330541 -0.0425241 0.013697241 0.013999023 0.01115577 0.041916773 0.0063174255 -0.015731733
-0.015842702 0.03363576 -0.032747544 -0.019928325 -0.043203853 0.01938487 0.03616403 0.036612112
-0.016147327 0.0018126211 -0.03513515 -0.01626558 -0.0042737643 -0.01082034 -0.03324697 0.032227904
-0.040219083 0.039959423 0.020678408 0.012596039 -0.0077894055 -0.016478196 0.046570625 0.012567554
0.03224015 0.03252697 0.030881768 0.019426182 0.0076931403 0.012042596 -0.0053981245 -0.00013884432
0.047381554 0.0046564136 -0.014215703 0.03169358 0.03600509 0.048418425 0.001798079 0.0015674285
0.04369007 -0.042542152 -0.019720467 -0.0064267046 0.012733414 0.048933182 -0.030523006 -0.02356477
00000000: ac13 3a3d ce4a 65bc 40ec d03c b466 0e3d
00000010: b925 e33c 4ab3 2fbb 3770 3cbd e423 33bd
00000020: 63bd aebc c02d 2ebd 656a 603c 285c 653c
00000030: b1c6 363c ecb0 2b3d 6802 cf3b d6df 80bc
00000040: 8ec8 81bc a7c5 093d 4a22 06bd ba40 a3bc
00000050: 86f6 30bd 05cd 9e3c bc20 143d 95f6 153d
00000060: 6647 84bc 7995 ed3a e0e9 0fbd 653f 85bc
00000070: ef0a 8cbb cc47 31bc fa2d 08bd 6801 043d
00000080: c4bc 24bd 7eac 233d c465 a93c 9e5f 4e3c
00000090: 453e ffbb 48fd 86bc d7c0 3e3d 24e8 4d3c
000000a0: 3f0e 043d 003b 053d c3fb fc3c a823 9f3c
000000b0: bd16 fc3b 4f4e 453c c0e2 b0bb bd96 11b9
000000c0: 2913 423d d494 983b fbe8 68bc 21d1 013d
000000d0: 137a 133d 6652 463d 85ad eb3a 2c72 cd3a
000000e0: 5cf4 323d ae40 2ebd d18c a1bc 1b97 d2bb
000000f0: cf9f 503c 296e 483d 620b fabc e80a c1bc

conv2.lin_neigh.weight f4 [32, 448]
-0.031313986 0.017173216 -0.009266312 -0.026447006 0.019155223 0.023618493 -0.039359126 -0.03452677
0.015042971 -0.023826947 0.034977235 -0.03920682 0.026379792 0.041707758 -0.034229666 -0.040887833
0.0016988767 0.01632682 0.002203349 0.015420221 -0.0012646797 -0.01731673 0.028150178 -0.02097818
-0.0014705178 -0.04127267 -0.028325824 0.0433177 0.034312934 -0.009467346 -0.0039632544 -0.038565937
0.00085189857 0.018507516 -0.040932808 0.021567179 -0.034476727 0.031843968 -0.04508153 0.03393468
0.035203412 -0.047107365 -0.011926552 -0.017774863 0.0037120255 -0.011570823 0.02722376 9.544905e-05
0.002613359 0.0028016837 -0.01445973 0.035536543 -0.00687828 0.02599578 -0.015448899 -0.029328162
0.04609489 -0.03503338 -0.0011995098 -0.036166895 0.043116085 0.012632154 0.014429546 -0.02914296
0.03310503 -0.019888207 0.030994449 -0.000539378 0.024145313 -0.013734128 -0.03881175 0.017151698
0.031716984 0.032660045 0.044797894 -0.02758259 -0.03282747 -0.0020967613 0.032841463 -0.039896727
0.0019060316 0.028403917 -0.0362486 -0.011618449 0.025625685 0.030161006 -0.04212907 0.048170216
0.0008096234 -0.024926648 -0.0155911315 0.016801076 0.011056615 -0.025722157 0.03331717 0.02425512
-0.01960842 -0.024526397 -0.037362706 -0.031092504 -0.033268794 -0.015012837 0.038630236 -0.0008403328
0.04511013 -0.008729269 0.020037726 -0.012584607 0.017575 0.041532945 0.04320789 0.032636486
0.024729118 -0.01800942 0.03499287 -0.040119972 -0.0044479445 -0.010601629 0.00036100028 -0.012670645
0.009860616 -0.031630725 0.009921053 0.044674166 -0.018827474 -0.012553583 -0.0009701507 0.006038421
-0.023388248 0.03689469 -0.03149649 -0.018805405 -0.047244776 -0.009884318 -0.0014329812 0.03432054
-0.032047406 0.017226987 -0.027754588 -0.033908132 0.012738491 -0.0021200757 0.028055709 -0.034214992
-0.03541499 -0.03730231 0.036637742 0.006267464 0.036562767 -0.0005857337 -0.0065558255 -0.009726001
-0.033146564 -0.02631009 0.024780499 0.004456115 0.004094882 -0.027548019 0.0090477355 0.0257785
0.027015017 -0.01588256 -0.04604329 0.031978898 0.006024722 0.024103967 -0.02623396 0.038092367
-0.0073265 0.027676133 0.02724543 0.043537673 -0.03864985 -0.025851501 0.021277996 -0.030128233
-0.03528581 0.018212523 -0.025713883 0.045835614 -0.013839403 -0.036788236 -0.026159154 0.0031888706
0.0407484 -0.0018454385 -0.033162456 -0.04322934 0.045721345 -0.022057649 0.03385082 -0.006606619
0.015681472 -0.0022537345 0.03744387 -0.047150698 0.021331076 -0.038945932 -0.011891951 -0.041288435
0.017164836 -0.031055635 0.039374568 -0.025319451 -0.038573172 -0.041587155 0.022736818 -0.025672678
0.0425421 0.032355916 0.027389968 0.021043159 -0.023251012 -0.04270061 0.03997852 -0.028555326
0.034927633 -0.04755291 -0.011402394 -0.013076256 -0.030907815 0.021155566 -0.0057584033 -0.012401221
-0.04424959 -0.011025522 -0.020838201 -0.0029370426 0.048209928 -0.044881087 -0.03174559 0.006482234
-0.035674907 -0.017198205 -0.00028955136 -0.0022217007 -0.0051969737 -0.00052662694 0.005891525 -0.025959846
0.022074524 0.024370996 -0.034812883 0.026338045 -0.028637832 -0.010358098 -0.041396007 -0.013721579
-0.009882899 -0.04158898 -0.033410173 -0.0020546685 0.04140427 -0.03158616 0.027048325 -0.011607376
00000000: 1843 00bd d8ae 8c3c bbd1 17bc 64a7 d8bc
00000010: 6aeb 9c3c 927b c13c 0937 21bd f16b 0dbd
00000020: cb76 763c bb30 c3bc 4a44 0f3d 5597 20bd
00000030: 6f1a d83c c1d5 2a3d 6834 0cbd 007a 27bd
00000040: d8ac de3a d3bf 853c 1066 103b 18a5 7c3c
00000050: 9cc3 a5ba d1db 8dbc 349b e63c 6fda abbc
00000060: 64be c0ba 880d 29bd 8f0b e8bc e76d 313d
00000070: b88b 0c3d ed1c 1bbc 30de 81bb 51f7 1dbd
00000080: f251 5f3a 139d 973c 29a9 27bd a7ad b03c
00000090: 7837 0dbd d26e 023d 69a7 38bd 17ff 0a3d
000000a0: 7431 103d a7f3 40bd 9667 43bc 979c 91bc
000000b0: 7445 733b 8d93 3dbc 5d04 df3c d22b c838
000000c0: e344 2b3b 749c 373b 81e8 6cbc c48e 113d
000000d0: 3263 e1bb 1af5 d43c 611d 7dbc 9d41 f0bc
000000e0: ffcd 3c3d 297f 0fbd df38 9dba bd23 14bd
000000f0: 7e9a 303d 18f7 4e3c e769 6c3c 38bd eebc
00000100: 2499 073d 98ec a2bc 12e8 fd3c 0b65 0dba
00000110: 64cc c53c 1c05 61bc 12f9 1ebd b881 8c3c
00000120: abe9 013d 8ac6 053d ff7d 373d e2f4 e1bc
00000130: 1976 06bd d169 09bb c584 063d c06a 23bd
00000140: cfd3 f93a 55af e83c 6979 14bd 4f5b 3ebc
00000150: f5ec d13c 3714 f73c 888f 2cbd 224e 453d
00000160: e83c 543a f832 ccbc f271 7fbc 69a2 893c
00000170: ce26 353c 46b7 d2bc 9677 083d acb2 c63c
00000180: d6a1 a0bc 95eb c8bc a309 19bd b5b5 febc
00000190: dc44 08bd 67f8 75bc bd3a 1e3d c849 5cba
000001a0: 66c5 383d 3505 0fbc 2826 a43c ab2f 4ebc
000001b0: 72f9 8f3c 731e 2a3d c2fa 303d d6ad 053d
000001c0: b894 ca3c 7e88 93bc af54 0f3d d754 24bd
000001d0: 10c0 91bb 74b2 2dbc a344 bd39 8998 4fbc
000001e0: 6c8e 213c 388f 01bd ea8b 223c 42fc 363d
000001f0: 133c 9abc 8bad 4dbc b651 7eba f2dd c53b
00000200: b698 bfbc e31e 173d 7702 01bd cb0d 9abc
00000210: bd83 41bd d6f1 21bc dfd2 bbba b293 0c3d
00000220: 2444 03bd 9c1f 8d3c 975d e3bc 41e3 0abd
00000230: 1bb5 503c f8f0 0abb 16d5 e53c 0525 0cbd
00000240: 4f0f 11bd 4fca 18bd 7511 163d 4c5f cd3b
00000250: d7c2 153d ec8b 19ba 40d2 d6bb ce59 1fbc
00000260: b1c4 07bd 4288 d7bc 7900 cb3c 9a04 923b
00000270: 5c2e 863b 62ac e1bc f43c 143c 6f2d d33c
00000280: 994e dd3c 241c 82bc e497 3cbd 4efc 023d
00000290: 086b c53b af75 c53c 9ae8 d6bc be06 1c3d
000002a0: 2313 f0bb 0fb9 e23c cf31 df3c 8f54 323d
000002b0: 4e4f 1ebd 87c6 d3bc 314f ae3c 7ccf f6bc
000002c0: da87 10bd 6e32 953c eca5 d2bc 20be 3b3d
000002d0: aabe 62bc 43af 16bd b94b d6bc 5ffc 503b
000002e0: cbe7 263d a4e2 f1ba 5bd5 07bd 4011 31bd
000002f0: 4e46 3b3d 3eb2 b4bc 28a7 0a3d 567c d8bb
00000300: 6e76 803c 64b3 13bb be5e 193d 1721 41bd
00000310: 82be ae3c c585 1fbd 75d6 42bc 101e 29bd
00000320: 459d 8c3c 6368 febc 3a47 213d bd6a cfbc
00000330: e7fe 1dbd 4b57 2abd 9042 ba3c 824f d2bc
00000340: a040 2e3d a387 043d ed60 e03c b462 ac3c
00000350: e878 bebc d6e6 2ebd 84c0 233d dcec e9bc
00000360: 4710 0f3d d7c6 42bd 1bd1 3abc cb3d 56bc
00000370: 6332 fdbc 704e ad3c fdb0 bcbb 7e2e 4bbc
00000380: 0f3f 35bd 64a4 34bc e0b4 aabc 667b 40bb
00000390: c677 453d 3bd5 37bd aa07 02bd ec68 d43b
000003a0: da1f 12bd 40e3 8cbc edce 97b9 f499 11bb
000003b0: 604b aabb 560d 0aba b20d c13b bea9 d4bc
000003c0: a2d5 b43c afa5 c73c f497 0ebd e2c2 d73c
000003d0: e399 eabc 03b5 29bc dc8e 29bd 79d0 60bc
000003e0: e2eb 21bc 3559 2abd 1bd9 08bd 9ea7 06bb
000003f0: 8697 293d 7d60 01bd 7394 dd3c dd2c 3ebc

conv2.lin_neigh.bias f4 [32]
0.006039935 0.0054845135 0.041063573 -0.028468229 0.020921664 -0.02454697 -0.047698934 -0.025984425
-0.01323409 -0.0066538374 0.026363414 -0.031223627 -0.007435614 0.013036378 0.02062451 0.009741718
0.03679902 0.039217412 0.011957819 0.04065778 0.014799402 -0.014060376 -0.022652874 0.04499979
-0.03187234 -0.00096518087 0.016350638 -0.014881099 0.04326454 0.0040078196 0.014364322 -0.0048356745
00000000: a6ea c53b 6fb7 b33b 4732 283d 3436 e9bc
00000010: e963 ab3c ba16 c9bc f55f 43bd 4add d4bc
00000020: ccd3 58bc 6f08 dabb 16f8 d73c b1c8 ffbc
00000030: 73a6 f3bb 8896 553c bbf4 a83c ba9b 1f3c
00000040: 92ba 163d 70a2 203d baea 433c c688 263d
00000050: 3179 723c 7e5d 66bc 8592 b9bc b351 383d
00000060: 928c 02bd 3104 7dba c6f1 853c dacf 73bc
00000070: 2936 313d 0754 833b 5558 6b3c 9474 9ebb

conv2.lin_self.weight f4 [32, 64]
0.032492645 0.055396207 -0.043814126 0.11706326 -0.0853382 0.022104373 0.0017258128 -0.06638995
0.12444024 -0.0997777 0.063763656 0.044740412 -0.008458029 -0.10866499 -0.03793047 0.09293642
0.081831865 -0.080141164 0.002996494 0.06022154 -0.11635254 -0.109486036 0.05288561 0.04565548
-0.045667656 -0.047767363 -0.07865445 0.09821872 0.09809757 0.052084047 0.008746448 -0.023105284
-0.0018256472 0.07453865 -0.06359706 0.03527265 -0.10972557 -0.060365506 -0.04298227 -0.043466542
-0.06025372 0.008958398 0.07690931 -0.0829202 -0.04704423 0.07033872 0.10733373 0.013135107
-0.03160026 -2.7307295e-05 -0.10165653 0.024777198 0.09706194 -0.10777663 -0.10128996 0.11408859
0.10580295 0.12106714 -0.0031565088 -0.10728768 0.042722803 0.114530675 -0.099801466 -0.094638705
-0.067356504 0.04593371 0.090067275 -0.101402126 0.0037497063 0.124669336 0.06078286 -0.040397387
-0.07553414 0.04766312 -0.09403282 0.022166166 0.0028868653 0.0040384126 0.12194982 -0.111809105
-0.08504157 -0.09319471 0.051555697 -0.085249074 -0.00056884007 -0.006224775 -0.035219293 0.09913312
-0.037649345 -0.08459732 -0.110739216 -0.09223332 0.11341212 -0.005408804 0.001237637 0.11181203
0.123810954 0.020921934 -0.06023181 -0.0474777 0.020664472 0.08439532 0.099264026 0.04098179
-0.027753064 -0.052984767 -0.08439299 -0.10598641 -0.035117723 -0.101083435 -0.08183963 -0.11700644
-0.03252738 0.06931115 0.11000031 0.083311446 -0.021085154 -0.12150312 -0.033507414 0.0062902155
-0.07187713 -0.080346644 -0.080098055 -0.07277932 0.08242992 -0.06674161 0.05931925 -0.05932283
-0.11064438 -0.071749024 0.10943034 -0.107823394 -0.068728305 -0.109130256 0.04649254 -0.0740266
-0.035879157 0.10740294 -0.005686578 0.02003545 0.030542243 0.107429944 0.036611456 -0.032116406
-0.010477956 0.04555284 0.045443747 -0.021822685 0.020198066 0.02780426 0.00577404 0.041219074
0.08919719 0.058450032 -0.10767507 -0.05187278 0.010293254 -0.03805395 0.008091513 0.013887912
0.02534897 0.08639462 -0.123369925 0.06813917 0.060085375 -0.03036673 -0.002493704 -0.05105805
-0.10360091 -0.12455823 0.03547855 0.04913684 -0.069208644 0.09897695 -0.080166765 0.088401526
-0.07897642 -0.048229717 0.052583046 -0.100800216 -0.06316203 -0.020996608 -0.06321313 -0.09030259
-0.031420317 -0.008922603 -0.010206171 0.021387586 -0.017843049 -0.05135902 0.0039089546 -0.07139518
-0.09658036 0.11244756 -0.112425566 -0.006193902 -0.037282687 -0.02136419 0.06256119 0.1067913
-0.074442506 -0.028139088 -0.09783792 0.05348656 0.05836903 0.09351416 0.07659071 -0.010334125
0.02681884 -0.08643421 0.07133759 -0.09611852 -0.051383175 -0.119044 -0.054279007 0.06597357
0.06862753 0.11618281 -0.05478059 0.08908756 0.1127887 0.07266074 0.10746509 -0.0010018253
0.08891708 0.025913963 0.10038943 -0.083068155 0.09883128 0.039573777 -0.0026896955 0.10595731
0.0991569 -0.044110585 -0.11942851 -0.0035903256 0.09568227 -0.02225388 -0.04695498 -0.09914773
-0.060217015 0.010591121 0.10556641 -0.09508521 -0.055630367 0.034239314 0.078313 -0.06852909
0.029636873 -0.11846723 0.11605943 -0.10381887 0.10206843 -0.046688173 -0.021396609 -0.111416504
00000000: 0217 053d 22e7 623d 7176 33bd ddbe ef3d
00000010: cbc5 aebd 3b14 b53c ab34 e23a 74f7 87bd
00000020: 86da fe3d 4058 ccbd 8596 823d b941 373d
00000030: 8b93 0abc c08b debd fb5c 1bbd 7355 be3d
00000040: 7797 a73d 0d21 a4bd d460 443b ddaa 763d
00000050: 3e4a eebd 373a e0bd 959e 583d 3e01 3b3d
00000060: 020e 3bbd b6a7 43bd 9615 a1bd e526 c93d
00000070: 61e7 c83d 1556 553d 434d 0f3c 4b47 bdbc
00000080: 8e4a efba b8a7 983d 2d3f 82bd 0e7a 103d
00000090: cdb7 e0bd d241 77bd 2d0e 30bd f909 32bd
000000a0: 9bcc 76bd 3fc6 123c a182 9d3d 11d2 a9bd
000000b0: 73b1 40bd bf0d 903d c9d1 db3d a234 573c
000000c0: 466f 01bd f811 e5b7 4c31 d0bd 8df9 ca3c
000000d0: 69c8 c63d feb9 dcbd 1c71 cfbd 47a7 e93d
000000e0: 38af d83d 0cf2 f73d 6edd 4ebb a5b9 dbbd
000000f0: 1bfe 2e3d 0f8f ea3d b664 ccbd f0d1 c1bd
00000100: 35f2 89bd fc24 3c3d 3175 b83d ebab cfbd
00000110: a2bd 753b a352 ff3d 73f7 783d bb77 25bd
00000120: a5b1 9abd 673a 433d 4794 c0bd d295 b53c
00000130: 9031 3d3b a954 843b d4c0 f93d 2cfc e4bd
00000140: 462a aebd dedc bebd 112c 533d 1197 aebd
00000150: 361e 15ba 33f9 cbbb 1b42 10bd 4e06 cb3d
00000160: 3336 1abd 5c41 adbd 3ecb e2bd d3e4 bcbd
00000170: 9d44 e83d 563c b1bb 3538 a23a b5fd e43d
00000180: 9990 fd3d 7a64 ab3c a1b5 76bd fa77 42bd
00000190: 8a48 a93c 74d7 ac3d f04a cb3d 85dc 273d
000001a0: 655a e3bc 8e06 59bd 3bd6 acbd 670f d9bd
000001b0: 9ad7 0fbd d504 cfbd 899b a7bd 13a1 efbd
000001c0: 6e3b 05bd 01f3 8d3d d847 e13d 319f aa3d
000001d0: c6ba acbc a1d6 f8bd 123f 09bd 271e ce3b
000001e0: 5134 93bd c88c a4bd 730a a4bd 530d 95bd
000001f0: 05d1 a83d d3af 88bd bef8 723d 7ffc 72bd
00000200: 8599 e2bd 27f1 92bd 041d e03d 83d2 dcbd
00000210: 6dc1 8cbd af7f dfbd f66e 3e3d 429b 97bd
00000220: 06f6 12bd 13f6 db3d 7956 babb 6221 a43c
00000230: ba33 fa3c 3b04 dc3d e5f5 153d 7e8c 03bd
00000240: bcab 2bbc 9d95 3a3d 3923 3a3d 7dc5 b2bc
00000250: 6a76 a53c c2c5 e33c 2834 bd3b 55d5 283d
00000260: 04ad b63d 4d69 6f3d bf84 dcbd 8d78 54bd
00000270: 09a5 283c 75de 1bbd 4492 043c 208a 633c
00000280: a5a8 cf3c aaef b03d 5fa9 fcbd 8d8c 8b3d
00000290: 151c 763d a6c3 f8bc 696d 23bb 3f22 51bd
000002a0: b72c d4bd 6318 ffbd f551 113d b643 493d
000002b0: 43bd 8dbd 6db4 ca3d 792e a4bd dc0b b53d
000002c0: 64be a1bd 868c 45bd 5261 573d 5870 cebd
000002d0: 185b 81bd 1401 acbc e375 81bd 90f0 b8bd
000002e0: 97b2 00bd 1c30 12bc c937 27bc 0535 af3c
000002f0: 962b 92bc d65d 52bd b016 803b a337 92bd
00000300: eccb c5bd e84a e63d 603f e6bd 37f6 cabb
00000310: bbb5 18bd f403 afbc 1520 803d 66b5 da3d
00000320: 5075 98bd f283 e6bc 3f5f c8bd b914 5b3d
00000330: 5d14 6f3d 5a84 bf3d 97db 9c3d 7650 29bc
00000340: 2fb3 db3c 6b04 b1bd 7119 923d c9d9 c4bd
00000350: 2a77 52bd 57cd f3bd aa53 5ebd 271d 873d
00000360: 978c 8c3d 41f1 ed3d 9d61 60bd 8a73 b63d
00000370: c3fd e63d 27cf 943d a816 dc3d ae4f 83ba
00000380: 281a b63d 8549 d43c f998 cd3d a31f aabd
00000390: 0e68 ca3d 1d18 223d 9a45 30bb 2500 d93d
000003a0: c612 cb3d 4dad 34bd ef96 f4bd ab4b 6bbb
000003b0: 11f5 c33d c54d b6bc dd53 40bd f70d cbbd
000003c0: 1ea6 76bd 6286 2d3c 3433 d83d 09bc c2bd
000003d0: abdc 63bd 863e 0c3d 9162 a03d fb58 8cbd
000003e0: 07c9 f23c f29e f2bd 91b0 ed3d fd9e d4bd
000003f0: 4109 d13d 193c 3fbd f147 afbc 562e e4bd

conv2.lin_self.bias f4 [32]
0.0983861 0.0629393 -0.030042928 0.049141888 0.087140135 0.08803206 -0.084175214 -0.11352891
0.05892085 0.011422936 -0.046676483 -0.05132548 0.080505416 0.061670113 0.08249593 -0.04285979
0.11820511 0.0867856 -0.03976984 0.0025925965 -0.10900463 0.028776752 -0.108697996 -0.08091614
0.055653486 0.0319776 -0.056944694 0.038691003 0.044727374 -0.07971972 -0.117242366 0.11434406
00000000: a77e c93d 52e6 803d 961c f6bc 0149 493d
00000010: 8776 b23d 274a b43d 0e64 acbd d881 e8bd
00000020: fd56 713d 4427 3b3c d72f 3fbd ab3a 52bd
00000030: 06e0 a43d cd99 7c3d a0f3 a83d bf8d 2fbd
00000040: 8515 f23d a6bc b13d b3e5 22bd 8de8 293b
00000050: d23d dfbd 39bd eb3c 0e9d debd 5cb7 a5bd
00000060: e9f4 633d f2fa 023d d73e 69bd 757a 1e3d
00000070: 0d34 373d 1844 a3bd c41c f0bd 382d ea3d

bn1.weight f4 [64]
1.001 1.001 0.999 1.001 1.0009999 1.001 1.001 0.999
1.001 1.001 1.0009999 0.999 0.999 1.001 0.999 1.001
1.001 0.999 1.0009997 0.999 0.999 0.999 0.999 1.001
0.999 0.9990001 1.001 0.999 1.001 1.001 0.999 1.001
1.001 0.999 0.999 0.999 0.999 0.999 1.0009999 1.001
0.999 0.999 1.001 1.001 1.001 1.001 1.001 1.001
1.0009999 1.001 1.001 1.001 0.9990001 1.001 0.999 1.001
1.0009999 0.999 1.0009999 1.001 1.001 1.0009998 1.001 1.001
00000000: c520 803f c520 803f 77be 7f3f c520 803f
00000010: c420 803f c520 803f c520 803f 77be 7f3f
00000020: c520 803f c520 803f c420 803f 77be 7f3f
00000030: 77be 7f3f c520 803f 77be 7f3f c520 803f
00000040: c520 803f 77be 7f3f c220 803f 77be 7f3f
00000050: 77be 7f3f 77be 7f3f 77be 7f3f c520 803f
00000060: 77be 7f3f 78be 7f3f c520 803f 77be 7f3f
00000070: c520 803f c520 803f 77be 7f3f c520 803f
00000080: c520 803f 77be 7f3f 77be 7f3f 77be 7f3f
00000090: 77be 7f3f 77be 7f3f c420 803f c520 803f
000000a0: 77be 7f3f 77be 7f3f c520 803f c520 803f
000000b0: c520 803f c520 803f c520 803f c520 803f
000000c0: c420 803f c520 803f c520 803f c520 803f
000000d0: 78be 7f3f c520 803f 77be 7f3f c520 803f
000000e0: c420 803f 77be 7f3f c420 803f c520 803f
000000f0: c520 803f c320 803f c520 803f c520 803f

bn1.bias f4 [64]
0.0009999975 0.0009999915 -0.0009999928 0.000999997 0.0009999878 0.0009999698 0.0009999861 -0.0009999924
0.0009999893 -0.000999991 0.000999995 -0.0009999942 -0.0009999921 -0.0009996244 -0.0009999988 0.0009999482
-0.0009999675 -0.0009999933 -0.0009999836 -0.000999996 -0.0009999067 -0.0009999928 -0.0009999947 0.0009999899
-0.0009999973 -0.0009996813 0.0009999905 -0.0009999945 0.0009999898 0.0009999903 -0.0009999964 0.000999953
0.0009999652 -0.0009999984 -0.0009999905 -0.0009999964 -0.0009999971 -0.0009999884 0.0009999917 0.0009999762
-0.0009999983 -0.0009999934 0.000999998 0.0009999953 0.0009999982 0.000999994 0.0009999945 0.0009999957
0.0009999657 0.0009999934 0.0009999897 0.0009999917 0.0009999892 0.0009999936 0.0009999445 0.0009999969
-0.0009999847 -0.0009999792 -0.0009999768 0.0009999903 0.0009999408 0.0009999884 0.0009999293 0.0009999839
00000000: 5912 833a 2612 833a 3112 83ba 5512 833a
00000010: 0612 833a 6b11 833a f711 833a 2d12 83ba
00000020: 1312 833a 2112 83ba 4412 833a 3d12 83ba
00000030: 2b12 83ba d405 83ba 6412 83ba b210 833a
00000040: 5711 83ba 3512 83ba e211 83ba 4c12 83ba
00000050: 4d0f 83ba 3112 83ba 4112 83ba 1812 833a
00000060: 5712 83ba bd07 83ba 1d12 833a 3f12 83ba
00000070: 1712 833a 1b12 833a 5012 83ba db10 833a
00000080: 4411 833a 6112 83ba 1d12 83ba 5012 83ba
00000090: 5612 83ba 0b12 83ba 2712 833a a211 833a
000000a0: 6012 83ba 3612 83ba 5d12 833a 4612 833a
000000b0: 5f12 833a 3b12 833a 3f12 833a 4a12 833a
000000c0: 4811 833a 3612 833a 1612 833a 2712 833a
000000d0: 1212 833a 3812 833a 9210 833a 5412 833a
000000e0: eb11 83ba bc11 83ba a711 83ba 1b12 833a
000000f0: 7210 833a 0b12 833a 0f10 833a e411 833a

bn1.running_mean f4 [64]
0.0028194776 0.00027154793 0.0023619717 0.0026187655 0.0023377377 1.43159095e-05 1.9949211e-05 0.0005834245
0.000632213 0.00031069186 0.0026130287 0.0018831234 0.0028080035 0.001825301 0.0043521193 9.0552865e-05
0.000364801 0.0016634939 0.000626403 0.0024383261 3.0322537e-05 0.0017877602 0.0046508545 0.002159617
0.0006440424 0.0028417555 9.3163246e-05 0.0032981632 0.0045877597 9.589867e-05 0.0007019269 0.002076141
1.8506369e-05 0.003487055 0.0044073155 0.0031508002 0.0029730713 0.00024257715 0.002544842 0.0007195064
0.004813745 0.0050907675 0.005087107 0.0013475302 0.004281962 0.0006302783 0.00076083594 0.002708433
0.002902638 0.0010988173 0.00021440959 0.0037791864 0.0066035124 0.0043040006 0.00080622884 0.0023141806
0.0031023296 0.00017255526 0.00027554718 0.0018550911 0.00055114616 0.0023489937 4.3610617e-05 2.2420261e-05
00000000: fcc6 383b 8c5e 8e39 4fcb 1a3b 989f 2b3b
00000010: bb34 193b 5d2e 7037 9b58 a737 f5f0 183a
00000020: 19bb 253a 5be4 a239 593f 2b3b 23d3 f63a
00000030: 7b06 383b f03e ef3a 399c 8e3b 33e7 bd38
00000040: c342 bf39 9809 da3a 3235 243a 53cc 1f3b
00000050: 275d fe37 4753 ea3a 3266 983b 5c88 0d3b
00000060: f4d4 283a bf3c 3a3b a360 c338 ff25 583b
00000070: eb54 963b 351d c938 8401 383a de0f 083b
00000080: 203e 9b37 1387 643b 3e6b 903b a87d 4e3b
00000090: dcd7 423b 4f5c 7e39 5dc7 263b 429d 3c3a
000000a0: 9fbc 9d3b 74d0 a63b bfb1 a63b 9c9f b03a
000000b0: b34f 8c3b 4339 253a d672 473a f77f 313b
000000c0: 2f3a 3e3b 3106 903a 23d3 6039 3aac 773b
000000d0: 4762 d83b 9308 8d3b 1a59 533a 82a9 173b
000000e0: 7450 4b3b f3ef 3439 5177 9039 8726 f33a
000000f0: cb7a 103a 93f1 193b 8bea 3638 2513 bc37

bn1.running_var f4 [64]
0.90006787 0.900009 0.9000713 0.9000621 0.90004414 0.90000033 0.90000033 0.90001804
0.90001386 0.90000546 0.9000607 0.9000491 0.9000726 0.90006924 0.90010333 0.9000018
0.9000081 0.9000389 0.900013 0.90009034 0.9000006 0.90004385 0.9001174 0.9000558
0.900025 0.9000848 0.90000224 0.9001632 0.90010124 0.9000014 0.9000183 0.9000568
0.9000004 0.9000728 0.9000625 0.9000573 0.9000623 0.9000042 0.90005255 0.90001947
0.90011 0.90011567 0.90006834 0.9000309 0.9000845 0.9000174 0.900018 0.90006435
0.90006995 0.9000221 0.9000065 0.9000718 0.90010697 0.9000667 0.9000192 0.90003616
0.9000909 0.9000069 0.90000725 0.9000638 0.9000163 0.90007555 0.9000009 0.90000033
00000000: d96a 663f fd66 663f 136b 663f 786a 663f
00000010: 4b69 663f 6c66 663f 6c66 663f 9567 663f
00000020: 4f67 663f c266 663f 616a 663f 9e69 663f
00000030: 286b 663f f06a 663f 2c6d 663f 8566 663f
00000040: ee66 663f f368 663f 4167 663f 526c 663f
00000050: 7066 663f 4669 663f 186e 663f 0f6a 663f
00000060: 0a68 663f f56b 663f 8c66 663f 1871 663f
00000070: 096d 663f 7e66 663f 9967 663f 1f6a 663f
00000080: 6d66 663f 2c6b 663f 7f6a 663f 286a 663f
00000090: 7c6a 663f ad66 663f d869 663f ad67 663f
000000a0: 9c6d 663f fb6d 663f e16a 663f 6d68 663f
000000b0: f06b 663f 8a67 663f 9467 663f 9e6a 663f
000000c0: fc6a 663f d967 663f d366 663f 1b6b 663f
000000d0: 696d 663f c56a 663f a967 663f c568 663f
000000e0: 5b6c 663f da66 663f e066 663f 956a 663f
000000f0: 7867 663f 5a6b 663f 7566 663f 6c66 663f

bn2.weight f4 [32]
0.999 0.999 0.999 0.999 0.999 0.999 0.999 0.999
0.999 0.999 0.999 0.999 0.999 0.999 0.999 0.999
0.999 0.999 0.999 0.999 0.999 0.999 0.999 0.999
0.999 0.999 0.999 0.999 0.999 0.999 0.999 0.999
00000000: 77be 7f3f 77be 7f3f 77be 7f3f 77be 7f3f
00000010: 77be 7f3f 77be 7f3f 77be 7f3f 77be 7f3f
00000020: 77be 7f3f 77be 7f3f 77be 7f3f 77be 7f3f
00000030: 77be 7f3f 77be 7f3f 77be 7f3f 77be 7f3f
00000040: 77be 7f3f 77be 7f3f 77be 7f3f 77be 7f3f
00000050: 77be 7f3f 77be 7f3f 77be 7f3f 77be 7f3f
00000060: 77be 7f3f 77be 7f3f 77be 7f3f 77be 7f3f
00000070: 77be 7f3f 77be 7f3f 77be 7f3f 77be 7f3f

bn2.bias f4 [32]
-0.0009999993 -0.0009999983 -0.0009999991 -0.0009999993 -0.0009999996 -0.0009999993 -0.0009999977 -0.0009999987
-0.0009999991 -0.0009999993 -0.0009999996 -0.0009999991 -0.0009999991 -0.0009999992 -0.0009999996 -0.0009999993
-0.0009999993 -0.0009999993 -0.000999999 -0.000999999 -0.000999999 -0.0009999995 -0.0009999993 -0.0009999991
-0.0009999993 -0.0009999996 -0.0009999993 -0.0009999983 -0.0009999987 -0.0009999991 -0.0009999988 -0.0009999991
00000000: 6912 83ba 6012 83ba 6712 83ba 6912 83ba
00000010: 6b12 83ba 6912 83ba 5b12 83ba 6312 83ba
00000020: 6712 83ba 6912 83ba 6b12 83ba 6712 83ba
00000030: 6712 83ba 6812 83ba 6b12 83ba 6912 83ba
00000040: 6912 83ba 6912 83ba 6612 83ba 6612 83ba
00000050: 6612 83ba 6a12 83ba 6912 83ba 6712 83ba
00000060: 6912 83ba 6b12 83ba 6912 83ba 6012 83ba
00000070: 6312 83ba 6712 83ba 6412 83ba 6712 83ba

bn2.running_mean f4 [32]
0.027612565 0.0059498297 0.010243803 0.027680416 0.03715064 0.02547424 0.0027783087 0.0070557008
0.009236115 0.021100575 0.026100159 0.023622958 0.012689173 0.020099578 0.041208018 0.010637795
0.022273522 0.020639958 0.011700054 0.010248267 0.006807919 0.035253648 0.015476442 0.013843561
0.027134662 0.029614469 0.021787446 0.0059496327 0.006010787 0.017208245 0.005556991 0.008304631
00000000: bf33 e23c caf6 c23b a0d5 273c 0ac2 e23c
00000010: 452b 183d 5aaf d03c 4914 363b 8233 e73b
00000020: 1353 173c 1ddb ac3c 00d0 d53c ef84 c13c
00000030: 40e6 4f3c dfa7 a43c bdc9 283d 254a 2e3c
00000040: f676 b63c 2115 a93c 95b1 3f3c 59e8 273c
00000050: f714 df3b 2166 103d e790 7d3c 1ad0 623c
00000060: 8349 de3c 0b9a f23c 967b b23c 23f5 c23b
00000070: 23f6 c43b 4ef8 8c3c 6b17 b63b 2610 083c

bn2.running_var f4 [32]
0.91267115 0.9027372 0.9047814 0.9163665 0.9132534 0.90883756 0.9010623 0.9039606
0.9035501 0.91160744 0.9123232 0.9112675 0.90482134 0.9092176 0.9143565 0.90424573
0.9085284 0.90815926 0.9039828 0.9051456 0.90239424 0.9105525 0.90575427 0.90741503
0.9129064 0.91305214 0.908633 0.9032745 0.9022087 0.90794325 0.9022696 0.9029084
00000000: d1a4 693f c919 673f c19f 673f ff96 6a3f
00000010: faca 693f 94a9 683f 05ac 663f f669 673f
00000020: 0f4f 673f 1b5f 693f 038e 693f d448 693f
00000030: 5fa2 673f 7cc2 683f 4513 6a3f a67c 673f
00000040: 5195 683f 207d 683f 6b6b 673f 9fb7 673f
00000050: 4f03 673f f819 693f 83df 673f 5a4c 683f
00000060: 3cb4 693f c9bd 693f 2c9c 683f ff3c 673f
00000070: 26f7 663f f86e 683f 24fb 663f 0125 673f
