best_model.pt (torch, 369570 bytes, 16 tensors)

conv1.lin_neigh.weight f4 [64, 769]
0.04840725 0.023845214 -0.0095272185 0.035019033 -0.017804598 0.0011279543 -0.033019044 0.008407633
0.03923472 -0.016603662 0.025743617 -0.0046228543 0.03166361 -0.0012300117 0.009625005 -0.018089576
0.027437642 0.010233851 -0.015862206 0.019228557 -0.018909369 -0.0046842596 -0.012624206 0.038420722
-0.036182255 -0.007136721 -0.011942265 -0.019118039 -0.003191845 -0.029209333 0.03927783 -0.024535548
0.01907947 -0.00018714368 -0.011587551 0.025011538 0.015556454 0.03864132 0.015726814 0.0011049765
0.01815815 -0.009685639 0.020109784 0.033694517 0.022645716 -0.00058960397 0.012452537 0.019071363
0.012107463 -0.0142937405 -0.029024329 -0.025162645 -0.03484123 0.024684928 0.0020374947 0.004850828
0.021240128 0.008716017 0.019849446 -0.036527876 -0.0022332235 -0.024009166 0.017839376 -0.015370214
0.01962525 -0.0002691036 0.039647467 -0.0041863406 -0.015865905 -0.01620777 0.029581998 0.021161638
0.03167958 -0.033095237 -0.033798117 -0.024468133 -0.009838946 0.014489163 0.019750785 0.034292083
-0.016999733 -0.018478552 0.0014452684 -0.009667655 0.015518286 -0.011183682 0.020268422 -0.01529695
-0.025770865 0.014573462 0.004217136 -0.0066042715 0.018253058 0.026049746 -0.02273707 -0.023933398
0.021763986 -0.015923755 -0.009873392 -0.027209662 -0.017303448 -0.0017733227 -0.0034819688 -0.025875969
0.0048297225 -0.025856037 -0.022382481 -0.013314908 -0.023692 -0.017737186 0.044895723 0.0140129505
0.014895633 -0.03378096 -0.017148962 -0.005749751 0.0058907154 -0.029568193 -0.02297042 -0.01508829
0.0200307 -0.027253896 -0.0026153717 -0.031749576 -0.013493364 -0.028132332 -0.017961517 -0.036350105
-0.00016363132 -0.0015056677 0.040473767 0.015758384 -0.044008095 0.026795173 -0.01839488 -0.027390843
-0.028996741 -0.046953563 0.015088757 -0.011848309 0.01648156 -0.021787342 0.022211783 -0.028816447
-0.0055426676 0.014762776 0.024955058 0.025296742 0.043740828 -0.032485325 0.005588129 -0.019642485
0.00093744457 -0.014400074 0.018125214 -0.045219492 0.025053376 0.013132521 0.012745027 -0.016058022
0.027173031 -0.0031340148 0.0064403005 -0.026898574 0.02318467 -0.0051396615 -0.021574773 0.03398111
0.009417125 -0.02528061 -0.015226836 0.0091925645 0.022818552 -0.006396108 -0.014639598 -0.016898163
-0.014806818 0.020396706 0.015994102 -0.030986005 0.012035217 0.011122578 0.0046095704 -0.017079113
0.016101113 0.00912395 0.023244832 -0.005267339 0.004747859 0.004467377 -0.004038865 -0.013988786
0.026799705 0.032751616 -0.0033614843 -0.018492062 2.8335317e-05 0.0061396775 0.009572163 0.0009096494
-0.036010027 -0.009943162 0.026868219 0.023962287 0.015586554 -0.02520838 -0.03226966 -0.042823497
-0.01968184 0.0105175385 0.011284576 0.0043398906 -0.031010931 -0.016989926 -0.014097621 0.039558943
0.00360811 -0.01611813 0.010739869 -0.013541587 -0.029207509 0.031457547 -0.020627825 -0.013691824
-0.0031392416 0.03623149 0.023416167 0.0008442954 -0.029301604 -0.038723107 -0.028811343 0.030533437
0.025237987 0.022536218 0.018123774 0.023032734 -0.0100328475 -0.026313359 -0.026439155 -0.038270283
0.0077127973 -0.01562439 -0.023172783 -0.023918463 -0.015091865 -0.013945512 -0.010599148 0.014836459
-0.015041406 0.01971841 -0.0041603358 -0.03003541 -0.0028342681 -0.013145196 -0.012485601 -0.037887014
00000000: ae46 463d 0a57 c33c 0d18 1cbc 1e70 0f3d
00000010: f3da 91bc ded7 933a fa3e 07bd 2bc0 093c
00000020: 96b4 203d 6704 88bc 47e4 d23c 507b 97bb
00000030: b4b1 013d 5838 a1ba 32b2 1d3c 9730 94bc
00000040: e8c4 e03c e2ab 273c 75f1 81bc 3585 9d3c
00000050: d2e7 9abc 6b7e 99bb c2d5 4ebc 0c5f 1d3d
00000060: d833 14bd 28db e9bb 7da9 43bc 6f9d 9cbc
00000070: 462e 51bb 6948 efbc cae1 203d c6fe c8bc
00000080: 8c4c 9c3c 003c 44b9 b6d9 3dbc ffe4 cc3c
00000090: 7fe0 7e3c 5c46 1e3d 85d5 803c dcd4 903a
000000a0: 67c0 943c 84b0 1ebc 46bd a43c 4303 0a3d
000000b0: 8283 b93c a78f 1aba ba05 4c3c 8c3b 9c3c
000000c0: 615e 463c 4b30 6abc 6ec4 edbc e421 cebc
000000d0: adb5 0ebd 0c38 ca3c 7d87 053b b2f3 9e3b
000000e0: c7ff ad3c a0cd 0e3c 4e9b a23c 419e 15bd
000000f0: 465b 12bb dfae c4bc e223 923c 5ad3 7bbc
00000100: 22c5 a03c 7916 8db9 6265 223d 922d 89bb
00000110: 37f9 81bc 28c6 84bc f255 f23c 2c5b ad3c
00000120: 73c2 013d df8e 07bd e56f 0abd 6571 c8bc
00000130: 8833 21bc f463 6d3c 66cc a13c db75 0c3d
00000140: 0643 8bbc 5560 97bc 296f bd3a 1665 1ebc
00000150: 6940 7e3c c33b 37bc f609 a63c 0fa0 7abc
00000160: 6c1d d3bc 88c5 6e3c e72f 8a3b a568 d8bb
00000170: 7087 953c 4766 d53c 1843 babc f90f c4bc
00000180: 634a b23c 8972 82bc 02c4 21bc cce6 debc
00000190: f6bf 8dbc d66e e8ba be31 64bb d7f9 d3bc
000001a0: a642 9e3b 0ad0 d3bc 775b b7bc c626 5abc
000001b0: ba15 c2bc 934d 91bc 94e4 373d 9396 653c
000001c0: d00c 743c e75d 0abd fb7b 8cbc 6868 bcbb
000001d0: e706 c13b ff38 f2bc 762c bcbc e034 77bc
000001e0: 6c17 a43c 9043 dfbc a866 2bbb d80b 02bd
000001f0: 4513 5dbc c775 e6bc 0824 93bc d9e3 14bd
00000200: 7394 2bb9 d359 c5ba d2c7 253d ba17 813c
00000210: d541 34bd 8d81 db3c dcb0 96bc c362 e0bc
00000220: 938a edbc 6152 40bd d536 773c 691f 42bc
00000230: 5604 873c 5e7b b2bc 7cf5 b53c 7810 ecbc
00000240: 449f b5bb 92df 713c 8d6e cc3c 1d3b cf3c
00000250: 9529 333d 550f 05bd a01c b73b 47e9 a0bc
00000260: d7be 753a 4aee 6bbc 547b 943c 1338 39bd
00000270: bd3c cd3c c929 573c 85d0 503c 1d8c 83bc
00000280: fa99 de3c 0b64 4dbb 2809 d33b 665a dcbc
00000290: c7ed bd3c 9b6a a8bb 94bd b0bc c72f 0b3d
000002a0: 494a 1a3c 4819 cfbc fb79 79bc 699c 163c
000002b0: f9ed ba3c 7196 d1bb edda 6fbc 046e 8abc
000002c0: 4c98 72bc fe16 a73c 1006 833c 5dd6 fdbc
000002d0: 5c2f 453c 793b 363c e10b 973b 7fe9 8bbc
000002e0: 7be6 833c 9f7c 153c f26b be3c a499 acbb
000002f0: ee93 9b3b 1363 923b 7558 84bb 3931 65bc
00000300: 0e8b db3c 8f26 063d 594c 5cbb aa7c 97bc
00000310: a1b1 ed37 592f c93b 90d4 1c3c 8a75 6e3a
00000320: 407f 13bd a5e8 22bc bd1a dc3c 8f4c c43c
00000330: bf5e 7f3c ce81 cebc 312d 04bd b167 2fbd
00000340: cf3b a1bc c151 2c3c f1e2 383c a435 8e3b
00000350: a30a febc 752e 8bbc b5f9 66bc 8f08 223d
00000360: 0a76 6c3b 2b0a 84bc 47f6 2f3c 88dd 5dbc
00000370: 9644 efbc a1d9 003d affb a8bc ac53 60bc
00000380: bcbb 4dbb 7967 143d 43d3 bf3c b553 5d3a
00000390: eb09 f0bc 1f9c 1ebd c405 ecbc 4221 fa3c
000003a0: e5bf ce3c e09d b83c 4f78 943c 25af bc3c
000003b0: d060 24bc 1d8f d7bc ed96 d8bc 4dc1 1cbd
000003c0: a2bb fc3b 71fd 7fbc d9d4 bdbc a7f0 c3bc
000003d0: df43 77bc b77b 64bc 0da8 2dbc 9f14 733c
000003e0: 3b70 76bc 8188 a13c 6d53 88bb d20c f6bc
000003f0: 21bf 39bb f35e 57bc 6890 4cbc 6a2f 1bbd

conv1.lin_neigh.bias f4 [64]
-0.031514768 -0.01808447 -0.0026356701 0.0007580658 -0.019833615 -0.022175252 -0.035979226 0.013292996
-0.025130484 -0.019057296 0.007611722 0.024363212 0.037076958 -0.014750115 0.031414606 -0.021759566
-0.0027102206 -0.018897723 -0.014198425 0.028447114 -0.0070451843 0.030356918 0.0035877326 -0.00862121
0.010693867 0.026782729 0.0030473147 0.032394465 -0.01176223 -0.015039706 0.038013082 -0.011839821
-0.008207629 0.009913821 0.015916867 -0.0044637234 0.008251399 -0.003990222 0.0022044617 -0.019700503
0.04520035 -0.013092713 0.0127587505 -0.020098459 0.026386006 -0.003058337 -0.008473267 0.019618021
-0.0013658591 -0.01647253 0.021201478 -0.022586364 0.003951112 0.026978124 0.0137953255 0.030431714
0.0018592429 -0.004059102 -0.015226734 -0.006303728 -0.021374559 -0.023267394 -0.008186465 -0.017878082
00000000: a115 01bd e225 94bc 35bb 2cbb efb8 463a
00000010: 1b7a a2bc e0a8 b5bc f45e 13bd deca 593c
00000020: 72de cdbc 0c1e 9cbc c16b f93b 5c95 c73c
00000030: 02de 173d 77aa 71bc 9aac 003d 1e41 b2bc
00000040: f59d 31bb 66cf 9abc 83a0 68bc ec09 e93c
00000050: 4adb e6bb 12af f83c 2a20 6b3b fa3f 0dbc
00000060: 5435 2f3c 7467 db3c 75b5 473b 0fb0 043d
00000070: 5eb6 40bc 1969 76bc 9bb3 1b3d cffb 41bc
00000080: 4b79 06bc 946d 223c 1764 823c 6d44 92bb
00000090: e030 073c 68c0 82bb bb78 103b f362 a1bc
000000a0: 0124 393d d282 56bc 140a 513c 86a5 a4bc
000000b0: 7727 d83c 616e 48bb 75d3 0abc f9b5 a03c
000000c0: a006 b3ba 66f1 86bc b9ae ad3c 0a07 b9bc
000000d0: 5478 813b 3a01 dd3c ca05 623c ee4b f93c
000000e0: d7b1 f33a 3702 85bb 8d79 79bc 818f cebb
000000f0: b319 afbc 439b bebc 8620 06bc 0e75 92bc

conv1.lin_self.weight f4 [64, 385]
0.04069718 -0.004648077 -0.019415801 -0.035440344 0.008678061 -0.037421282 -0.020574206 0.0028138112
-0.0069663823 -0.0105283335 -0.03445881 0.036164213 -0.019044355 0.044452798 0.011149694 0.001852663
0.024100557 -0.046210434 0.04494097 -0.032498214 -0.014521982 -0.049462475 0.002170899 -0.0002668427
-0.011932583 0.051911905 0.034299705 0.0012037988 -0.008850584 0.03716623 -0.044379868 -0.016247181
0.011688904 -0.028756581 0.04084845 -0.03333403 0.039356172 0.05304291 0.03134242 0.042399816
0.002881411 -0.004086298 0.029846147 -0.010831657 -0.0018671446 0.04117993 0.036024246 0.0513767
0.023437867 0.022131508 0.0012184284 0.0076204687 -0.04876798 -0.030450586 0.007589055 -0.013755066
-0.03539506 -0.033906244 -0.046253834 0.016375389 0.0041527343 0.020565746 0.017773688 0.029491391
0.023426063 -0.008967542 -0.006425669 0.010059317 0.021926714 0.013955599 0.0012128429 0.009452064
-0.04537745 0.027863994 0.02409617 0.051778298 -0.04547917 0.013000334 0.031237883 -0.015199036
-0.012269313 0.016576853 0.021372601 0.025778323 -0.028415889 -0.050945472 0.010972652 0.04236489
0.03372388 0.043990236 -0.007480258 -0.044340774 0.029523166 -0.03153954 0.031421483 0.019717908
-0.0242205 -0.005678568 0.047450554 -0.006383813 0.016256213 0.004153012 0.043946482 0.056364346
-0.0072356826 0.028345207 0.03068101 -0.0020889079 -0.035078637 0.016990574 0.005855362 -0.020050403
0.035271224 -0.031856183 0.043338377 -0.0071878345 0.0041616643 0.013117234 0.008522733 0.027691336
0.0018275646 -0.02252838 0.026226297 0.03572012 0.025636626 -0.009655219 -0.014171518 0.008341195
0.000113897186 0.022269309 0.053767994 -0.024339708 -0.03665949 0.014272268 -0.0058981567 -0.019155182
0.02092622 0.04816105 0.041336745 -0.0005988925 0.044892047 -0.016771493 -0.043437008 -0.036607955
-0.035820466 0.008082741 0.019108672 -0.0030874733 -0.0071078017 0.024597535 -0.0041296296 -0.04785441
0.055902522 0.017405922 -0.037823167 0.0064428607 0.037501134 -0.0022197978 0.016305227 -0.015693663
-0.018051812 -0.024160575 0.0022772446 -0.03757503 -0.009071913 0.05054589 0.017453527 -0.010674549
0.012548673 0.006627255 -0.0012658553 -0.036409266 0.052118342 -0.025984932 0.05983424 -0.024430787
0.014888763 -0.043517604 -0.0057712477 0.02583259 -0.052457485 -0.051987972 -0.041541044 -0.032647233
0.026785875 0.016838284 -0.030258568 0.02668449 0.00039202682 -0.03376422 -0.025949346 -0.0050527775
-0.0073480085 -0.03195725 -0.002337156 -0.04000242 0.019919667 -0.03879235 0.006003329 -0.033722285
0.012349092 0.03667758 0.014241301 0.031543393 0.039521795 -0.035418455 0.0010661376 0.043549526
0.016729467 -0.027195822 -0.047708776 0.04814771 0.0010815277 0.0063278666 -0.03132228 0.034777645
-0.01263864 -0.009295095 0.022164142 -0.040603105 -0.016134217 0.035062294 0.018371325 -0.008849034
-0.0014814447 -0.014704545 -0.051397298 -0.036994625 -0.04349519 0.055357628 -0.036095023 0.02314896
-0.021577751 -0.0072410037 -0.0058364207 0.021111673 0.0095317885 0.04229616 -0.004492935 0.046578802
0.015592399 -0.018248748 -0.0410429 -0.051249817 0.021673467 0.03386745 0.037669502 -0.017031612
0.018838512 0.033941373 0.043701038 -0.028939132 0.021328526 -0.03889465 0.036208004 -0.004185859
00000000: 16b2 263d e54e 98bb e30d 9fbc e529 11bd
00000010: 6d2e 0e3c 0f47 19bd 3d8b a8bc eb67 383b
00000020: 4046 e4bb 087f 2cbc ae24 0dbd ed20 143d
00000030: e802 9cbc 2314 363d 35ad 363c 0ed5 f23a
00000040: 886e c53c 2747 3dbd 0614 383d d91c 05bd
00000050: 9bed 6dbc 2a99 4abd a445 0e3b 05e7 8bb9
00000060: e180 43bc 94a1 543d d97d 0c3d c9c8 9d3a
00000070: 0a02 11bc 9e3b 183d aac7 35bd cf18 85bc
00000080: d182 3f3c ec92 ebbc b450 273d 4489 08bd
00000090: f033 213d 8643 593d e960 003d 6eab 2d3d
000000a0: 0ed6 3c3b 5ae6 85bb e87f f43c 4377 31bc
000000b0: faba f4ba 49ac 283d 298e 133d 6070 523d
000000c0: c500 c03c 234d b53c acb3 9f3a 20b5 f93b
000000d0: efc0 47bd 8273 f9bc 9cad f83b ee5c 61bc
000000e0: 69fa 10bd 46e1 0abd a974 3dbd ae25 863c
000000f0: a913 883b 7f79 a83c 209a 913c ee97 f13c
00000100: 04e8 bf3c 99ec 12bc 6b8e d2bb d5cf 243c
00000110: a79f b33c 06a6 643c 41f8 9e3a d4dc 1a3c
00000120: b4dd 39bd 0843 e43c 5565 c53c 7b15 543d
00000130: 5e48 3abd 5aff 543c 97e6 ff3c 6105 79bc
00000140: 3b05 49bc 2ecc 873c 9815 af3c 102d d33c
00000150: 70c8 e8bc 33ac 50bd a3c6 333c cf86 2d3d
00000160: 0d22 0a3d 1b2f 343d f41c f5bb ac9e 35bd
00000170: 91da f13c 9b2f 01bd d0b3 003d 7387 a13c
00000180: 126a c6bc 4813 babb 835b 423d 4e2f d1bb
00000190: c02b 853c fd15 883b 3a01 343d 4dde 663d
000001a0: 4e19 edbb 3534 e83c be56 fb3c 0fe6 08bb
000001b0: 9eae 0fbd d12f 8b3c 56de bf3b be40 a4bc
000001c0: 8f78 103d a17b 02bd 9583 313d ed87 ebbb
000001d0: 925e 883b abe9 563c efa2 0b3c f1d8 e23c
000001e0: e48a ef3a 708d b8bc 88d8 d63c 434f 123d
000001f0: e703 d23c ec30 1ebc a82f 68bc 82a9 083c
00000200: 16dc ee38 206e b63c d43b 5c3d 1164 c7bc
00000210: 4328 16bd 3bd6 693c 5345 c1bb 54eb 9cbc
00000220: 776d ab3c 8544 453d b850 293d fffe 1cba
00000230: b9e0 373d 5f64 89bc 01eb 31bd 39f2 15bd
00000240: 7bb8 12bd 796d 043c ca89 9c3c 3557 4abb
00000250: 90e8 e8bb c580 c93c d851 87bb fc02 44bd
00000260: 0bfa 643d dd96 8e3c 77ec 1abd a21e d33b
00000270: ca9a 193d 077a 11bb 8a92 853c ff8f 80bc
00000280: 65e1 93bc 66ec c5bc d33d 153b 46e8 19bd
00000290: 5ca2 14bc 3509 4f3d b3fa 8e3c 4ee4 2ebc
000002a0: f398 4d3c 7229 d93b 0eeb a5ba e221 15bd
000002b0: 0b7a 553d 5ade d4bc bf14 753d 1323 c8bc
000002c0: 00f0 733c 843f 32bd bc1c bdbb de9e d33c
000002d0: a9dd 56bd 57f1 54bd f126 2abd 1bb9 05bd
000002e0: 0d6e db3c 71f0 893c d1e0 f7bc 6e99 da3c
000002f0: f388 cd39 5a4c 0abd b993 d4bc c591 a5bb
00000300: 90c7 f0bb 9be5 02bd f92a 19bb 94d9 23bd
00000310: 922e a33c bae4 1ebd 93b7 c43b 6120 0abd
00000320: d953 4a3c 3b3b 163d 5954 693c a533 013d
00000330: 9be1 213d f112 11bd a4bd 8b3a fd60 323d
00000340: 3c0c 893c c6c9 debc 476a 43bd 8836 453d
00000350: 0cc2 8d3a fe59 cf3b cb4b 00bd 0173 0e3d
00000360: 4c12 4fbc 744a 18bc 9391 b53c 714f 26bd
00000370: e82b 84bc 7b9d 0f3d 767f 963c 8afb 10bc
00000380: 092d c2ba 55eb 70bc f985 52bd ad87 17bd
00000390: 0328 32bd aebe 623d 60d8 13bd e3a2 bd3c
000003a0: d3c3 b0bc f145 edbb 723f bfbb 63f2 ac3c
000003b0: 382b 1c3c bd3e 2d3d 7839 93bb 6ac9 3e3d
000003c0: 4377 7f3c 667e 95bc 9a1c 28bd 54eb 51bd
000003d0: 8e8c b13c 98b8 0a3d 564b 1a3d e185 8bbc
000003e0: 3953 9a3c 1c06 0b3d dcff 323d c211 edbc
000003f0: 29b9 ae3c ff4f 1fbd d84e 143d 8829 89bb

conv1.lin_self.bias f4 [64]
0.059716206 -0.03451089 0.040266074 0.053293925 0.04390315 -0.009583918 -0.062200338 -0.04701025
-0.0049309675 -0.05148318 0.028161334 -0.005353429 0.028997036 0.028908014 0.0234978 -0.028280744
-0.025617205 0.014119583 -0.050753504 -0.004016893 -0.048875406 0.034387074 0.04814725 0.018283827
-0.027594123 0.014485584 -0.04753863 -0.0009624627 0.011396001 -0.019220017 -0.024675298 0.050212312
-0.057581015 0.021882165 0.034268383 0.020957042 0.010792781 -0.027928675 0.06496056 -0.0047252476
0.01939021 0.041107785 0.048725314 0.034388002 0.009970827 -0.006998087 0.013689483 0.014438758
0.06457027 0.018241238 -0.024840893 0.05095766 0.052359186 0.062247083 0.015262684 0.008936014
0.036477927 -0.04960374 -0.031323373 0.005265889 -0.0023596273 0.064819664 -0.03696155 -0.035491876
00000000: fb98 743d 4a5b 0dbd 0aee 243d bb4a 5a3d
00000010: cad3 333d de05 1dbc c8c5 7ebd d28d 40bd
00000020: f493 a1bb 07e0 52bd 99b2 e63c d16b afbb
00000030: 318b ed3c 80d0 ec3c 757e c03c 05ad e7bc
00000040: 2cdb d1bc d355 673c e8e2 4fbd 24a0 83bb
00000050: 9431 48bd 76d9 0c3d 0d36 453d f7c7 953c
00000060: 120d e2bc f154 6d3c deb7 42bd c74d 7cba
00000070: 4bb6 3a3c 4c73 9dbc da23 cabc 6dab 4d3d
00000080: 12da 6bbd 3a42 b33c 015d 0c3d 1aae ab3c
00000090: 34d4 303c adca e4bc 0b0a 853d 40d6 9abb
000000a0: 38d8 9e3c a360 283d 3294 473d 6fda 0c3d
000000b0: ae5c 233c 3550 e5bb da49 603c 8a90 6c3c
000000c0: 6b3d 843d a66e 953c 217f cbbc fbb8 503d
000000d0: 9676 563d ccf6 7e3d 5610 7a3c 5c68 123c
000000e0: e169 153d 4b2d 4bbd f04c 00bd 7b8d ac3b
000000f0: faa3 1abb 2cc0 843d ff64 17bd ee5f 11bd

conv2.lin_neigh.weight f4 [32, 448]
-0.054702025 -0.006353512 -0.023252983 -0.04722102 -0.002439326 0.009441664 -0.05951598 -0.03987837
0.036591478 -0.032064233 0.059343085 -0.05554644 0.0058878926 0.02500906 -0.056942917 -0.04833382
-0.011218336 -0.003161851 -0.01772682 -0.0030189466 -0.012547295 -0.040396124 0.0061693164 -0.04450543
0.0042333943 -0.0657857 -0.02546318 0.025756968 0.020555258 -0.026807819 -0.025666306 -0.06065952
-0.0006531267 -0.0037091798 -0.065801956 -0.0013550447 -0.057210736 0.019232059 -0.06764772 0.009091401
0.03385031 -0.06907587 -0.01494346 -0.046476595 -0.015696593 -0.034291804 0.0012170762 -0.010678955
-0.010637113 -0.020966109 -0.030199483 0.014465696 -0.01987891 0.0031467369 -0.028123738 -0.048495345
0.072191335 -0.012556735 -0.0065811886 -0.04852004 0.02588629 0.028407836 0.0018915628 -0.03516731
0.055077776 -0.0027949088 0.017164022 -0.028285047 -0.0012161605 0.013458185 -0.048871502 0.01949704
0.05135796 0.0066990363 0.011872662 -0.007666882 -0.059907388 -0.03011603 0.05805741 -0.051544245
0.017549029 0.04399896 -0.033547763 0.0112445755 0.03280152 0.0072519854 -0.014815349 0.06321253
0.01129032 -0.0056837574 0.00806279 -0.0031562897 -0.0184695 -0.0010236098 0.020908859 0.005338172
-0.026146797 -0.03333777 -0.025174206 -0.046900794 -0.037941713 0.0056724343 0.04311269 -0.02056798
0.021124277 -0.019490924 0.0010371773 0.009438657 0.013403788 0.021255018 0.041433252 0.047235273
0.0023574873 -0.029178513 0.050565407 -0.035012886 0.01717936 -0.026066223 -0.025530782 -0.0023548524
0.01764987 -0.008540448 0.029328257 0.06614947 -0.030758295 -0.006488959 0.022959817 0.0021241677
-0.047270548 0.015609166 -0.024683772 -0.038594004 -0.07621915 -0.020185914 0.015771888 0.010751529
-0.013467072 -0.0046779034 -0.019160705 -0.050175715 -0.013701814 0.0065781786 0.011385776 -0.026614407
-0.011036767 -0.029465895 0.018556658 0.030912736 0.05516848 0.006346546 0.008986715 -0.029896554
-0.02229267 -0.008640305 -0.000480299 0.017985003 -0.016775208 -0.039044127 0.02163161 0.016939534
-0.0012689125 0.008438453 -0.056131527 0.015080533 0.028859137 0.04863979 -0.03957934 0.034797028
-0.023873333 0.051540736 0.020448014 0.023088815 -0.017046312 -0.007980317 0.0253695 -0.0578004
-0.011992995 0.03448775 -0.043821312 0.014878729 0.010815544 -0.05208126 -0.017354066 -0.0035593808
0.04878365 0.021048687 -0.020309405 -0.04831982 0.031365037 -0.0048037963 0.05444108 -0.00011461462
0.038777642 -0.023519242 0.03808499 -0.058810126 -0.008292116 -0.016932936 0.012523851 -0.023910765
0.035420656 -0.052327294 0.06254095 -0.049820833 -0.022313723 -0.018257003 0.014217492 -0.018226681
0.049296144 0.0083677005 0.047925916 0.038977597 -0.04014036 -0.024676893 0.024247533 -0.0016009405
0.051710173 -0.043373518 -0.025613159 0.008622588 -0.037572686 -0.002560662 0.014469179 -0.022385228
-0.051056612 -0.011987472 -0.01553611 0.0060441187 0.04093073 -0.019941518 -0.050154176 0.02512971
-0.05556864 -0.039021574 0.00030103468 0.00919836 -0.0026971786 -0.027258057 -0.023475295 -0.042038385
0.005760622 0.0012326832 -0.022821013 0.01972158 -0.009282174 -0.0022512132 -0.014223254 -0.0071521834
-0.029615812 -0.03647401 -0.04351903 -0.016295588 0.021355554 -0.04046623 0.023653893 -0.031967506
00000000: 3b0f 60bd 1f31 d0bb 0a7d bebc d46a 41bd
00000010: 19dd 1fbb 36b1 1a3c 07c7 73bd 8057 23bd
00000020: f2e0 153d c955 03bd bc11 733d aa84 63bd
00000030: 39ef c03b cddf cc3c fa3c 69bd aff9 45bd
00000040: 1dcd 37bc 0f37 4fbb d637 91bc 85d9 45bb
00000050: 2b93 4dbc 6876 25bd fa27 ca3b 534b 36bd
00000060: 49b8 8a3b a7ba 86bd 2998 d0bc 4700 d33c
00000070: 8063 a83c 129c dbbc 2542 d2bc 1e76 78bd
00000080: 9736 2bba b615 73bb 2dc3 86bd c19b b1ba
00000090: ce55 6abd 8d8c 9d3c e38a 8abd 19f4 143c
000000a0: 9fa6 0a3d a677 8dbd 6ad5 74bc 3e5e 3ebd
000000b0: 2496 80bc 9075 0cbd 4d86 9f3a c9f6 2ebc
000000c0: 4947 2ebc 1ec1 abbc e864 f7bc 8701 6d3c
000000d0: 19d9 a2bc 7c39 4e3b c163 e6bc 0ea3 46bd
000000e0: 0dd9 933d c4ba 4dbc 03a7 d7bb f3bc 46bd
000000f0: 7c0f d43c 8db7 e83c 51ee f73a 990b 10bd
00000100: 3c99 613d ca2a 37bb 909b 8c3c 0bb6 e7bc
00000110: 9367 9fba b87f 5c3c 7c2d 48bd 42b8 9f3c
00000120: b95c 523d 9783 db3b 8e85 423c 783a fbbb
00000130: 7361 75bd e4b5 f6bc 9bcd 6d3d 0f20 53bd
00000140: fbc2 8f3c 4138 343d 6169 09bd 2b3b 383c
00000150: e35a 063d 10a2 ed3b 14bc 72bc 9275 813d
00000160: 09fb 383c d03e babb cb19 043c c1d9 4ebb
00000170: 594d 97bc a52a 86ba 0e49 ab3c d5eb ae3b
00000180: cf31 d6bc 2f8d 08bd 233a cebc 0c1b 40bd
00000190: c568 1bbd d4df b93b ef96 303d 2e7e a8bc
000001a0: d20c ad3c 6eab 9fbc e5f1 873a 99a4 1a3c
000001b0: 909b 5b3c 011f ae3c eab5 293d c679 413d
000001c0: 1380 1a3b c707 efbc ac1d 4f3d ac69 0fbd
000001d0: bbbb 8c3c d588 d5bc ee25 d1bc de53 1abb
000001e0: 7696 903c 3ced 0bbc d041 f03c 6079 873d
000001f0: d2f8 fbbc 55a1 d4bb 3a16 bc3c 9f35 0b3b
00000200: c39e 41bd 96bd 7f3c 9f35 cabc bf14 1ebd
00000210: c918 9cbd ee5c a5bc 0c34 813c 2e27 303c
00000220: fea4 5cbc 1949 99bb e9f6 9cbc 0d85 4dbd
00000230: 937d 60bc c38d d73b 688b 3a3c 7506 dabc
00000240: 8ed3 34bc 7662 f1bc 2204 983c b53c fd3c
00000250: 58f8 613d b0f6 cf3b 043d 133c 9ee9 f4bc
00000260: 1e9f b6bc 1190 0dbc a4d0 fbb9 4955 933c
00000270: 296c 89bc bcec 1fbd c634 b13c c7c4 8a3c
00000280: a351 a6ba 7041 0a3c 2cea 65bd 5714 773c
00000290: ff69 ec3c 843a 473d f21d 22bd 5487 0e3d
000002a0: 0292 c3bc 611c 533d 9882 a73c c124 bd3c
000002b0: b5a4 8bbc e0bf 02bc b3d3 cf3c 1dc0 6cbd
000002c0: 447e 44bc 0743 0d3d fa7d 33bd eac5 733c
000002d0: ae33 313c 2953 55bd 1d2a 8ebc 8044 69bb
000002e0: 5dd1 473d 4c6e ac3c e95f a6bc 01eb 45bd
000002f0: a078 003d 2a69 9dbb 9cfd 5e3d 415d f0b8
00000300: 4ed5 1e3d 6dab c0bc 02ff 1b3d e3e2 70bd
00000310: a8db 07bc f1b6 8abc d730 4d3c 82e0 c3bc
00000320: 4015 113d 2555 56bd 7815 803d ee10 4cbd
00000330: 45cb b6bc b68f 95bc 7cf0 683c 1f50 95bc
00000340: c1ea 493d ae18 093c f74d 443d f9a6 1f3d
00000350: 386a 24bd 3227 cabc c3a2 c63c a6d6 d1ba
00000360: 0cce 533d 6ea8 31bd b0d2 d1bc c145 0d3c
00000370: d1e5 19bd c8d0 27bb 2310 6d3c 3a61 b7bc
00000380: bd20 51bd 1a67 44bc 2b8b 7ebc be0d c63b
00000390: fba6 273d 655c a3bc 776e 4dbd d2dc cd3c
000003a0: f19b 63bd 16d5 1fbd 31d4 9d39 b8b4 163c
000003b0: 26c3 30bb 4a4c dfbc 434f c0bc 7130 2cbd
000003c0: 9ac3 bc3b fc91 a13a 22f3 babc 278f a13c
000003d0: 4214 18bc 1789 13bb a708 69bc dd5c eabb
000003e0: dc9c f2bc c665 15bd 0341 32bd 537e 85bc
000003f0: d8f1 ae3c ebbf 25bd cfc5 c13c 5cf0 02bd

conv2.lin_neigh.bias f4 [32]
-0.019805562 -0.012593778 0.02205005 -0.051051028 -0.0058617517 -0.04854011 -0.06510552 -0.044054702
-0.025955198 -0.035947245 0.0010702319 -0.053744737 -0.030195475 -0.011838788 -0.0022060038 -0.014359705
0.015689641 0.013705602 -0.0044178083 0.018449506 -0.00935959 -0.039380983 -0.046606276 0.023142584
-0.058412325 -0.024012506 -0.0058698845 -0.034393236 0.021810742 -0.0215819 -0.0030574577 -0.020731512
00000000: 463f a2bc 2256 4ebc 4ea2 b43c e21a 51bd
00000010: f013 c0bb ffd1 46bd 0b56 85bd b472 34bd
00000020: ff9f d4bc 6b3d 13bd 0647 8c3a 7123 5cbd
00000030: 805c f7bc 7af7 41bc 9a92 10bb f844 6bbc
00000040: 9087 803c 768d 603c 43c3 90bb 6b23 973c
00000050: f758 19bc f44d 21bd 39e6 3ebd 8495 bd3c
00000060: c341 6fbd e0b5 c4bc 2958 c0bb ecdf 0cbd
00000070: 71ac b23c 86cc b0bc a15f 48bb 22d5 a9bc

conv2.lin_self.weight f4 [32, 64]
0.0035401531 0.028025808 -0.06632294 0.095748626 -0.10414138 0.014269694 -0.019711735 -0.06657952
0.13049483 -0.09641701 0.06809007 0.029039785 -0.028681867 -0.1203778 -0.059618086 0.070700124
0.066803515 -0.09943127 -0.020119028 0.040082462 -0.119889975 -0.13007781 0.030914215 0.02138118
-0.039411046 -0.07214265 -0.08841713 0.08211443 0.07487027 0.03392814 -0.013763171 -0.04719874
-0.013319338 0.04630808 -0.08558982 0.006484041 -0.13165651 -0.08839806 -0.06610266 -0.065916516
-0.07524735 -0.015025255 0.060471814 -0.11278308 -0.06763615 0.043879554 0.076289035 -0.011028785
-0.055184044 -0.027556615 -0.11135373 0.002853746 0.074975714 -0.12856889 -0.1130165 0.09092974
0.12754518 0.14562038 -0.018054653 -0.113143004 0.021124804 0.09022658 -0.11600766 -0.09898627
-0.086853154 0.029591642 0.06949564 -0.11721939 -0.028935533 0.11129981 0.046297137 -0.057880722
-0.0913897 0.06955832 -0.10734779 0.012092911 -0.016510267 -0.013611543 0.10932107 -0.1215535
-0.09255567 -0.10850991 0.03975807 -0.087306164 -0.0067065977 -0.021809045 -0.059936922 0.08031779
-0.052658755 -0.10558213 -0.12053712 -0.108417995 0.094771065 -0.021346593 -0.011505389 0.08544797
0.1514959 -0.0042980774 -0.066220626 -0.067917176 0.004374248 0.073299594 0.07307758 0.02258659
-0.04990368 -0.06908733 -0.10453537 -0.13102585 -0.047505572 -0.11265989 -0.09866674 -0.13123126
-0.056533735 0.05037898 0.090206146 0.059389323 -0.04403363 -0.14610861 -0.05123149 -0.0056714187
-0.09141808 -0.08754804 -0.08600425 -0.094134875 0.06442235 -0.0901176 0.039778534 -0.0804561
-0.13195743 -0.0841795 0.08480427 -0.11959723 -0.084156275 -0.11919842 0.02840711 -0.059147924
-0.055200294 0.09291572 -0.026114786 0.007975916 0.014834731 0.11737386 0.010776905 -0.046283685
-0.0010208376 0.025707329 0.025971187 -0.04482251 0.016855938 0.017973427 0.0066584 0.026608637
0.07609183 0.043172423 -0.12034588 -0.06389496 -0.0048662913 -0.041337643 -0.008170606 -0.003000492
0.015092546 0.08717274 -0.1465547 0.049724825 0.044489823 -0.03820984 -0.019728895 -0.06881368
-0.12027366 -0.14444767 0.014714442 0.030589592 -0.07977801 0.081960276 -0.103466466 0.06774177
-0.09635234 -0.06978943 0.06721427 -0.11733043 -0.08317374 -0.03608593 -0.07940084 -0.10020898
-0.046666503 -0.015700523 -0.01757288 0.0015161259 -0.030235436 -0.07211002 -0.009801833 -0.073975205
-0.11997475 0.08641136 -0.13685529 -0.02589857 -0.05688366 -0.046285905 0.039789014 0.09808517
-0.09401759 -0.049383838 -0.117486216 0.03517945 0.037506685 0.11872386 0.05329433 -0.03887543
0.051566638 -0.103337206 0.04824186 -0.11674318 -0.056291204 -0.13730627 -0.053331938 0.040062614
0.044459816 0.09181001 -0.07910733 0.07242006 0.09367489 0.080721185 0.08894513 -0.01316295
0.07386002 0.050861623 0.07851862 -0.10163809 0.076060526 0.020370176 -0.022395123 0.07942216
0.07496864 -0.067141 -0.13774107 -0.02809636 0.07850629 -0.030632058 -0.07137893 -0.123611815
-0.08207101 -0.0130905425 0.12879048 -0.118755035 -0.0779573 0.022596344 0.06013971 -0.08444218
0.010205351 -0.12369414 0.09119346 -0.116032384 0.07531805 -0.06870942 -0.04503251 -0.0983978
00000000: ea01 683b 6196 e53c 52d4 87bd db17 c43d
00000010: 1348 d5bd 6fcb 693c 817a a1bc d85a 88bd
00000020: 70a0 053e 4876 c5bd ce72 8b3d d8e4 ed3c
00000030: 3cf6 eabc a388 f6bd 1832 74bd 3acb 903d
00000040: 48d0 883d 9fa2 cbbd a9d0 a4bc 822d 243d
00000050: e088 f5bd 1e33 05be cf3f fd3c 9627 af3c
00000060: 7a6d 21bd 87bf 93bd 0a14 b5bd 9c2b a83d
00000070: 9655 993d 3cf8 0a3d ec7e 61bc 7753 41bd
00000080: 5a39 5abc 8bad 3d3d b749 afbd 1478 d43b
00000090: f7d0 06be 0b0a b5bd d560 87bd 3dff 86bd
000000a0: 481b 9abd 7d2c 76bc 4bb1 773d d1fa e6bd
000000b0: d284 8abd 0cbb 333d 6d3d 9c3d 14b2 34bc
000000c0: aa08 62bd 69be e1bc 6d0d e4bd ea05 3b3b
000000d0: de8c 993d 90a7 03be 3275 e7bd 5f39 ba3d
000000e0: 349b 023e 821d 153e 5ae7 93bc 85b7 e7bd
000000f0: ed0d ad3c b7c8 b83d 6d95 edbd 50b9 cabd
00000100: 11e0 b1bd 2c6a f23c bb53 8e3d b810 f0bd
00000110: 360a edbc 28f1 e33d 11a2 3d3d 5614 6dbd
00000120: 862a bbbd 9874 8e3d 28d9 dbbd 5821 463c
00000130: 8a40 87bc f302 5fbc bae3 df3d 0bf1 f8bd
00000140: d48d bdbd 723a debd 5cd9 223d 93cd b2bd
00000150: 05c3 dbbb e2a8 b2bc 6b80 75bd a77d a43d
00000160: b5b0 57bd 723b d8bd 2adc f6bd 410a debd
00000170: 5517 c23d 0ddf aebc 1981 3cbc 58ff ae3d
00000180: be21 1b3e e3d6 8cbb ae9e 87bd 2918 8bbd
00000190: da55 8f3b 191e 963d b3a9 953d 8307 b93c
000001a0: cd67 4cbd a87d 8dbd a416 d6bd a42b 06be
000001b0: 3495 42bd 3aba e6bd ca11 cabd 7d61 06be
000001c0: eb8f 67bd 305a 4e3d 00be b83d 3842 733d
000001d0: 9c5c 34bd 7f9d 15be 1cd8 51bd 4fd7 b9bb
000001e0: 6739 bbbd 634c b3bd ff22 b0bd c9c9 c0bd
000001f0: ddef 833d 948f b8bd d1ee 223d 2bc6 a4bd
00000200: d91f 07be 4d66 acbd dcad ad3d 64ef f4bd
00000210: 205a acbd 4d1e f4bd 07b6 e83c 1845 72bd
00000220: b419 62bd 994a be3d adee d5bc 6bad 023c
00000230: 5f0d 733c b561 f03d 9e91 303c f693 3dbd
00000240: a0cd 85ba 2d98 d23c 87c1 d43c cf97 37bd
00000250: 7715 8a3c 023d 933c b52e da3b 5bfa d93c
00000260: 09d6 9b3d 91d5 303d e777 f6bd 5cdb 82bd
00000270: 6975 9fbb a951 29bd 01de 05bc e7a3 44bb
00000280: ba46 773c 9f87 b23d 6f12 16be 42ac 4b3d
00000290: f63a 363d ec81 1cbd 7e9e a1bc 30ee 8cbd
000002a0: 0952 f6bd 17ea 13be d814 713c 0697 fa3c
000002b0: a762 a3bd cada a73d 3ae6 d3bd 32bc 8a3d
000002c0: 6054 c5bd c3ed 8ebd a3a7 893d f04a f0bd
000002d0: fe56 aabd d7ce 13bd e89c a2bd 5e3a cdbd
000002e0: 6025 3fbd 629e 80bc 00f5 8fbc beb8 c63a
000002f0: 4eb0 f7bc 6bae 93bd de97 20bc 5080 97bd
00000300: 52b5 f5bd 70f8 b03d cb23 0cbe 3d29 d4bc
00000310: d7fe 68bd 4a96 3dbd cef9 223d e1e0 c83d
00000320: 4b8c c0bd b546 4abd 9d9c f0bd 5418 103d
00000330: 9ca0 193d 7f25 f33d 284b 5a3d d83b 1fbd
00000340: 8a37 533d 75a2 d3bd 4299 453d 0c17 efbd
00000350: 9b91 66bd 049a 0cbe 9772 5abd b218 243d
00000360: 7f1b 363d e306 bc3d 0603 a2bd f850 943d
00000370: 9fd8 bf3d 2651 a53d dd28 b63d 6aa9 57bc
00000380: ec43 973d 4754 503d 5fce a03d a227 d0bd
00000390: 9fc5 9b3d 5bdf a63c fa75 b7bc 16a8 a23d
000003a0: 2989 993d 3881 89bd ff0b 0dbe 562a e6bc
000003b0: e8c7 a03d 15f0 fabc 1e2f 92bd 3128 fdbd
000003c0: d814 a8bd b779 56bc a7e1 033e d735 f3bd
000003d0: 14a8 9fbd f81b b93c 0e55 763d 06f0 acbd
000003e0: 5834 273c 5a53 fdbd a3c3 ba3d 63a2 edbd
000003f0: 5a40 9a3d 86b7 8cbd 0274 38bd c984 c9bd

conv2.lin_self.bias f4 [32]
0.06825206 0.024464166 -0.050801765 0.02484402 0.05858533 0.062034033 -0.10492846 -0.13252999
0.029716749 -0.024013253 -0.07169079 -0.07559869 0.04303472 0.024554 0.055680197 -0.0693444
0.084337056 0.051472127 -0.061763205 -0.021192469 -0.13104852 0.0039290013 -0.13215026 -0.102906436
0.03080999 0.007278241 -0.07928772 0.0068440177 0.008488528 -0.104127176 -0.13746527 0.08271908
00000000: bcc7 8b3d 1369 c83c 8315 50bd b085 cb3c
00000010: 2cf7 6f3d 6617 7e3d bce4 d6bd f1b5 07be
00000020: 8a70 f33c 71b7 c4bc 9fd2 92bd 7cd3 9abd
00000030: 2d45 303d 7825 c93c eb10 643d 7004 8ebd
00000040: e8b8 ac3d 70d4 523d 6afb 7cbd d49b adbc
00000050: 9531 06be dabe 803b 6652 07be 9cc0 d2bd
00000060: 3b65 fc3c 507e ee3b 9a61 a2bd c843 e03b
00000070: 7813 0b3c a140 d5bd b2c3 0cbe 9f68 a93d

bn1.weight f4 [64]
0.9957251 1.0144956 0.9836191 0.97714573 1.0019414 0.99386877 1.0217034 1.0062647
0.99621695 1.0029414 0.9805582 1.0145127 0.9812716 1.0211756 0.9802806 0.9803523
1.025122 1.0007855 1.0123171 0.9784383 1.0299671 0.98103935 0.9875604 1.0002811
1.0075865 1.0102651 1.0193534 0.9795623 0.97931004 0.99418503 0.9810276 0.9810555
1.0100807 1.0109242 0.99647146 0.98317033 0.9759574 1.0116212 1.0133687 0.97868085
1.0133256 0.97607106 1.0167562 1.0344062 1.0186946 1.0168017 0.9862863 0.99110043
0.99901557 0.99199814 1.0251732 0.98407704 0.99021995 0.9936445 0.97256184 1.0097383
1.0241323 0.9917978 1.000625 0.9771252 0.99138266 0.9882015 0.9864591 1.0133244
00000000: d7e7 7e3f feda 813f 76ce 7b3f 3926 7a3f
00000010: 9e3f 803f 2f6e 7e3f 2dc7 823f 48cd 803f
00000020: 1308 7f3f 6260 803f dd05 7b3f 8ddb 813f
00000030: 9e34 7b3f e2b5 823f abf3 7a3f 5ef8 7a3f
00000040: 3337 833f bd19 803f 9b93 813f ef7a 7a3f
00000050: f6d5 833f 6525 7b3f c2d0 7c3f 3609 803f
00000060: 98f8 803f 5e50 813f 2c7a 823f 98c4 7a3f
00000070: 10b4 7a3f e982 7e3f a024 7b3f 7426 7b3f
00000080: 534a 813f f765 813f c118 7f3f 0db1 7b3f
00000090: 58d8 793f ce7c 813f 11b6 813f d48a 7a3f
000000a0: a7b4 813f cbdf 793f 1125 823f 6c67 843f
000000b0: 9664 823f 8f26 823f 427d 7c3f c2b8 7d3f
000000c0: 7cbf 7f3f 97f3 7d3f e038 833f 79ec 7b3f
000000d0: 0e7f 7d3f 7c5f 7e3f d0f9 783f 1b3f 813f
000000e0: c416 833f 76e6 7d3f 7b14 803f e124 7a3f
000000f0: 41cb 7d3f c6fa 7c3f 9588 7c3f 9db4 813f

bn1.bias f4 [64]
0.0026350976 -0.005962023 -0.00026877565 -0.021104198 0.026017 -0.013899911 0.010268264 0.0075615193
0.018967835 -0.010169608 -0.015902752 -0.010542611 -0.01016706 0.0009501646 -0.01597867 -0.014980759
0.020411592 -0.011459553 -0.0026135708 -0.021407895 0.008062954 -0.010737536 0.0010747128 -0.013786769
0.00012561206 0.016142707 0.01640696 -0.02036381 -0.019870657 -0.010428321 -0.015854623 -0.019796602
0.0011665733 -0.018787432 0.02334792 -0.025889173 -0.02200088 -0.0031545397 0.022309445 -0.024347449
0.0034806754 -0.02728912 0.025777968 0.03392466 0.023441548 -0.014376429 0.013777351 0.0015518788
0.023227913 0.01240665 0.019975735 -0.015991546 0.004132376 0.00663054 -0.006863509 0.019705582
0.01763084 -0.010365843 -0.01099821 -0.013953365 -0.017505683 0.0051485635 -0.014164324 -0.00014936292
00000000: 9ab1 2c3b 135d c3bb 75ea 8cb9 b6e2 acbc
00000010: 9b21 d53c 74bc 63bc 393c 283c 9fc6 f73b
00000020: 6f62 9b3c 6d9e 26bc 7d46 82bc eaba 2cbc
00000030: be93 26bc 7814 793a b3e5 82bc db71 75bc
00000040: 3636 a73c d9c0 3bbc 7148 2bbb 9c5f afbc
00000050: 7b1a 043c 7dec 2fbc 61dd 8c3a e6e1 61bc
00000060: bbb6 0339 b63d 843c e467 863c 01d2 a6bc
00000070: cac7 a2bc 8cdb 2abc 8ee1 81bc 7c2c a2bc
00000080: b4e7 983a 1ae8 99bc 2344 bf3c 8815 d4bc
00000090: 313b b4bc 65bc 4ebb 4cc2 b63c 4d74 c7bc
000000a0: 0b1c 643b 6f8d dfbc 512c d33c 96f4 0a3d
000000b0: 7d08 c03c 1d8b 6bbc 66ba 613c 6968 cb3a
000000c0: 7748 be3c 4345 4b3c 27a4 a33c b400 83bc
000000d0: e268 873b 0045 d93b 49e7 e0bb 9a6d a13c
000000e0: 8d6e 903c 7fd5 29bc d631 34bc a89c 64bc
000000f0: 1468 8fbc 48b5 a83b 7b11 68bc 4e9e 1cb9

bn1.running_mean f4 [64]
0.061578453 0.00042292805 0.09704474 0.12589018 0.06511988 0.006241835 0.00046289916 0.006101181
0.049829543 0.0028392621 0.07563844 0.0043874094 0.098758735 0.005769176 0.07735739 0.00015755325
0.003046479 0.0067303637 0.0005158513 0.11660316 0.00018277382 0.09099325 0.102670476 0.04297248
0.00444553 0.054371744 0.005134468 0.13994448 0.1736569 0.004449735 0.063983224 0.06430288
8.4893036e-05 0.0043679164 0.08718061 0.08180777 0.11206763 0.00070605817 0.064413644 0.011383902
0.05957912 0.10803746 0.056417193 0.044439998 0.074813955 0.002822759 0.076418966 0.08114881
0.068429254 0.062266786 0.002197278 0.088931546 0.06380907 0.0580498 0.096938506 0.07516854
0.030242126 0.002247529 0.00025199278 0.10968472 0.008101212 0.09566994 0.0011031324 0.0007826683
00000000: b039 7c3d 71bc dd39 65bf c63d 5be9 003e
00000010: 925d 853d 4f88 cc3b 46b1 f239 6aec c73b
00000020: 101a 4c3d ea12 3a3b 54e8 9a3d 42c4 8f3b
00000030: 0542 ca3d 5b0b bd3b 8d6d 9e3d e134 2539
00000040: 70a7 473b 628a dc3b 323a 073a a3cd ee3d
00000050: f9a6 3f39 ab5a ba3d e644 d23d e903 303d
00000060: cfab 913b e8b4 5e3d 0a3f a83b 9b4d 0f3e
00000070: 1dd3 313e 15cf 913b a309 833d 3ab1 833d
00000080: 9a08 b238 bd20 8f3b bf8b b23d d58a a73d
00000090: b783 e53d c316 393a 4deb 833d 8c83 3a3c
000000a0: 3c09 743d be42 dd3d b715 673d b706 363d
000000b0: 0f38 993d 0afe 383b 8c81 9c3d 5931 a63d
000000c0: a324 8c3d 750b 7f3d 3500 103b be21 b63d
000000d0: 54ae 823d a1c5 6d3d b287 c63d f7f1 993d
000000e0: 56be f73c 484b 133b e61d 8439 62a2 e03d
000000f0: f2ba 043c 9aee c33d fb96 903a fb2b 4d3a

bn1.running_var f4 [64]
0.016052729 0.0133443875 0.020961804 0.019881729 0.015718361 0.0151130445 0.013345551 0.0149499355
0.016224504 0.013603869 0.017045451 0.014119754 0.018492514 0.015691197 0.016464747 0.013313214
0.014135037 0.014638343 0.013347138 0.019792266 0.013363479 0.018695615 0.018931154 0.019439302
0.014208892 0.018046305 0.014522975 0.021026304 0.023408232 0.014564805 0.019177336 0.016103867
0.013311407 0.014626738 0.01609983 0.015890403 0.017180933 0.0134610655 0.015569031 0.016174315
0.01823407 0.01866742 0.016307885 0.01702425 0.017361708 0.013711974 0.019309605 0.018041732
0.01625845 0.016867477 0.013692109 0.017062549 0.016222386 0.017017178 0.018722547 0.016769158
0.018758867 0.013492211 0.01332833 0.01932192 0.015748193 0.01850528 0.013396155 0.01347971
00000000: 0381 833c 6ba2 5a3c 17b8 ab3c 02df a23c
00000010: cbc3 803c b49c 773c 4ca7 5a3c 93f0 743c
00000020: 40e9 843c c3e2 5e3c e7a2 8b3c 8a56 673c
00000030: 9d7d 973c d38a 803c 14e1 863c ab1f 5a3c
00000040: a496 673c a9d5 6f3c f4ad 5a3c 6423 a23c
00000050: 7ef2 5a3c 8c27 993c 8215 9b3c 2c3f 9f3c
00000060: 6acc 683c d8d5 933c c6f1 6d3c 5b3f ac3c
00000070: 9fc2 bf3c 38a1 6e3c ca19 9d3c 42ec 833c
00000080: 1618 5a3c fca4 6f3c cae3 833c 972c 823c
00000090: 07bf 8c3c cd8b 5c3c 4015 7f3c ff7f 843c
000000a0: 9e5f 953c 6bec 983c 1d98 853c 7176 8b3c
000000b0: 243a 8e3c 30a8 603c 2d2f 9e3c 41cc 933c
000000c0: 7130 853c aa2d 8a3c de54 603c c2c6 8b3c
000000d0: cfe4 843c 9c67 8b3c 0760 993c 795f 893c
000000e0: 32ac 993c 6f0e 5d3c 115f 5a3c 0149 9e3c
000000f0: 5b02 813c 6398 973c 8c7b 5b3c 00da 5c3c

bn2.weight f4 [32]
0.96428436 0.9727084 0.9702099 0.9701456 0.9717651 0.97012246 0.9793223 0.95674455
0.96273 0.9699077 0.9702934 0.9758346 0.9686785 0.97025436 0.9657015 0.9681615
0.9661837 0.9706397 0.970839 0.97653097 0.97463644 0.9623991 0.9666153 0.9704903
0.96736103 0.9659386 0.9720834 0.9774403 0.976885 0.97096264 0.9687249 0.96375513
00000000: 57db 763f 6b03 793f ad5f 783f 765b 783f
00000010: 99c5 783f f259 783f deb4 7a3f 36ed 743f
00000020: 7975 763f df4b 783f 2665 783f 4cd0 793f
00000030: 50fb 773f 9762 783f 3738 773f 6fd9 773f
00000040: d157 773f d87b 783f e888 783f effd 793f
00000050: c681 793f ca5f 763f 1a74 773f 0d72 783f
00000060: f9a4 773f c147 773f 75da 783f 8739 7a3f
00000070: 2315 7a3f 0291 783f 5bfe 773f a8b8 763f

bn2.bias f4 [32]
-0.02921879 -0.031186784 -0.020840263 -0.022914914 -0.026624639 -0.025256015 -0.018769478 -0.040728517
-0.03293953 -0.026643451 -0.02299608 -0.021868128 -0.03361865 -0.031012367 -0.026691988 -0.025122333
-0.03177091 -0.02759432 -0.02163243 -0.021463292 -0.02047238 -0.031505566 -0.023050422 -0.021527752
-0.025693692 -0.024800884 -0.022232197 -0.026506873 -0.027730742 -0.022778865 -0.021906769 -0.033994608
00000000: 3e5c efbc 6d7b ffbc 33b9 aabc 0fb8 bbbc
00000010: ea1b dabc b4e5 cebc 73c2 99bc f2d2 26bd
00000020: 9aeb 06bd 5e43 dabc 4662 bcbc ca24 b3bc
00000030: b6b3 09bd a60d febc 28a9 dabc 5acd cdbc
00000040: 3722 02bd 7c0d e2bc 7e36 b1bc c9d3 afbc
00000050: b1b5 a7bc fb0b 01bd 3dd4 bcbc f85a b0bc
00000060: 947b d2bc 392b cbbc 4c20 b6bc f124 d9bc
00000070: 952b e3bc be9a babc d375 b3bc ee3d 0bbd

bn2.running_mean f4 [32]
0.11539826 0.005464821 0.02988727 0.06986151 0.08361739 0.109591946 0.0031916949 0.08569503
0.052110586 0.014075516 0.067661144 0.018953545 0.02168123 0.031614445 0.16153379 0.014329789
0.05786534 0.023626909 0.0125862975 0.009099178 0.0025499428 0.13068071 0.023547608 0.01924775
0.0793188 0.104019016 0.039575126 0.0050889775 0.004308238 0.0145366425 0.015987046 0.055971332
00000000: ec55 ec3d 3e12 b33b 26d6 f43c 8d13 8f3d
00000010: 983f ab3d be71 e03d c12b 513b e080 af3d
00000020: e971 553d fe9c 663c ed91 8a3d 7744 9b3c
00000030: d69c b13c 267e 013d 1d69 253e 7ec7 6a3c
00000040: 3504 6d3d 388d c13c c236 4e3c b814 153c
00000050: f11c 273b 2ad1 053e eae6 c03c 75ad 9d3c
00000060: e571 a23d ec07 d53d 8719 223d 70c1 a63b
00000070: 1f2c 8d3b 192b 6e3c 44f7 823c 3242 653d

bn2.running_var f4 [32]
0.27791747 0.022017822 0.10126491 0.42587999 0.38537717 0.6549803 0.017609386 0.11399417
0.0626244 0.035928063 0.3811919 0.07517192 0.05837182 0.07603651 0.7609751 0.034262434
0.10390642 0.06846727 0.026288077 0.035036974 0.016179979 0.18276443 0.06533103 0.052214593
0.28033742 0.43870658 0.11196997 0.026199017 0.022071674 0.046845134 0.041870736 0.09536012
00000000: 334b 8e3e b85e b43c fa63 cf3d f10c da3e
00000010: 2850 c53e caac 273f 8f41 903c c775 e93d
00000020: 3941 803d 4e29 133d 962b c33e bcf3 993d
00000030: 4a17 6f3d 08b9 9b3d 44cf 423f c456 0c3d
00000040: e4cc d43d 9138 8c3d 185a d73c ee82 0f3d
00000050: e08b 843c 9926 3b3e 46cc 853d f8de 553d
00000060: 6388 8f3e 269e e03e 8350 e53d 529f d63c
00000070: a8cf b43c afe0 3f3d a680 2b3d 2b4c c33d
