saved_weights/29-08-36-40.pth (torch, 435896 bytes, 16 tensors)

conv1.lin_neigh.weight f4 [64, 769]
0.04847508 -0.034323633 -0.11072775 0.078859046 0.014048199 0.04896887 0.043053847 -0.07554867
0.026496926 -0.049245816 -0.047310866 0.05072572 0.036470488 0.088803366 0.04822308 0.036143396
0.058767892 0.03694664 0.034213603 0.015540789 -0.06093065 0.008491505 -0.07665408 0.038535997
-0.10723084 -0.016930657 -0.060091194 -0.052565694 -0.046599437 0.041379545 0.068393104 -0.045410417
0.09445891 0.065393604 0.06800483 -0.038808607 0.011770506 -0.01063669 -0.041531492 -0.11023825
0.0065531936 -0.05240057 -0.061690956 0.008506711 -0.020378493 0.046356294 0.0390694 -0.053506576
0.029509762 -0.094085254 -0.06916958 -0.02195887 -0.0009355266 -0.0025679322 0.05282535 0.012921444
-0.040573124 0.051895432 -0.0020101685 0.038720973 -0.004689508 0.02878482 -0.008700607 -0.013698468
-0.008583174 0.00033578562 0.048136365 0.041719846 0.06251888 0.025622414 0.03228841 -0.035787378
0.045564946 0.04273102 0.06123185 -0.10480796 -0.014356761 -0.073740534 -0.01122484 0.03096294
-0.057862375 0.024618179 0.029049592 0.050798725 -0.041732304 0.03474796 -0.04485765 -0.029205943
0.020025738 0.0056284005 0.029716752 -0.054343637 0.08274574 0.034644473 0.023615813 -0.073192105
-0.026205733 -0.008442861 -0.057038493 -0.086298175 -0.14586951 0.060449753 -0.07273186 -0.07814263
-0.07185226 0.04751569 -0.012506563 -0.017263975 0.0146610625 0.027619306 0.04396171 -0.06424768
0.059890546 -0.03426301 -0.0048879646 -0.08777563 -0.010855648 -0.082035914 0.11498227 0.0355461
0.023988657 -0.011035688 0.013343958 -0.04226373 -0.11098411 0.02100714 0.013987907 0.042723075
-2.393484e-05 0.007873157 0.06517655 -0.074782915 -0.04021393 0.041822866 -0.03982903 0.012609945
-0.007080857 -0.0268295 0.009658743 -0.03766584 -0.022854662 -0.08763197 0.094683446 0.035719175
0.0017776011 0.012764684 -0.014015121 0.04901599 -0.054661762 -0.0028082086 -0.08129501 0.03850309
-0.02227045 0.124046594 0.09396857 -0.032888252 0.013695791 0.06439766 -0.002777882 -0.055674445
-0.044702675 0.0592325 -0.040134396 -0.028439766 -0.009572805 -0.016669739 0.0008595575 -0.06372834
0.06458738 0.06625477 0.0017365863 -0.029642062 -0.023296393 0.02449375 -0.07000851 -0.056725234
-0.006914909 0.024361676 0.044709638 0.025654156 0.11144746 0.0056733415 -0.05776335 0.030549282
-0.046013005 0.04199962 -0.021448936 0.03466514 -0.010682768 -0.009983613 -0.07970112 -0.08233081
-0.0032208909 0.018010048 -0.010487056 0.025226299 0.011860142 -0.04666782 0.030113801 0.014431578
-0.024842614 0.04283685 0.0012710638 -0.10347433 -0.043296598 -0.04296046 -0.0039133253 -0.019594692
0.04494144 -0.07251327 0.11642426 -0.0154286 0.004446073 -0.052013718 -0.0012815197 0.11293115
0.03594738 -0.020628186 0.021913122 -0.04145663 0.0011102683 0.016321843 -0.008921921 0.026641108
-0.00022705135 -0.06223865 0.014386401 0.030396054 -0.035641257 -0.020870212 -0.064103805 0.06476344
-0.037297666 0.06958017 -0.028151792 -0.05660637 -0.07111527 0.019642143 -0.023986055 -0.058517303
-0.059933666 -0.075932086 -0.07031687 0.0058838786 -0.036617532 -0.095131226 0.024098806 -0.01654097
0.033624396 0.049459286 0.028073011 -0.073206104 -0.016694963 0.0877768 -0.004636817 -0.058290467
00000000: ce8d 463d f096 0cbd 3bc5 e2bd da80 a13d
00000010: 6b2a 663c 9593 483d 3b59 303d 43b9 9abd
00000020: 1510 d93c fbb5 49bd 0ac9 41bd c6c5 4f3d
00000030: 1462 153d 8ade b53d 9085 453d 190b 143d
00000040: 9ab6 703d 5c55 173d 9023 0c3d cb9e 7e3c
00000050: 6b92 79bd f41f 0b3c d0fc 9cbd ecd7 1d3d
00000060: d89b dbbd 29b2 8abc 2f22 76bd 204f 57bd
00000070: 0ddf 3ebd 997d 293d af11 8c3d 4600 3abd
00000080: ac73 c13d 15ed 853d 1e46 8b3d c6f5 1ebd
00000090: 15d9 403c 8345 2ebc ed1c 2abd 97c4 e1bd
000000a0: 2cbc d63b fba1 56bd a8af 7cbd bb5f 0b3c
000000b0: ccf0 a6bc 19e0 3d3d 3c07 203d b629 5bbd
000000c0: 75be f13c c5af c0bd c8a8 8dbd 17e3 b3bc
000000d0: 213e 75ba c14a 28bb 655f 583d 77b4 533c
000000e0: 0130 26bd 4e90 543d 08bd 03bb e299 1e3d
000000f0: 72aa 99bb 25ce eb3c fe8c 0ebc 8a6f 60bc
00000100: 71a0 0cbc 620c b039 a32a 453d 6ee2 2a3d
00000110: e609 803d 19e6 d13c da40 043d c995 12bd
00000120: 4fa2 3a3d b906 2f3d 40ce 7a3d 8ea5 d6bd
00000130: 9f38 6bbc 4705 97bd 64e8 37bc fea5 fd3c
00000140: 1901 6dbd 10ac c93c 69f9 ed3c 5312 503d
00000150: 7eef 2abd e053 0e3d a8bc 37bd 4d41 efbc
00000160: 040d a43c 726e b83b 8c70 f33c 6f97 5ebd
00000170: 9976 a93d 5de7 0d3d f375 c13c bee5 95bd
00000180: 68ad d6bc ed53 0abc 32a1 69bd 19bd b0bd
00000190: d15e 15be 299a 773d 71f4 94bd 3e09 a0bd
000001a0: 4727 93bd d09f 423d 54e8 4cbc 2e6d 8dbc
000001b0: f434 703c e241 e23c 3211 343d 4a94 83bd
000001c0: ca4f 753d 5f57 0cbd 382b a0bb b6c3 b3bd
000001d0: e3db 31bc 7202 a8bd d37b eb3d ca98 113d
000001e0: dc83 c43c 08cf 34bc 9ea0 5a3c bc1c 2dbd
000001f0: a34b e3bd 2a17 ac3c 892d 653c 64fe 2e3d
00000200: adc7 c8b7 6afe 003c 487b 853d c927 99bd
00000210: 5db7 24bd 744e 2b3d c423 23bd f199 4e3c
00000220: 8906 e8bb 8ac9 dbbc b43f 1e3c 7f47 1abd
00000230: b339 bbbc 6478 b3bd 65e9 c13d 454e 123d
00000240: 65fe e83a f722 513c ae9f 65bc fec4 483d
00000250: 03e5 5fbd ec09 38bb 007e a6bd 6bb5 1d3d
00000260: 8570 b6bc 240c fe3d 9872 c03d d5b5 06bd
00000270: 5064 603c ece2 833d 200d 36bb e30a 64bd
00000280: 271a 37bd c79d 723d f763 24bd 83fa e8bc
00000290: 41d7 1cbc fa8e 88bc ed53 613a 0184 82bd
000002a0: 6346 843d 95b0 873d 2b9e e33a e9d3 f2bc
000002b0: 14d8 bebc 1ea7 c83c 9f60 8fbd b858 68bd
000002c0: 7696 e2bb 2392 c73c 7421 373d aa28 d23c
000002d0: 913e e43d 70e7 b93b 4399 6cbd 7d42 fa3c
000002e0: 2278 3cbd cb07 2c3d aeb5 afbc 09fd 0d3d
000002f0: c706 2fbc 4f92 23bc 573a a3bd 0e9d a8bd
00000300: 9515 53bb cf89 933c e7d1 2bbc 62a7 ce3c
00000310: 0b51 423c c226 3fbd 38b1 f63c 6d72 6c3c
00000320: bd82 cbbc b175 2f3d d399 a63a 59ea d3bd
00000330: c657 31bd 4ff7 2fbd 5a3b 80bb 0c85 a0bc
00000340: 8414 383d d681 94bd d86f ee3d 3dc8 7cbc
00000350: 5db0 913b 560c 55bd aaf8 a7ba 7248 e73d
00000360: 8f3d 133d 71fc a8bc 2683 b33c 6dce 29bd
00000370: 6c86 913a 63b5 853c 402d 12bc 743e da3c
00000380: a214 6eb9 f4ed 7ebd f0b4 6b3c 2501 f93c
00000390: 91fc 11bd 02f8 aabc db48 83bd b2a2 843d
000003a0: 70c5 18bd 0c80 8e3d 969e e6bc 15dc 67bd
000003b0: e2a4 91bd 8fe8 a03c 677e c4bc d7af 6fbd
000003c0: 017d 75bd 4882 9bbd 4b02 90bd 8dcd c03b
000003d0: 44fc 15bd 29d4 c2bd dc6a c53c ee80 87bc
000003e0: bcb9 093d d295 4a3d 5ff9 e53c 15ed 95bd
000003f0: e0c3 88bc 53c4 b33d 71f0 97bb fcc1 6ebd

conv1.lin_neigh.bias f4 [64]
0.026437948 -0.04374034 0.014285302 0.016929949 0.04165201 0.012336908 0.09238353 0.083151035
-0.024259802 0.049211983 0.03780087 0.03357787 0.08734199 0.019019594 -0.009040952 -0.007838589
0.053286612 0.010094076 -0.051991545 -0.028563822 0.06730158 0.049353756 0.11454445 0.04491671
0.07963199 0.05715015 0.04660426 0.017469328 -0.03213774 -0.053100508 0.007223772 0.0132137975
-0.044968933 0.020017656 0.07398014 0.11111788 0.034214597 0.032602377 0.059984 0.048697505
0.011018784 0.015358729 0.046445325 -0.011598458 -0.13366914 -0.004527412 0.03984948 -0.07763503
0.036837157 0.0370543 0.078102574 -0.07431679 0.055783357 0.0074608997 0.035957485 -0.053772725
0.011240823 -0.08439342 0.07416357 0.021749038 0.018204313 0.123407505 0.017171107 0.020580947
00000000: 6594 d83c 1229 33bd e60c 6a3c adb0 8a3c
00000010: 4c9b 2a3d be20 4a3c 9433 bd3d 174b aa3d
00000020: 7ebc c6bc 8192 493d 16d5 1a3d f388 093d
00000030: 5be0 b23d fbce 9b3c 8020 14bc 6d6d 00bc
00000040: 1043 5a3d a061 253c 16f5 54bd adfe e9bc
00000050: 69d5 893d 2a27 4a3d 4896 ea3d 96fa 373d
00000060: 1916 a33d 4716 6a3d 1ce4 3e3d d61b 8f3c
00000070: dda2 03bd eb7f 59bd 64b5 ec3b af7e 583c
00000080: 5831 38bd 11fc a33c e682 973d c591 e33d
00000090: 9b24 0c3d 128a 053d c8b1 753d 0977 473d
000000a0: 2188 343c 2ea3 7b3c 743d 3e3d 7507 3ebc
000000b0: 90e0 08be af5a 94bb 3539 233d 1dff 9ebd
000000c0: 8fe2 163d 40c6 173d 3ef4 9f3d 6733 98bd
000000d0: 177d 643d 907a f43b 2848 133d ca40 5cbd
000000e0: 6e2b 383c 75d6 acbd 12e3 973d 0a2b b23c
000000f0: 3621 953c 13bd fc3d 6caa 8c3c 6099 a83c

conv1.lin_self.weight f4 [64, 385]
0.09977812 -0.01629268 -0.04933124 -0.016666785 -0.011808896 0.009287598 0.030606985 -0.05728321
0.033075474 0.02416232 -0.06755067 -0.015039359 0.10880034 0.14081503 -0.01649714 0.0020963165
-0.040433075 0.03555218 0.068572015 0.03701907 -0.0781085 -0.022171197 0.051146712 0.058560453
-0.06556245 -0.11006056 -0.087581985 -0.11945317 -0.029412108 0.076795675 -0.0016441374 -0.020785129
0.050713263 -0.028800307 0.024683883 -0.0599241 0.05132265 -0.078702204 0.0111651495 0.0048410348
0.05990144 0.03702408 -0.068066575 -0.082817286 -0.14710678 0.072518155 0.0741871 -0.10327191
0.014076714 -0.08205568 -0.0458832 -0.024175955 0.028435092 -0.004637209 0.11309441 0.1292356
-0.10338452 0.035194904 -0.020830285 -0.041809395 -0.057650223 0.089196414 0.0021687618 -0.02930776
-0.06164593 0.00039713143 0.029903993 0.10700179 0.04739085 -0.04963655 0.007732807 -0.07966034
-0.027653882 0.011622147 0.09538258 -0.08927701 -0.011287242 -0.10266622 0.0031869109 -0.04023843
-0.0835853 0.052525014 0.040944055 0.13460603 -0.013745355 -0.022090318 -0.050353523 0.07979338
0.10189415 0.0023438383 0.08429447 0.029602489 0.11128039 -0.011634998 0.026953623 -0.10391254
-0.07747119 -0.048162043 -0.07808589 -0.07748338 -0.06738156 0.022185914 -0.047238205 -0.10541428
-0.07565624 0.019800255 0.011389975 -0.025376212 -0.02988604 0.0019803522 0.11326549 -0.11361161
0.018019885 -0.08708396 -0.1005337 -0.0380199 -0.039489303 -0.047865283 0.063717425 0.013624164
-0.09678786 0.028628623 -0.065170914 0.06612397 -0.05396533 0.11786583 -0.013398548 0.007366763
-2.8701454e-05 -0.040055525 0.011904928 -0.03047918 -0.018403549 0.065334804 -0.08506759 -0.04579786
0.020308355 -0.0023325412 -0.057751093 -0.0025236814 0.016638337 -0.018480448 0.028787585 -0.08231825
-0.04901192 0.1310774 -0.08321366 0.08353751 -0.073423944 -0.12530547 -0.098471254 0.06484129
-0.06566005 0.15114868 0.06494031 0.03963123 0.08689766 -0.022234077 0.009132052 -0.024700407
-0.080851786 0.11841221 -0.07773886 0.029865786 -0.019573243 0.074042775 0.06605266 -0.04050612
0.023138667 -0.026938146 0.006314684 -0.022105575 0.003446826 0.045750324 0.007342572 -0.042042837
0.051598497 0.027126964 0.10038051 0.08626445 0.048212323 -0.12896495 -0.043575313 -0.017849844
0.00996237 -0.10932839 -0.034249898 -0.012272381 -0.04735215 -0.011196536 -0.168753 -0.060282566
0.041514844 -0.026785903 -0.05526758 0.0058461027 0.05385857 0.04782771 0.04536098 0.0078108227
-0.011861518 0.008825322 0.07827787 -0.09937005 0.037379958 -0.039944224 -0.052359138 -0.06041736
0.13581274 -0.027540036 0.115114525 -0.035073403 -0.0460306 -0.07047507 -0.04811653 0.058195006
-0.017789643 -0.015498041 -0.014239226 0.04720362 0.06848888 0.03130079 -0.06750928 0.01733761
-0.00027337717 -0.04727935 -0.011893675 -0.0918872 0.05075295 -0.02187988 -0.027481318 0.01171717
-0.014527023 0.09067189 -0.017024307 0.026457423 -0.08963024 0.06571184 -0.06987361 -0.10821466
-0.05189029 -0.13870694 -0.030774662 -0.028444372 -0.022030532 0.013021302 0.022525033 -0.04968748
-0.021707898 -0.0018074036 0.060926482 -0.12520586 0.03511006 0.037157442 -0.0360746 -0.04610765
00000000: 7958 cc3d 3a78 85bc 8e0f 4abd c888 88bc
00000010: 1a7a 41bc 022b 183c 80bb fa3c cda1 6abd
00000020: 267a 073d 0ff0 c53c 0158 8abd a567 76bc
00000030: b6d2 de3d d131 103e 0325 87bc 5b62 093b
00000040: 279d 25bd 2a9f 113d 7c6f 8c3d 4fa1 173d
00000050: 59f7 9fbd 5fa0 b5bc 377f 513d 16dd 6f3d
00000060: 9b45 86bd 6e67 e1bd 2f5e b3bd dda3 f4bd
00000070: a9f1 f0bc 0d47 9d3d 1980 d7ba 9345 aabc
00000080: b6b8 4f3d 9fee ebbc db35 ca3c f972 75bd
00000090: b337 523d 9f2e a1bd 08ee 363c 8ba1 9e3b
000000a0: 365b 753d 90a6 173d 7d66 8bbd 1c9c a9bd
000000b0: 29a3 16be 6684 943d 68ef 973d 3980 d3bd
000000c0: 05a2 663c cf0c a8bd 06f0 3bbd a70c c6bc
000000d0: b6f0 e83c baf3 97bb 0b9e e73d 5656 043e
000000e0: 43bb d3bd 8828 103d 46a4 aabc 5440 2bbd
000000f0: a422 6cbd 9cac b63d c921 0e3b d416 f0bc
00000100: 7180 7cbd 1436 d039 38f9 f43c c123 db3d
00000110: e81c 423d b24f 4bbd 7d63 fd3b f624 a3bd
00000120: 658a e2bc d16a 3e3c f157 c33d ddd6 b6bd
00000130: 20ee 38bc ab42 d2bd 7edb 503b 0dd1 24bd
00000140: c52e abbd 7824 573d f4b4 273d 2ad6 093e
00000150: 3334 61bc c1f6 b4bc 7f3f 4ebd b66a a33d
00000160: e1ad d03d 159b 193b 94a2 ac3d eb80 f23c
00000170: f9e6 e33d b8a0 3ebc d8cd dc3c 19d0 d4bd
00000180: 37a9 9ebd 9045 45bd 7feb 9fbd 9baf 9ebd
00000190: 58ff 89bd 3cbf b53c d97c 41bd 71e3 d7bd
000001a0: a9f1 9abd 2534 a23c 059d 3a3c c6e1 cfbc
000001b0: 92d3 f4bc ccc8 013b bdf7 e73d 34ad e8bd
000001c0: 709e 933c 1359 b2bd 9de4 cdbd c1ba 1bbd
000001d0: 89bf 21bd 630e 44bd 487e 823d e337 5f3c
000001e0: b738 c6bd 9386 ea3c 5478 85bd 016c 873d
000001f0: c00a 5dbd a463 f13d 9585 5bbc e364 f13b
00000200: e7c3 f0b7 4311 24bd e30c 433c 79af f9bc
00000210: 0ac3 96bc 41ce 853d eb37 aebd 8996 3bbd
00000220: b55d a63c 8cdd 18bb 698c 6cbd 5964 25bb
00000230: 1f4d 883c 4f64 97bc f1d3 eb3c 7896 a8bd
00000240: b9c0 48bd 2739 063e ec6b aabd b715 ab3d
00000250: 4b5f 96bd 1450 00be 4cab c9bd 83cb 843d
00000260: c778 86bd b8c6 1a3e 6dff 843d 5b54 223d
00000270: 66f7 b13d 3d24 b6bc 9a9e 153c 8258 cabc
00000280: 9f95 a5bd 1a82 f23d 8d35 9fbd 18a9 f43c
00000290: 1158 a0bc bda3 973d 9e46 873d bfe9 25bd
000002a0: 4d8d bd3c 63ad dcbc 69eb ce3b c016 b5bc
000002b0: 25e4 613b b164 3b3d f599 f03b 1c35 2cbd
000002c0: f258 533d 5e39 de3c 4c94 cd3d 6aab b03d
000002d0: 497a 453d 630f 04be 077c 32bd d639 92bc
000002e0: 3539 233c 90e7 dfbd 9f49 0cbd 1912 49bc
000002f0: 54f4 41bd ad71 37bc 96cd 2cbe daea 76bd
00000300: 780b 2a3d 1c6e dbbc 4260 62bd aa90 bf3b
00000310: ce9a 5c3d fde6 433d 6fcc 393d eef1 ff3b
00000320: d056 42bc 1598 103c 2650 a03d 8682 cbbd
00000330: ba1b 193d 8e9c 23bd 8976 56bd 3278 77bd
00000340: 7f12 0b3e a49b e1bc 2ac1 eb3d 21a9 0fbd
00000350: 958a 3cbd 3c55 90bd d715 45bd e35d 6e3d
00000360: 96bb 91bc 7feb 7dbc a44b 69bc 9558 413d
00000370: e643 8c3d 4235 003d 4e42 8abd 9a07 8e3c
00000380: 1054 8fb9 fea7 41bd b0dd 42bc 5b2f bcbd
00000390: 53e2 4f3d 6f3d b3bc 8020 e1bc 5ff9 3f3c
000003a0: c002 6ebc 2fb2 b93d 8f76 8bbc 3dbd d83c
000003b0: 0f90 b7bd ee93 863d e519 8fbd a69f ddbd
000003c0: ea8a 54bd 3109 0ebe 251b fcbc 2c04 e9bc
000003d0: 6079 b4bc 4d57 553c 6b86 b83c 1985 4bbd
000003e0: c3d4 b1bc 67e6 ecba 0c8e 793d f735 00be
000003f0: 91cf 0f3d 6732 183d f6c2 13bd 60db 3cbd

conv1.lin_self.bias f4 [64]
0.13216908 -0.10215369 -0.082106106 0.08150634 -0.016182745 0.119414546 0.070715 0.04640986
-0.11174495 0.053756464 0.0245997 -0.08754316 0.09742614 0.07570812 0.14850578 -0.09054693
0.032812163 -0.111183025 -0.10614656 -0.11095103 -0.06873269 0.099418834 0.08509989 0.12004082
0.036738362 0.10158265 0.07568233 0.0584475 0.052689146 -0.11414831 -0.018915312 -0.11667007
-0.09684353 0.042585935 -0.02908444 0.010135731 0.072857104 -0.03509135 0.0875534 -0.068151824
0.118165195 -0.06595746 -0.09540083 -0.084588476 -0.1809246 -0.10722306 0.09493855 -0.15164775
0.08082615 -0.07019056 0.0827807 -0.14294548 0.021239702 0.11942428 0.10965813 -0.07226518
-0.04556449 -0.10849437 -0.09060963 0.1085026 -0.06443591 0.046716917 0.14053455 0.059733942
00000000: 5557 073e f435 d1bd 3f27 a8bd ccec a63d
00000010: ad91 84bc 9d8f f43d 07d3 903d 4418 3e3d
00000020: 89da e4bd bd2f 5c3d 4f85 c93c d449 b3bd
00000030: 5b87 c73d dc0c 9b3d e611 183e ab70 b9bd
00000040: 0c66 063d edb3 e3bd 5e63 d9bd 4b3a e3bd
00000050: b9c3 8cbd 1a9c cb3d da48 ae3d f6d7 f53d
00000060: f77a 163d 900a d03d 56ff 9a3d a566 6f3d
00000070: 93d0 573d 97c6 e9bd 49f4 9abc b8f0 eebd
00000080: e755 c6bd 976e 2e3d 7e42 eebc 5610 263c
00000090: 1b36 953d f3bb 0fbd 324f b33d 2f93 8bbd
000000a0: 9800 f23d b414 87bd 8361 c3bd b93c adbd
000000b0: 4c44 39be c497 dbbd 246f c23d 8c49 1bbe
000000c0: 2e88 a53d 11c0 8fbd ed88 a93d 4d60 12be
000000d0: e2fe ad3c b894 f43d 7194 e03d c4ff 93bd
000000e0: d5a1 3abd 4c32 debd 8b91 b9bd 9c36 de3d
000000f0: f9f6 83bd 3d5a 3f3d 4ae8 0f3e 94ab 743d

conv2.lin_neigh.weight f4 [64, 448]
-0.05529842 -0.09021814 -0.051691566 -0.07235282 -0.13125551 -0.06661525 -0.07716269 -0.041597586
-0.00047076005 -0.08976246 -0.09467497 -0.053705998 -0.07603264 -0.100762874 -0.084193505 -0.08544982
-0.030774605 -0.07818597 0.0032625766 -0.013205289 -0.050485175 -0.072986364 -0.09987335 -0.07471074
-0.04963171 -0.015555903 -0.025358671 -0.07714457 -0.01841512 0.064320624 -0.051271442 -0.006956112
-0.038496763 -0.08899392 -0.031358454 -0.06311763 -0.05816134 -0.028647719 -0.022883771 -0.07540669
-0.025664393 -0.10638545 0.011383507 -0.020017399 -0.071515426 -0.044817824 -0.071193896 -0.025956681
-0.0634018 -0.08550501 -0.040010825 -0.05891922 -0.057315875 -0.06297726 -0.031672828 -0.03943844
-0.08575493 0.0015868504 -0.11178637 -0.099650875 -0.046897605 -0.08108971 -0.0654852 -0.038862422
-0.001535169 -0.0022154711 0.003683569 0.0005041927 0.0033334908 -0.000115058676 0.0041135224 0.001660324
-0.0010101423 0.0006118255 -0.00021536674 0.0009207947 0.0018881881 0.0002755887 0.0056736497 -0.012422147
0.0017219842 0.00022031498 0.0035185313 0.006590496 -0.0003409987 -0.0090848 0.0013235607 -5.200531e-05
0.00057404314 -0.003069982 -0.0017965797 0.002845511 0.0013895809 -0.0017562091 0.002851576 -0.0057666805
-0.0067259376 0.00043005875 -0.0010667339 0.0015917922 0.00024387406 0.001450634 -0.0015293431 -0.00015385418
-0.006338027 -0.0015961144 0.0012571438 -0.00028132595 0.002100909 9.945757e-05 0.00066199 -0.00011378084
-0.00024628142 0.0016658233 0.0017673976 0.013396198 -0.00054505473 0.0010006343 -0.0015529363 -0.007911105
-0.001710694 0.015495957 0.0003864766 -0.0016545262 -0.0011037781 -0.003206411 0.002598637 0.0017144122
-0.010874343 0.0014127113 0.00071633677 0.0027572778 0.001220367 -0.0018055877 -0.0029173307 0.0014672634
0.0006623248 -0.010815765 -0.00064022624 -0.011063425 0.002083163 -0.002757301 -0.0031407902 0.011188091
0.00063318043 -0.0014435777 -0.011053913 0.0007753951 -0.0037176346 0.0015790384 0.0001968741 0.0022889837
1.7311057e-05 0.0015603603 -0.0010331193 0.0033236474 -0.025825225 0.00014483611 0.0010568248 9.988917e-05
-0.0028591165 0.011745 -0.0009083935 -0.004676011 -0.0010329029 -0.001397221 0.00016753472 0.0011855062
-0.0014712616 0.015350906 0.0005296245 0.0017137472 0.0007239355 -2.6942023e-05 0.0011262023 0.0005116322
0.0013884007 -0.002079771 -0.00061572215 -0.0013929915 -0.002260604 0.0023040418 -0.0070713777 -0.0012257865
-3.333209e-05 0.0013102534 -0.0003182698 0.00074884226 -0.007936127 -0.001151888 0.008109118 -7.6240794e-05
0.0014296852 -0.0030628645 -0.0029622002 -0.014882332 0.0022184884 7.655551e-05 -0.002292182 -0.001255412
0.003542883 -0.00085079327 -0.0020741546 -0.01471982 -0.0017067834 -0.0035375434 -0.0014850249 0.0009935823
0.0009861535 -0.033996083 0.0096616605 -0.0010909713 4.7519974e-05 -0.00018124605 -0.0018638874 0.00097293634
0.00048374027 -0.00065487286 0.0012493376 -0.0011233038 -0.0029009376 -0.00097592315 0.002384465 0.00093766337
0.0012348577 -0.0009787345 0.0017631082 0.0014570818 0.000244388 0.0040448895 -0.0016600293 -0.00015082976
-0.0026162602 0.0026744823 -0.001289034 -0.0010260773 0.0009437048 0.00097389374 0.00087666314 4.83111e-06
-0.0005912731 2.8824872e-05 -0.0012163046 0.0018447812 -0.0023660522 -0.0014907272 0.0037567213 -0.00038705667
0.00017302988 0.0011986003 0.0021273347 -4.7972215e-05 0.00038967372 0.0013853423 0.00018813176 0.0021311853
00000000: 9980 62bd 4ac4 b8bd 89ba 53bd b72d 94bd
00000010: d867 06be 946d 88bd 7907 9ebd 3b62 2abd
00000020: 58d0 f6b9 61d5 b7bd f3e4 c1bd d2fa 5bbd
00000030: 00b7 9bbd c45c cebd a56d acbd 5100 afbd
00000040: 061b fcbc f71f a0bd f4d0 553b ff5a 58bc
00000050: 8bc9 4ebd e079 95bd 668a ccbd f201 99bd
00000060: 9f4a 4bbd 30de 7ebc fdbc cfbc f9fd 9dbd
00000070: 4edb 96bc 88ba 833d 0102 52bd 19f0 e3bb
00000080: c8ae 1dbd 7242 b6bd b971 00bd d143 81bd
00000090: 963a 6ebd 9fae eabc bf76 bbbc d36e 9abd
000000a0: 223e d2bc 9de0 d9bd e481 3a3c 87fb a3bc
000000b0: ae76 92bd e592 37bd 1bce 91bd 1ba3 d4bc
000000c0: ced8 81bd 401d afbd 64e2 23bd 4855 71bd
000000d0: 0dc4 6abd 39fa 80bd 5ebb 01bd 348a 21bd
000000e0: 48a0 afbd ddfd cf3a 41f0 e4bd c215 ccbd
000000f0: b417 40bd 5d12 a6bd 1b1d 86bd 342e 1fbd
00000100: b937 c9ba 7031 11bb 0868 713b cd2b 043a
00000110: b276 5a3b a84b f1b8 baca 863b 3b9f d93a
00000120: c066 84ba ea62 203a 12d4 61b9 7c61 713a
00000130: 147d f73a e47c 9039 06ea b93b 4386 4bbc
00000140: 34b4 e13a 5a04 6739 2997 663b 16f5 d73b
00000150: 12c8 b2b9 6ad8 14bc 547b ad3a 4720 5ab8
00000160: 627b 163a c031 49bb 367b ebba c17b 3a3b
00000170: 9922 b63a 9930 e6ba 82e1 3a3b 6cf6 bcbb
00000180: 4165 dcbb 8279 e139 a6d1 8bba afa3 d03a
00000190: 72b8 7f39 3323 be3a 3d74 c8ba eb53 21b9
000001a0: 39af cfbb b634 d1ba bfc6 a43a ee7e 93b9
000001b0: 67af 093b e093 d038 6689 2d3a a09d eeb8
000001c0: 551f 81b9 c157 da3a 06a8 e73a ba7b 5b3c
000001d0: 01e2 0eba b727 833a e58b cbba 949d 01bc
000001e0: 5e39 e0ba c1e2 7d3c 03a0 ca39 b0dc d8ba
000001f0: a6ac 90ba a622 52bb e54d 2a3b 21b6 e03a
00000200: 4d2a 32bc ba2a b93a 8cc8 3b3a 72b3 343b
00000210: b9f4 9f3a 78a9 ecba b030 3fbb 3151 c03a
00000220: dd9f 2d3a 9b34 31bc dbd4 27ba 5e43 35bc
00000230: ad85 083b d6b3 34bb b7d5 4dbb 414e 373c
00000240: 05fc 253a 6e36 bdba 791b 35bc e243 4b3a
00000250: 8fa3 73bb bdf7 ce3a fd6f 4e39 c602 163b
00000260: 3637 9137 0185 cc3a bb69 87ba 8dd1 593b
00000270: 6c8f d3bc 26df 1739 2885 8a3a 977b d138
00000280: 0460 3bbb 1a6e 403c 4121 6eba 3939 99bb
00000290: 7862 87ba f522 b7ba 42ac 2f39 fd62 9b3a
000002a0: 59d7 c0ba 5e82 7b3c 80d6 0a3a d09f e03a
000002b0: 7dc6 3d3a 8e01 e2b7 149d 933a 0e1f 063a
000002c0: fffa b53a c44c 08bb 6a68 21ba 0a95 b6ba
000002d0: a426 14bb 68ff 163b 04b7 e7bb 92aa a0ba
000002e0: 0fce 0bb8 cfbc ab3a 73dd a6b9 f44d 443a
000002f0: 8706 02bc f3fa 96ba 1bdc 043c 77e3 9fb8
00000300: 4664 bb3a 57ba 48bb 7921 42bb 06d5 73bc
00000310: 0f64 113b 6d8c a038 6f38 16bb a38c a4ba
00000320: b72f 683b c507 5fba 8aee 07bb 662b 71bc
00000330: 26b6 dfba 21d6 67bb 2ba5 c2ba 173b 823a
00000340: d241 813a 7a3f 0bbd f14b 1e3c ecfe 8eba
00000350: 2f50 4738 de0c 3eb9 af4d f4ba a70c 7f3a
00000360: 859e fd39 c6ab 2bba d0c0 a33a d23b 93ba
00000370: a81d 3ebb 18d5 7fba af44 1c3b 86cd 753a
00000380: f3da a13a e148 80ba 1818 e73a 8dfb be3a
00000390: 3421 8039 fe8a 843b 5795 d9ba 0e28 1eb9
000003a0: 9075 2bbb 5e46 2f3b cef4 a8ba 717d 86ba
000003b0: f562 773a e74c 7f3a decf 653a eb1a a236
000003c0: abff 1aba f1cc f137 696c 9fba 96cc f13a
000003d0: c50f 1bbb 8164 c3ba 5333 763b deed cab9
000003e0: 5b6f 3539 5a1a 9d3a c16a 0b3b c635 49b8
000003f0: 1f4d cc39 6094 b53a 3c45 4539 5bab 0b3b

conv2.lin_neigh.bias f4 [64]
-0.10725669 -0.067452356 -0.12137496 -0.023245858 -0.11384335 -0.07926709 -0.0965022 -0.10213077
-0.08900252 -0.12109215 -0.18472137 -0.13733257 -0.095123924 -0.10965184 -0.06835517 -0.0859237
-0.16091861 -0.14243919 -0.054178372 -0.11775481 -0.09697503 -0.048939485 -0.110395975 -0.17990625
-0.13787709 -0.08376073 -0.06815797 -0.07676992 -0.13309148 -0.09186894 -0.0929369 -0.020978564
-0.09329766 -0.050354656 -0.09061807 -0.06661441 -0.113873355 -0.1098107 0.020424237 -0.038031995
-0.07963573 -0.038537953 -0.0778636 -0.060032666 -0.05015309 -0.10180406 -0.0073058205 -0.121777214
-0.118423484 -0.058892667 -0.13639896 -0.02205655 -0.08254008 -0.07679726 -0.1422619 0.013356314
-0.14962278 -0.047824677 -0.060443558 -0.049906846 -0.121288575 -0.081433564 -0.100119814 -0.08742236
00000000: 65a9 dbbd 7624 8abd 6f93 f8bd 196e bebc
00000010: b426 e9bd c956 a2bd f2a2 c5bd f029 d1bd
00000020: f446 b6bd 29ff f7bd 9927 3dbe e9a0 0cbe
00000030: 55d0 c2bd 2591 e0bd ccfd 8bbd c4f8 afbd
00000040: d9c7 24be 94db 11be 24ea 5dbd 6f29 f1bd
00000050: d89a c6bd c574 48bd 4917 e2bd 5839 38be
00000060: a72f 0dbe bf8a abbd 6896 8bbd 8c39 9dbd
00000070: 2249 08be c825 bcbd b455 bebd 3ddb abbc
00000080: d812 bfbd af40 4ebd f795 b9bd 236d 88bd
00000090: 6f36 e9bd 6fe4 e0bd bb50 a73c 70c7 1bbd
000000a0: 0f18 a3bd f9d9 1dbd f376 9fbd d0e4 75bd
000000b0: 546d 4dbd a67e d0bd aa65 efbb 5566 f9bd
000000c0: 0388 f2bd 7039 71bd 2bac 0bbe f0af b4bc
000000d0: c60a a9bd e247 9dbd 1aad 11be 71d4 5a3c
000000e0: b736 19be cfe3 43bd aa93 77bd 1f6b 4cbd
000000f0: 2566 f8bd a4c6 a6bd 9e0b cdbd 7f0a b3bd

conv2.lin_self.weight f4 [64, 64]
-0.14356482 -0.020844234 0.059935786 -0.028931824 -0.049062204 -0.07818452 -0.10588959 -0.08286911
-0.097104035 -0.04744752 -0.09002709 -0.18502283 -0.13975157 -0.1718117 -0.0007289729 -0.054491136
0.03196884 -0.0517278 -0.00041515834 0.049400985 -0.09278536 -0.10485585 0.02731087 -0.17950201
0.006457293 0.024285372 -0.14989811 0.024321642 -0.18196726 0.29923767 -0.17835024 -0.0049215592
-0.0293817 -0.12047972 0.02383749 0.001394232 -0.10096423 -0.11119392 -0.0020910176 -0.016881555
-0.031918272 -0.020095127 0.056575228 -0.09202935 -0.17428413 -0.14576755 -0.14337587 -0.07103989
-0.05893993 -0.14441124 -0.06591792 -0.05414623 -0.15677103 -0.15656267 -0.14401595 -0.11767784
-0.1332146 0.03627324 -0.159237 -0.0043658596 -0.012475334 -0.06767493 -0.04088944 -0.04381442
-0.17383388 -0.0883806 -0.05032742 0.020487225 -0.18670496 -0.121790744 -0.03420399 -0.09972751
0.00032998636 -0.12958324 -0.043901354 -0.026962018 -0.18104625 -0.05334403 -0.05490471 -0.032230083
-0.1866984 -0.12475294 0.00082928996 -0.036434054 -0.11977006 -0.09960287 0.008916072 -0.1498962
0.028692398 0.01276084 -0.20199019 -0.056007657 -0.08115518 0.17475477 -0.0043118163 0.098017015
0.08305857 -0.06749895 -0.028410563 -0.12004525 -0.085397944 -0.02802477 -0.09794631 -0.065881684
0.013005105 -0.11879733 -0.04032302 0.08433858 -0.07617721 -0.09317497 -0.08440917 -0.12190253
0.023363365 0.036702964 -0.0021459118 -0.06889338 -0.08908425 -0.039269976 -0.17893541 -0.0022232137
-0.078782424 0.0006364662 -0.026289258 -0.22918884 -0.03895465 -0.13959597 -0.047987953 0.023853179
-0.11068124 0.012414421 -0.05671923 -0.14105771 0.0062041394 -0.052572817 -0.00082578213 -0.04309666
0.20963481 -0.038224455 -0.098011404 -0.080973916 -0.059070837 -0.14058793 -0.042631753 -0.03470523
-0.09699563 -0.07320935 -0.029072586 -0.016499324 0.013350079 -0.051127937 0.018520636 -0.03541914
-0.10603877 -0.062233128 -0.14790341 -0.08240204 -0.16791983 0.15308918 -0.110109374 -0.16136011
-0.019014426 -0.08636728 -0.124208406 0.0077400054 -0.018307962 -0.15159766 -0.15952288 -0.047997743
-0.16122453 0.016749138 -0.08510596 0.016074957 -0.113526806 0.056689173 -0.08765234 -0.12735818
0.010612412 -0.07251966 -0.17615806 -0.031727966 -0.066820994 -0.12301637 -0.16751829 -0.08356443
-0.031452633 0.0008114505 -0.06146298 -0.06181182 -0.024439836 -0.024190009 -0.12874973 0.0039975382
-0.08954424 0.0068080556 0.01566546 -0.16479824 -0.14658253 -0.0615486 -0.07621092 -0.015804118
0.04650277 -0.13109165 -0.12853236 0.043762956 -0.041804515 0.002278983 -0.08343712 0.04622878
-0.057502832 -0.042751648 -0.018000837 -0.12361635 -0.121388264 -0.1488265 -0.085506245 -0.15937832
-0.0823508 -0.1152899 -0.12804899 -0.09180453 -0.0893242 -0.011958257 -0.124641165 -0.027671158
-0.01968758 -0.07911772 -0.044682022 0.007512893 -0.09046485 -0.05310596 -0.108474806 -0.061011482
-0.10922933 -0.058963217 -3.5047462e-05 -0.09432061 -0.083343014 -0.061534468 -0.058579452 0.062043726
-0.123355396 -0.11142164 -0.055134546 0.018649463 -0.12239162 -0.13453014 -0.04429222 0.052557196
-0.11124346 -0.0056075063 -0.033589065 -0.13335854 -0.055310965 -0.06481733 -0.09704215 -0.029197391
00000000: a802 13be 87c1 aabc 3a7f 753d 6f02 edbc
00000010: 73f5 48bd 351f a0bd a4dc d8bd 48b7 a9bd
00000020: 7bde c6bd 5558 42bd 1f60 b8bd a076 3dbe
00000030: 091b 0fbe 68ef 2fbe 8b18 3fba 1932 5fbd
00000040: c2f1 023d 88e0 53bd 9ca9 d9b9 b058 4a3d
00000050: 4006 bebd aabe d6bd 0cbb df3c 60cf 37be
00000060: b397 d33b 1ef2 c63c e47e 19be 2e3e c73c
00000070: a055 3abe ae35 993e 72a1 36be 0845 a1bb
00000080: e4b1 f0bc 12be f6bd d746 c33c aabe b63a
00000090: 56c6 cebd a3b9 e3bd 7409 09bb 304b 8abc
000000a0: bcbc 02bd 899e a4bc 6dbb 673d e279 bcbd
000000b0: 8a77 32be 1744 15be 20d1 12be 5d7d 91bd
000000c0: ff6a 71bd 8ae0 13be f9ff 86bd 70c8 5dbd
000000d0: 9688 20be f751 20be eb78 13be 1401 f1bd
000000e0: 6869 08be 4093 143d 060f 23be 7c0f 8fbb
000000f0: 5865 4cbc 2799 8abd af7b 27bd c076 33bd
00000100: 8201 32be e300 b5bd 2024 4ebd d3d4 a73c
00000110: 962f 3fbe 6d6d f9bd 7c19 0cbd f03d ccbd
00000120: 0502 ad39 78b1 04be e8d1 33bd 73df dcbc
00000130: 3064 39be 457f 5abd c3e3 60bd b103 04bd
00000140: de2d 3fbe 787e ffbd b564 593a e03b 15bd
00000150: 014a f5bd 97fc cbbd b714 123c 647e 19be
00000160: 520c eb3c d812 513c 84d6 4ebe 4968 65bd
00000170: b034 a6bd eaf2 323e 234a 8dbb 25bd c83d
00000180: 9d1a aa3d e43c 8abd 45bd e8bc 49da f5bd
00000190: 1ee5 aebd 3494 e5bc 1398 c8bd faec 86bd
000001a0: 5d13 553c 044c f3bd c029 25bd b5b9 ac3d
000001b0: cc02 9cbd 85d2 bebd b7de acbd 09a8 f9bd
000001c0: 8764 bf3c d955 163d 6da2 0cbb f917 8dbd
000001d0: ce71 b6bd 8ed9 20bd d83a 37be 56b3 11bb
000001e0: ae58 a1bd 86d8 263a 925c d7bc 7bb0 6abe
000001f0: e98e 1fbd 3ff2 0ebe 048f 44bd be67 c33c
00000200: d9ac e2bd db65 4b3c 6c52 68bd 6f71 10be
00000210: 184c cb3b 9856 57bd 4d79 58ba 2086 30bd
00000220: 82aa 563e 3f91 1cbd 34ba c8bd a7d5 a5bd
00000230: 43f4 71bd 48f6 0fbe a29e 2ebd 1227 0ebd
00000240: a5a5 c6bd c9ee 95bd a229 eebc 9729 87bc
00000250: 4aba 5a3c 876b 51bd 97b8 973c a913 11bd
00000260: db2a d9bd 2ae8 7ebd fe73 17be 67c2 a8bd
00000270: 2df3 2bbe 69c3 1c3e 0681 e1bd 963b 25be
00000280: 24c4 9bbc 54e1 b0bd fa60 febd df9f fd3b
00000290: 94fa 95bc 6b3c 1bbe f759 23be 4899 44bd
000002a0: 0b18 25be 7d35 893c 094c aebd a1af 833c
000002b0: be80 e8bd e832 683d 1283 b3bd 2f6a 02be
000002c0: afdf 2d3c 3085 94bd c762 34be 2ff5 01bd
000002d0: 72d9 88bd 02f0 fbbd ea89 2bbe d423 abbd
000002e0: 7ad4 00bd 85b7 543a 9bc0 7bbd 642e 7dbd
000002f0: 0d36 c8bc 202a c6bc f8d6 03be c8fd 823b
00000300: f862 b7bd 1c16 df3b da54 803c dfc0 28be
00000310: bb19 16be 631a 7cbd 7914 9cbd a377 81bc
00000320: b079 3e3d e43c 06be fd9d 03be c940 333d
00000330: 363b 2bbd fd5a 153b 15e1 aabd 645a 3d3d
00000340: 1788 6bbd 5a1c 2fbd 7e76 93bc 922a fdbd
00000350: 699a f8bd f965 18be e61d afbd 1234 23be
00000360: 89a7 a8bd 1c1d ecbd 461f 03be 0304 bcbd
00000370: 9bef b6bd 91ec 43bc de43 ffbd a0ae e2bc
00000380: d947 a1bc 7908 a2bd 7f04 37bd b72e f63b
00000390: a345 b9bd a385 59bd 0a28 debd 2de7 79bd
000003a0: a1b3 dfbd 6a83 71bd edff 12b8 2a2b c1bd
000003b0: beaf aabd 910b 7cbd 02f1 6fbd 9021 7e3d
000003c0: c1a1 fcbd 0731 e4bd c3d4 61bd c2c6 983c
000003d0: 75a8 fabd 45c2 09be c26b 35bd 3746 573d
000003e0: 9cd3 e3bd 2cbf b7bb b094 09bd 248f 08be
000003f0: c08d 62bd f3be 84bd 09be c6bd 5e2f efbc

conv2.lin_self.bias f4 [64]
-0.17527555 -0.11699882 -0.04278951 -0.0928822 -0.14731807 -0.19384232 -0.113072686 0.009062673
-0.07660451 -0.06964265 -0.2082314 -0.034236044 -0.07859839 -0.07858473 -0.16840397 -0.033041317
-0.22879268 -0.22816019 0.05428796 -0.2177603 -0.21421409 -0.02849573 -0.14141971 -0.14691707
-0.16784383 -0.2298211 -0.11208779 -0.17222291 -0.14258325 -0.114809915 -0.053664967 -0.0059015686
-0.1931135 -0.13960612 -0.12780355 -0.19171605 -0.18149294 -0.1678299 0.020825975 -0.06570581
0.012526127 -0.124834165 -0.14671586 -0.20799008 -0.17398126 -0.21888019 -0.0011544512 -0.19055504
-0.22878785 -0.024679644 -0.13698292 -0.10418581 0.006677044 -0.102244236 -0.0483827 0.044168063
-0.21339045 -0.19546045 -0.14489229 -0.058679592 -0.17515099 -0.24121207 -0.11302282 -0.112391256
00000000: 6f7b 33be 149d efbd 0e44 2fbd 0639 bebd
00000010: 8cda 16be 9a7e 46be a792 e7bd 9b7b 143c
00000020: d3e2 9cbd cea0 8ebd 9d3a 55be 183b 0cbd
00000030: 31f8 a0bd 08f1 a0bd 1772 2cbe 5556 07bd
00000040: a148 6abe d3a2 69be 0d5d 5e3d 8efc 5ebe
00000050: f05a 5bbe e16f e9bc 54d0 10be 6e71 16be
00000060: 41df 2bbe 3956 6bbe 498e e5bd 345b 30be
00000070: 5801 12be 7621 ebbd cccf 5bbd f261 c1bb
00000080: 8cbf 45be e8f4 0ebe efde 02be 3651 44be
00000090: 49d9 39be 9adb 2bbe 3c9b aa3c c590 86bd
000000a0: 623a 4d3c 0ea9 ffbd af3c 16be 5afb 54be
000000b0: 2528 32be 2122 60be f450 97ba dc20 43be
000000c0: 5d47 6abe f72c cabc 4045 0cbe 5f5f d5bd
000000d0: 1bcb da3b 6d65 d1bd f02c 46bd 92e9 343d
000000e0: 0783 5abe c926 48be a55e 14be 035a 70bd
000000f0: c85a 33be 4c00 77be 8278 e7bd 632d e6bd

bn1.weight f4 [64]
1.0918967 0.9233492 0.9135361 1.0577004 0.98528486 0.9428174 0.7892487 0.8986599
0.9943072 0.98128515 0.987755 0.9083242 0.9272071 1.0243741 0.9388408 0.90334177
0.94443303 0.95670366 0.28826877 1.1327513 0.9193049 0.9072609 0.8913537 0.87621516
1.0700421 0.85927683 0.9465071 0.78657997 0.8240096 1.1668885 0.8828763 0.9364305
0.94378847 0.9500963 0.876513 0.92186356 0.90393275 1.0448325 0.98058146 0.93861175
0.96349 0.9412486 0.9201518 0.933257 0.92360544 0.92524403 0.79696894 0.9884423
0.8914817 0.9913014 0.966163 0.89100885 0.8941042 0.9708867 0.8855471 0.9442344
0.9626961 0.99082637 0.868093 0.9560139 0.98314214 1.1127698 0.9154595 0.98192745
00000000: 45c3 8b3f 9d60 6c3f 80dd 693f ba62 873f
00000010: a13b 7c3f 7b5c 713f 340c 4a3f 930e 663f
00000020: eb8a 7e3f 8135 7b3f 83dd 7c3f ef87 683f
00000030: 725d 6d3f b11e 833f df57 703f 6841 673f
00000040: 5dc6 713f 88ea 743f f797 933e fffd 903f
00000050: 9157 6b3f 4042 683f c22f 643f a34f 603f
00000060: 24f7 883f 91f9 5b3f 4a4e 723f 4e5d 493f
00000070: 4bf2 523f 9a5c 953f 2e04 623f e9b9 6f3f
00000080: 1f9c 713f 8339 733f 2863 603f 40ff 6b3f
00000090: 2368 673f 12bd 853f 6307 7b3f dc48 703f
000000a0: 48a7 763f abf5 703f 128f 6b3f eee9 6e3f
000000b0: 6871 6c3f cbdc 6c3f 2806 4c3f 8e0a 7d3f
000000c0: 2538 643f eec5 7d3f 7556 773f 2819 643f
000000d0: 03e4 643f 088c 783f 37b3 623f 58b9 713f
000000e0: 4073 763f cca6 7d3f 583b 5e3f 54bd 743f
000000f0: 34af 7b3f 3e6f 8e3f 8e5b 6a3f 995f 7b3f

bn1.bias f4 [64]
0.15894145 -0.09421682 -0.049522247 0.033370417 0.009791031 0.057599336 -0.120747454 -0.06431032
-0.061444055 0.08783107 0.03198427 -0.06976597 -0.022727694 0.13453135 0.035248343 -0.08037032
0.08120971 -0.053099453 0.09183392 0.04462565 0.0039866664 -0.08997504 -0.069482096 -0.037843425
0.07460559 -0.036565796 0.04539108 -0.061496507 -0.089258984 -0.0011093818 -0.06888912 -0.11311133
-0.055729404 -0.005235584 -0.05288601 -0.013793524 -0.060630646 0.14958063 0.08975711 -0.062938
0.073066734 -0.049900338 -0.122548684 -0.11567409 -0.07787768 -0.051149916 -0.0084321955 -0.0108213965
0.02981608 0.018531634 0.05305161 -0.14099042 -0.0375355 0.11030865 -0.031656552 -0.024528485
-0.014613509 -0.091122806 -0.12844318 0.06255538 -0.0116143385 0.15187229 0.084060974 0.058489252
00000000: 8cc1 223e c0f4 c0bd d7d7 4abd 6baf 083d
00000010: 8f6a 203c 48ed 6b3d 714a f7bd 21b5 83bd
00000020: c3ac 7bbd c7e0 b33d f001 033d 76e1 8ebd
00000030: 6e2f babc 96c2 093e 9160 103d 3299 a4bd
00000040: 4751 a63d d07e 59bd 6c13 bc3d 63c9 363d
00000050: 95a2 823b d544 b8bd a14c 8ebd b501 1bbd
00000060: d1ca 983d 04c6 15bd ffeb 393d c3e3 7bbd
00000070: 6acd b6bd ad68 91ba bd15 8dbd eaa6 e7bd
00000080: 8444 64bd 438f abbb 009f 58bd 3cfe 61bc
00000090: d757 78bd aa2b 193e 93d2 b73d a3e5 80bd
000000a0: 03a4 953d 4c64 4cbd cefa fabd 8ae6 ecbd
000000b0: 557e 9fbd 9382 51bd 3127 0abc 3a4c 31bc
000000c0: da40 f43c a7cf 973c a54c 593d cb5f 10be
000000d0: d3be 19bd 80e9 e13d 4daa 01bd f6ef c8bc
000000e0: 806d 6fbc 989e babd 9c86 03be 091d 803d
000000f0: 114a 3ebc 6984 1b3e 2928 ac3d 6d92 6f3d

bn1.running_mean f4 [64]
0.120199606 0.020211626 0.05659527 0.20055696 0.09082047 0.21371637 0.5169789 0.3254959
0.0017783642 0.46812862 0.6024266 0.029578367 0.84303415 0.12557355 0.23812276 0.009598755
0.35280418 0.01963029 1.6212828e-10 0.00023337433 0.28966495 0.36231992 0.2889847 0.30061495
0.17782466 0.3795892 0.46236798 0.58679223 0.17319183 0.00041257738 0.19152176 0.016788714
1.20803465e-08 0.15075028 0.1376982 0.47466683 0.5690592 0.25001907 0.52770185 0.040639207
0.34340802 0.08737312 0.17922135 0.007384896 8.2093204e-05 0.02058185 0.46515104 1.0265939e-07
0.29557514 0.10104635 0.21334378 0.0020404102 0.07883163 0.111893415 0.5135002 0.015662761
0.02436547 0.00086679746 0.07558065 0.357992 0.03105454 0.09018499 0.27494526 0.16624013
00000000: 362b f63d da92 a53c 71d0 673d ce5e 4d3e
00000010: 1500 ba3d 77d8 5a3e bb58 043f 66a7 a63e
00000020: 0018 e93a 8eae ef3e a138 1a3f 554e f23c
00000030: 16d1 573f 5a96 003e 74d6 733e 1944 1d3c
00000040: c0a2 b43e b4cf a03c 0e43 322f f2b5 7439
00000050: f74e 943e ff81 b93e cdf5 933e 34ea 993e
00000060: ab17 363e 8459 c23e 7fbb ec3e 0438 163f
00000070: 3359 313e 334f d839 481e 443e 7c88 893c
00000080: ed89 4f32 485e 1a3e c200 0d3e 8807 f33e
00000090: ddad 113f 8002 803e 7817 073f 4c75 263d
000000a0: 2dd3 af3e aef0 b23d cd85 373e fffc f13b
000000b0: 7429 ac38 459b a83c 4728 ee3e 9975 dc33
000000c0: a055 973e 64f1 ce3d cb76 5a3e 67b8 053b
000000d0: 7a72 a13d 6028 e53d c074 033f 314f 803c
000000e0: 189a c73c cb39 633a 07ca 9a3d ba4a b73e
000000f0: 1766 fe3c e8b2 b83d a0c5 8c3e da3a 2a3e

bn1.running_var f4 [64]
0.0636222 0.01405331 0.04378723 0.07314118 0.05848106 0.06755091 0.14899129 0.16232933
0.0017154521 0.17680024 0.11910386 0.028038643 0.42202878 0.04631692 0.08928411 0.003673617
0.15354994 0.020232676 6.855945e-05 0.00017831351 0.10729149 0.13793081 0.10769633 0.093990274
0.12969677 0.121670656 0.1476087 0.27644295 0.039674938 0.00042101822 0.07667996 0.015808126
6.8559784e-05 0.08071381 0.061104417 0.4236235 0.16788365 0.110655434 0.15342641 0.030428495
0.13358961 0.04475555 0.10284937 0.006632897 9.3404204e-05 0.015287133 0.16388358 6.856765e-05
0.1062251 0.05561222 0.10866722 0.000930927 0.048060264 0.06031583 0.27476716 0.023479769
0.027184468 0.00037905527 0.047630873 0.14496493 0.035174068 0.05097247 0.10434611 0.03251671
00000000: 5b4c 823d db3f 663c 3d5a 333d 0bcb 953d
00000010: d689 6f3d 2258 8a3d 2c91 183e a939 263e
00000020: 05d9 e03a 1f0b 353e b9ec f33d 4cb1 e53c
00000030: 2814 d83e d0b6 3d3d 96da b63d 11c1 703b
00000040: 323c 1d3e ffbe a53c 93c7 8f38 abf9 3a39
00000050: a4bb db3d bc3d 0d3e e58f dc3d f97d c03d
00000060: 3bcf 043e 772e f93d bc26 173e ee89 8d3e
00000070: 3082 223d 1cbc dc39 620a 9d3d 0b80 813c
00000080: c1c7 8f38 484d a53d a048 7a3d 2ee5 d83e
00000090: b1e9 2b3e 519f e23d d01b 1d3e 2e45 f93c
000000a0: b7cb 083e 9851 373d b1a2 d23d c658 d93b
000000b0: 00e2 c338 e276 7a3c 19d1 273e facb 8f38
000000c0: 8c8c d93d a4c9 633d eb8c de3d 7409 743a
000000d0: d7da 443d bb0d 773d 48ae 8c3e a558 c03c
000000e0: f6b1 de3c f0bb c639 9718 433d b071 143e
000000f0: af12 103d 82c8 503d 6ab3 d53d 3e30 053d

bn2.weight f4 [64]
0.81261694 0.8630677 0.84838295 0.8699888 0.8330091 0.7327743 0.85221237 0.49129832
0.8757147 0.702338 0.75248057 0.7204367 0.740363 0.8558358 0.7302368 0.6533857
0.63566357 0.73767906 0.6739975 0.81987435 0.7851465 0.83327055 0.80674773 0.6018592
0.7374867 0.80071366 0.82493716 0.8717669 0.84933025 0.53373414 0.8238017 0.6153795
0.86021656 0.83414966 0.88215005 0.7361147 0.842139 0.83985174 0.61232334 0.8552008
0.70171404 0.86309665 0.852476 0.823773 0.82614845 0.7810091 0.45352045 0.7388438
0.85020316 0.46471456 0.839196 0.8400843 0.45002684 0.530335 0.7614882 0.59805226
0.8274226 0.8469748 0.818037 0.8293985 0.78887916 0.8363015 0.84587264 0.72597855
00000000: aa07 503f 01f2 5c3f a02f 593f 96b7 5e3f
00000010: 1640 553f 1997 3b3f 972a 5a3f 748b fb3e
00000020: d72e 603f 6ccc 333f 91a2 403f 8a6e 383f
00000030: 6e88 3d3f 0e18 5b3f cdf0 3a3f 4944 273f
00000040: d9ba 223f 89d8 3c3f 1a8b 2c3f 49e3 513f
00000050: 5cff 483f 3851 553f 0587 4e3f 7213 1a3f
00000060: eecb 3c3f 92fb 4c3f 152f 533f 1e2c 5f3f
00000070: b56d 593f cda2 083f abe4 523f 8389 1d3f
00000080: 2737 5c3f d58a 553f 96d4 613f 0372 3c3f
00000090: 6c96 573f 8600 573f 39c1 1c3f 71ee 5a3f
000000a0: 88a3 333f e7f3 5c3f de3b 5a3f cae2 523f
000000b0: 777e 533f 36f0 473f d533 e83e de24 3d3f
000000c0: eaa6 593f 11ef ed3e 8dd5 563f c40f 573f
000000d0: eb69 e63e 09c4 073f e4f0 423f f419 193f
000000e0: f8d1 533f 57d3 583f df6a 513f 7653 543f
000000f0: fcf3 493f db17 563f 1c8b 583f bbd9 393f

bn2.bias f4 [64]
-0.09778826 -0.09495624 -0.10748264 -0.07725543 -0.12778519 -0.11417146 -0.1000259 -0.18769419
-0.08269607 -0.12774587 -0.15049987 -0.14724725 -0.11982581 -0.07236259 -0.10616423 -0.18386714
-0.22993156 -0.11673723 -0.2488816 -0.10169363 -0.11559593 -0.13005267 -0.12346562 -0.21976645
-0.10454047 -0.10136438 -0.08396564 -0.08801094 -0.11781278 -0.16481543 -0.14620751 -0.2080938
-0.087421305 -0.11078907 -0.0818781 -0.09553595 -0.07723409 -0.105086185 -0.2694378 -0.10097259
-0.17146523 -0.074075304 -0.102583826 -0.113673456 -0.07648265 -0.10096378 -0.26289314 -0.122997314
-0.10640243 -0.17072736 -0.11037184 -0.07261351 -0.2584611 -0.2164243 -0.15388559 -0.29926875
-0.12958112 -0.072507806 -0.09644442 -0.13327728 -0.099589325 -0.12616172 -0.12654832 -0.14248681
00000000: 3645 c8bd 6b78 c2bd dc1f dcbd 1838 9ebd
00000010: 1fda 02be bad2 e9bd 61da ccbd e832 40be
00000020: 8f5c a9bd d0cf 02be a31c 1abe fcc7 16be
00000030: 3c67 f5bd d632 94bd a26c d9bd ab47 3cbe
00000040: 2e73 6bbe ee13 efbd d1da 7ebe c044 d0bd
00000050: 8fbd ecbd 872c 05be 8bdb fcbd 750a 61be
00000060: 5019 d6bd 2198 cfbd 2df6 abbd 143f b4bd
00000070: d447 f1bd 60c5 28be 6cb7 15be 8b16 55be
00000080: f109 b3bd 61e5 e2bd b5af a7bd 5aa8 c3bd
00000090: e82c 9ebd 6d37 d7bd c0f3 89be b8ca cebd
000000a0: 9594 2fbe cbb4 97bd 7817 d2bd a1cd e8bd
000000b0: f0a2 9cbd 19c6 cebd ee99 86be 04e6 fbbd
000000c0: 84e9 d9bd 27d3 2ebe a20a e2bd 64b6 94bd
000000d0: 0355 84be 559e 5dbe 2f94 1dbe c139 99be
000000e0: eab0 04be f97e 94bd a784 c5bd d779 08be
000000f0: 7df5 cbbd 8a30 01be e295 01be 10e8 11be

bn2.running_mean f4 [64]
0.007183667 0.0037160574 0.00840926 2.1384423e-05 6.1232054e-06 0.007975509 0.0031864846 0.03654298
0.0040405653 0.009556925 0.00034184824 0.0098344805 0.008112045 0.004177758 0.0057500666 0.038224153
0.00015635685 0.006228237 0.304764 0.0034606776 8.582956e-06 0.0039210417 2.2493477e-05 0.13577516
0.005408708 0.00013877412 0.004836116 1.0573673e-06 4.086295e-06 0.008060509 0.00165445 0.07129299
3.0346996e-06 0.005806027 1.937508e-06 0.0066563617 0.0017460365 1.6804479e-06 0.14007162 0.0054555195
0.05108942 7.076007e-07 0.0056034797 5.8152036e-06 0.0018252844 0.0040398403 0.18219826 0.006268723
0.0040008384 0.082282916 3.900365e-06 0.0047017033 0.10940209 0.0022120515 0.0042443564 0.118221514
9.262474e-06 0.0037332352 0.0013298756 8.2697204e-07 0.005625737 4.540818e-06 0.0014433215 0.011420395
00000000: f764 eb3b 1989 733b fec6 093c b362 b337
00000010: ef75 cd36 b6ab 023c 57d4 503b 17ae 153d
00000020: b866 843b a694 1c3c 183a b339 cd20 213c
00000030: 62e8 043c 93e5 883b 0e6b bc3b ee90 1c3d
00000040: b9f3 2339 3d16 cc3b 070a 9c3e 89cc 623b
00000050: 84ff 0f37 157c 803b 60b0 bc37 a508 0b3e
00000060: 883b b13b e583 1139 4878 9e3b ddea 8d35
00000070: 021d 8936 3a10 043c 21da d83a 0f02 923d
00000080: bea7 4b36 7c40 be3b 2206 0236 9c1d da3b
00000090: 43db e43a c08b e135 ef6e 0f3e 37c4 b23b
000000a0: 2443 513d f3f1 3d35 659d b73b 3820 c336
000000b0: 623e ef3a a360 843b 2e92 3a3e dc69 cd3b
000000c0: 7719 833b f283 a83d e1df 8236 bf10 9a3b
000000d0: 340e e03d 11f8 103b 3e14 8b3b 1f1e f23d
000000e0: 0666 1b37 4ba9 743b 384f ae3a 16fd 5d35
000000f0: 1a58 b83b 545d 9836 d52d bd3a 9c1c 3b3c

bn2.running_var f4 [64]
0.1282852 0.03525655 0.04116031 8.864505e-05 7.912061e-05 0.02926887 0.02595691 0.14608102
0.041703016 0.042450685 0.0007518758 0.053597443 0.03656287 0.011689024 0.018353028 0.18437216
0.00046698743 0.021662463 0.6893679 0.009119211 8.0811355e-05 0.03871749 8.05654e-05 0.6813062
0.016515667 0.00016939083 0.01544038 6.9017246e-05 7.149198e-05 0.035982 0.0066565406 0.30478024
7.4919044e-05 0.021703504 6.948563e-05 0.024783965 0.0031712574 6.945934e-05 0.26230875 0.07350584
0.48740914 6.908548e-05 0.0683009 7.543341e-05 0.0034626755 0.012088082 0.9035959 0.021910492
0.040838446 0.66619813 7.259508e-05 0.055760004 0.40003294 0.007820833 0.037860062 0.22344935
8.113405e-05 0.025990052 0.0031533767 6.9052716e-05 0.073752314 7.5436306e-05 0.0047158822 0.071140595
00000000: 325d 033e 2c69 103d b797 283d f3e6 b938
00000010: 8eed a538 45c5 ef3c 96a3 d43c 4396 153e
00000020: c8d0 2a3d c5e0 2d3d 8819 453a fe88 5b3d
00000030: f3c2 153d 5283 3f3c 1759 963c 0ecc 3c3e
00000040: fed5 f439 7a75 b13c 6a7a 303f be68 153c
00000050: 4479 a938 3b96 1e3d 38f5 a838 156a 2e3f
00000060: dd4b 873c 819e 3139 a6f9 7c3c 5abd 9038
00000070: f7ed 9538 dd61 133d 1c1f da3b 280c 9c3e
00000080: db1d 9d38 8ccb b13c d0b8 9138 be07 cb3c
00000090: dfd4 4f3b b3aa 9138 554d 863e 3b8a 963d
000000a0: b18d f93e fce1 9038 58e1 8b3d 0132 9e38
000000b0: 0eee 623b 170d 463c 1052 673f a27d b33c
000000c0: 3746 273d f68b 2a3f 303e 9838 9a64 643d
000000d0: 1ed1 cc3e f322 003c 2713 1b3d e8cf 643e
000000e0: 8326 aa38 17e9 d43c e2a8 4e3b 65d0 9038
000000f0: 740b 973d 8f33 9e38 b087 9a3b 29b2 913d
