saved_weights/29-08-50-09.pth (torch, 212920 bytes, 16 tensors)

conv1.lin_neigh.weight f4 [32, 769]
000000 7d 0b 93 3b be 16 c9 ba dc a6 85 bc b3 75 83 3c
       0.0044874535 -0.0015341861 -0.016314916 0.016047334
000010 a1 d4 75 bc 58 c7 39 3d fc b5 59 bc 59 f0 84 3c
       -0.015004308 0.045356125 -0.013288017 0.016227888
000020 34 d6 98 bc 87 07 e5 bc aa 4a 89 bc fe 8c 9a 3c
       -0.018656828 -0.02795769 -0.016759235 0.018866058
000030 e3 59 dc 3b f4 15 c7 3c 90 53 d9 bb eb 91 57 bc
       0.0067245825 0.02430246 -0.006632276 -0.013157348
000040 c8 82 02 bd c4 72 01 3c 74 4d 20 3b 0e 80 f7 3b
       -0.031863004 0.007900897 0.0024460228 0.007553107
000050 ae 3b e5 39 3e 3c 9f 3c 57 f4 dc 3b 9b 09 f5 3b
       0.00043722749 0.019437905 0.0067429948 0.0074779517
000060 48 f3 c6 bc 57 b1 33 bd 0c db dd bc 03 0f 33 bc
       -0.024285927 -0.043870296 -0.027081989 -0.010928872
000070 ab 87 e6 3c 33 a7 37 3d 63 02 85 bb a5 be 63 bc
       0.028140863 0.044837188 -0.0040591224 -0.013900434
000080 6f 41 00 bc 33 ec c4 bc 80 94 90 3c 5d 15 2b 3b
       -0.007828101 -0.02403841 0.017648935 0.0026105263
000090 e7 de 2a bc b5 ec 57 3c 50 3c 8e bc a8 84 a8 39
       -0.010429121 0.013178994 -0.017362744 0.00032142294
0000a0 57 0c 9e 3b 05 c2 b4 3c 24 94 dd bc 58 63 00 3d
       0.0048232484 0.022065172 -0.027048178 0.03134474
0000b0 5c 9e 71 3c e0 d1 6a ba b0 56 18 bc f5 32 5a bc
       0.0147472285 -0.00089576654 -0.009298012 -0.013317813
0000c0 17 c8 ba 3c c7 87 15 3d 8b 79 20 3c cd ed 3c 3d
       0.022800488 0.03650644 0.009794603 0.046125222
0000d0 d2 6e 82 bc e5 47 f1 bc 6a 84 db 3c cb 07 c9 3c
       -0.015921984 -0.029453227 0.026796538 0.024539849
0000e0 a0 a9 92 bc 61 2a b0 3b d2 f3 bc bc 22 0d 0d bd
       -0.01790315 0.0053761457 -0.023065481 -0.034436353
0000f0 0a 1c a7 b9 2c 0c 99 3c 20 3b bb bc 9d df 05 bd
       -0.00031873613 0.018682562 -0.022855341 -0.032683957
000100 86 a1 ff bc 44 59 9f bc de da 03 3d f0 99 53 3b
       -0.03120495 -0.019451745 0.03219115 0.0032287799
000110 dc ac 4c bc 41 d5 c1 3c 48 23 8b 3c 4d 42 10 3b
       -0.012492385 0.023661258 0.016984597 0.0022012175
000120 87 45 3b 3d d6 36 d2 bc fb 9e 92 3c 43 d2 1d 3d
       0.045720603 -0.025660913 0.017898073 0.0385306
000130 7a 15 53 bc 3a c7 fb 3c fc 5d aa 3c 41 e4 ca bc
       -0.012883538 0.030734647 0.020796768 -0.024767043
000140 ca 8c 98 bc 26 6e ed 3c 5a 23 39 bc fc 32 93 3c
       -0.018621821 0.028983187 -0.011299932 0.017968647
000150 50 e3 cf 3c a9 42 00 bd 70 f9 83 bc 69 bb 11 bd
       0.025376946 -0.031313572 -0.016110152 -0.03557912
000160 8a f4 99 3c 31 0a dc bc 6d 55 96 bc 52 36 1c 3c
       0.018793363 -0.026860328 -0.018351281 0.009534435
000170 e9 7b d3 3c 06 92 4b bc dd 08 ec 3b be 3e 51 bd
       0.02581592 -0.012424951 0.007203205 -0.051085226
000180 f2 2c 2d 3d 4f 37 c2 bc e5 c9 95 3c ca 1d b1 3a
       0.04227919 -0.023708014 0.018284747 0.0013512906
000190 33 b0 9e bc 83 35 7d 3c 77 bf ed bc 0c 0d a1 3c
       -0.019371128 0.015454653 -0.029021962 0.019659542
0001a0 b8 7c 53 3c 54 1c 0c bd 1b c4 d8 bc a2 d4 ad bc
       0.012908153 -0.034206703 -0.026460698 -0.021219555
0001b0 38 6a f3 3c e6 a4 21 3c 16 4e 00 3d 72 ae 98 bc
       0.029713735 0.009865975 0.03132447 -0.01863787
0001c0 38 f1 b3 3c 20 df 8c 3c 98 0a cd bc 14 cd 4e bb
       0.021965608 0.017196238 -0.025029466 -0.0031555342
0001d0 55 15 80 3c 13 46 b3 3c 42 f3 17 3d 42 dc 84 bc
       0.015635172 0.021884 0.037097223 -0.016218308
0001e0 e0 9b ad 3c 60 32 90 3c 20 f3 ab 3c c4 6f 28 3c
       0.021192491 0.017602146 0.020989954 0.010280553
0001f0 25 74 35 3c b2 65 40 3b 54 e8 0b 3c 00 05 23 bd
       0.011075054 0.002935749 0.008539278 -0.03979969
000200 22 f8 29 ba 1e f0 0a bd f8 62 b8 3c 18 d3 8d bb
       -0.0006483813 -0.0339204 0.02250813 -0.004328143
000210 d5 49 04 3d b2 ba 94 bc a2 05 91 3c 4a cf 0f 3d
       0.032296974 -0.01815543 0.017702881 0.035109796
000220 76 18 8b 3b 4f 24 9a bb c2 06 99 bc 73 ea e6 ba
       0.0042448593 -0.0047040354 -0.01867998 -0.0017617479
000230 a2 93 e0 bc 63 4e e5 3a 5c de b9 bc 24 66 ca bb
       -0.027414147 0.0017494675 -0.022689037 -0.006176727
000240 c3 d9 e3 3c 54 93 68 3c 5a 07 15 bd d1 90 4f 3c
       0.027813798 0.014195282 -0.036383964 0.012668804
000250 ca 9d 88 bc df e4 a4 3b 13 f5 24 3c 6c 68 74 bc
       -0.016676802 0.0050321664 0.010068196 -0.014917474
000260 ff 26 40 bd 77 bc e5 bc 24 0e 6a bb 69 58 c5 bc
       -0.04691219 -0.028043969 -0.0035713995 -0.024090009
000270 47 35 9c 3c 74 b4 16 bc b7 ef 1e bc 3f bb 60 bc
       0.019068373 -0.009198297 -0.009700707 -0.013716518
000280 a4 45 11 3d 93 28 1e bd 62 49 08 bb ea 33 b3 3c
       0.035466805 -0.038612913 -0.0020795693 0.02187534
000290 cd 36 ef bc 60 4a ac bc c7 f8 04 3d 6f f7 69 3c
       -0.029200936 -0.021031559 0.032463815 0.014280184
0002a0 49 2e 8d 3c 2a 52 c8 3a f5 ac e7 bc 9a f4 aa bc
       0.017233985 0.0015283276 -0.028280715 -0.020868588
0002b0 37 ae bd 3c e9 99 1b 3c 10 e9 1a 3d 22 0d 0b bc
       0.023154361 0.009497144 0.037819922 -0.008487018
0002c0 44 e3 77 bc 06 1c ae b9 47 90 54 bc 35 c9 ce 3c
       -0.015129868 -0.00033208745 -0.0129738515 0.025242427
0002d0 d1 8e fc 3b 91 27 e7 3c c6 06 f8 3c f7 be 47 3d
       0.0077074547 0.028217109 0.030276667 0.048766103
0002e0 45 c8 05 bd 1f 4c 56 bc f8 80 97 bc f6 0f 9a bc
       -0.032661695 -0.013079672 -0.018494114 -0.018806439
0002f0 af 36 34 3d 25 5d 5f bc db ed 02 bd 96 71 a7 bb
       0.043997463 -0.013633047 -0.031965118 -0.005109976
000300 fb 84 e7 3c fe e9 6f 3b 99 15 bb bc 41 04 3b bc
       0.028261652 0.0036607976 -0.022837447 -0.011414588
000310 68 27 de bc 2a 86 90 bc 7f 4b 15 bd 46 7c dc bc
       -0.0271184 -0.0176421 -0.03644895 -0.026914727
000320 89 66 3c 3c cb cc 68 bc 2b 5c 1f 3d 06 8a 01 bd
       0.011499056 -0.014208983 0.038906258 -0.03162577
000330 8e fa 00 bd 9e 8a 17 3c 71 5b df bc 28 90 a8 3c
       -0.031488948 0.0092493575 -0.027265282 0.020576552
000340 17 53 ce 3c 7f df 00 bd 29 26 c9 bb 26 f4 86 bb
       0.025186105 -0.031463142 -0.0061385822 -0.00411846
000350 6b 69 b9 bc c2 05 f2 3c 93 40 1d bc 6f 28 81 3c
       -0.022633275 0.029543761 -0.009597915 0.01576635
000360 0e e7 9f bb bd 7e 09 bc 55 fe 86 3b 7f 37 e6 3c
       -0.004879839 -0.008392033 0.004119674 0.028102634
000370 f0 e3 01 3d a6 e4 02 3d d2 2a bb 39 30 b7 16 3c
       0.03171152 0.031956337 0.00035699323 0.009198949
000380 45 a5 03 3b 6b 4c 0c bd 8a ab 79 3c a2 86 67 ba
       0.0020087522 -0.034252565 0.015238652 -0.00088320125
000390 9f d1 e9 3c 69 67 44 3c 02 20 a8 3c 85 b6 59 3d
       0.028542338 0.0119875455 0.020523075 0.05315258
0003a0 b0 6a b2 bc e6 2a e1 ba 63 c7 0f 3d 8b 48 43 bc
       -0.021779388 -0.0017178922 0.03510226 -0.011919151
0003b0 c1 87 90 3c 74 5e 0c 3d 69 7a 84 bc ae 57 03 bd
       0.017642858 0.034269765 -0.016171651 -0.03206604
0003c0 d0 e7 00 3d 0e b7 e5 3c b9 5a f5 3c 0e 17 07 bd
       0.031471074 0.028041389 0.029950486 -0.03298097
0003d0 9c 8a 0a bd 1c 04 45 bd 96 8e b4 3c 6f 29 a9 bc
       -0.033823594 -0.048099622 0.022040647 -0.02064964
0003e0 19 bb c6 bc ec 57 b2 3a 43 24 e6 3a c6 d7 d3 3b
       -0.024259137 0.0013606525 0.0017558414 0.006464931
0003f0 bb 8b a1 3b 03 1a 07 bd 3d 56 b8 bb 49 6d 90 bc
       0.0049299872 -0.03298379 -0.005625515 -0.017630236

conv1.lin_neigh.bias f4 [32]
000000 8d 9a 5b bc 75 3b c1 bb 7c d4 be 3c 2a 72 4b bc
       -0.013403547 -0.0058969804 0.02329468 -0.012417356
000010 95 bc f2 3b c2 59 ce bc 2d f8 cb bc 6b 65 5e 3c
       0.0074077346 -0.025189284 -0.024898613 0.013573985
000020 c1 f6 f3 3b a7 c5 28 3d a0 62 11 bb 6f bd 9b bc
       0.007445187 0.04120412 -0.002218403 -0.019011227
000030 85 63 8c bc f8 ce a1 bb da a9 a3 bc f2 b8 cc 3c
       -0.017137298 -0.0049380027 -0.019978452 0.024990533
000040 5f 26 b3 3b 7d a3 a2 bc bb 52 a2 3c 1e b8 84 3c
       0.0054672207 -0.019853348 0.01981484 0.016201075
000050 10 85 f9 3c 14 42 f1 bc e2 a7 03 bd 64 99 0c 3d
       0.030458957 -0.029450454 -0.032142527 0.034325972
000060 7b d3 ad 3c ca b4 9d 3a e5 91 b0 3c 4b 41 12 3d
       0.021219006 0.0012032029 0.021553943 0.0357068
000070 b5 55 6a bc 9d 45 b1 3c 2c 48 5f 3d ae 21 03 bc
       -0.014302661 0.02163964 0.054512188 -0.008003635

conv1.lin_self.weight f4 [32, 385]
000000 87 b3 47 3d 00 39 d9 3c 0d dc b1 3c d8 f5 8f 3c
       0.048755195 0.026516438 0.021711374 0.017573282
000010 c4 e6 2f bb 9d 42 25 3d a3 d2 ef 3c 96 eb 59 3b
       -0.0026840428 0.04034673 0.029275244 0.0033251992
000020 7e 14 30 bd 5d 70 22 bd 5d 34 20 bb 63 ca 00 bd
       -0.042988293 -0.03965794 -0.0024445273 -0.03144301
000030 3f 78 11 bd 35 99 1c bd 2a 56 bf bc e5 18 a0 bc
       -0.035515066 -0.038232047 -0.023356516 -0.01954312
000040 56 b2 a6 bb be ed 0e bc 06 1b 40 3d b6 a6 52 3c
       -0.0050871773 -0.008723674 0.04690077 0.01285713
000050 7d 1f 09 bc dd 1e 6a bb a5 de 76 3d 65 0f a0 3c
       -0.008369324 -0.0035723962 0.060270924 0.01953859
000060 7f cc 69 bc fb 48 37 bd 9e 95 d3 bc 94 8b b9 bc
       -0.014269947 -0.044747334 -0.025828179 -0.022649564
000070 cf b0 aa bc b7 0f d0 3c c6 a3 06 3d fd ba 44 bd
       -0.020836262 0.025398118 0.03287103 -0.04802989
000080 b9 4d 45 3c ed ee 21 3c 6d 06 97 3c 1e 63 96 3b
       0.012042456 0.0098836245 0.018435681 0.0045894524
000090 1b aa c8 3b e3 0e 08 3d 1a 9d 5a 3b e3 58 6f bc
       0.006123794 0.033217322 0.00333578 -0.014608595
0000a0 c3 44 f0 bc 19 f0 14 bd 23 64 5a bc 7e 03 fc 3c
       -0.029329663 -0.036361787 -0.0133295385 0.030763384
0000b0 d7 72 08 bb 38 66 95 bc e2 36 23 bd 80 39 3e bd
       -0.0020820403 -0.018237218 -0.039847262 -0.046441555
0000c0 ab 26 39 3d 4b 04 12 3d c0 f2 20 3d e7 1d 3e 3b
       0.045202892 0.035648625 0.039294004 0.0029009522
0000d0 02 f3 3c 3c 28 24 f9 b9 f3 83 53 3d b4 92 b5 3c
       0.011532547 -0.0004751992 0.05163951 0.02216468
0000e0 29 2a 38 3d cd 99 49 3c ef f7 9b bc ca b9 28 bd
       0.044962082 0.012304735 -0.019039122 -0.041192807
0000f0 54 cc 35 bd af 6c 06 3d 8c 5e 5a 3c 9e ae 2a 3a
       -0.044384316 0.032818493 0.013328206 0.00065110053
000100 61 ec 9d 3c 35 1e 01 bd 0d 78 38 bd d8 9e 10 bc
       0.019277753 -0.03152295 -0.045036364 -0.008826934
000110 c3 f9 e7 bc 23 40 3c 3d 35 01 d5 bb 86 4c 61 3c
       -0.028317338 0.045959603 -0.006500388 0.013751155
000120 fe d6 ca bc eb ab 12 bd 6a 60 cb bc f3 07 32 bd
       -0.02476072 -0.035808485 -0.024826247 -0.043464612
000130 56 dc 0e bd 58 1b 9b 3c b2 92 2a bd ce 8d 26 bd
       -0.034878097 0.018933937 -0.041643806 -0.04066258
000140 0d 92 0e 3d b7 3a 46 bd 24 e6 c1 bc 0f 31 d6 bc
       0.034807254 -0.04839584 -0.02366931 -0.02614644
000150 c1 35 cc 3c 84 f7 2e bd 28 94 34 3d ee e9 79 bd
       0.024927976 -0.042716518 0.044086605 -0.06101411
000160 65 f3 0b 3a a9 7f 55 3c 04 ba 9e 3b 5d 36 18 bd
       0.0005338698 0.013030925 0.004843952 -0.03716122
000170 c7 ff 03 bd 4e a4 1a 3d 1f a5 b3 3b db e8 94 bd
       -0.03222635 0.03775435 0.0054823305 -0.07270976
000180 76 8b 38 3d c3 0b 2b 3d 81 c8 16 bd b0 95 d0 3c
       0.045054875 0.041759264 -0.03681231 0.025462002
000190 90 cb a9 bc ed 45 6a 3c f2 63 b7 3c cc 74 ca bc
       -0.020726949 0.014298898 0.022386525 -0.024713896
0001a0 ec ed e5 bb 0e 15 25 bd ae f6 2d bc b5 4d 91 3c
       -0.007016888 -0.040303282 -0.010617895 0.017737249
0001b0 a7 bc 36 bd b5 c6 ad bc 0b 3f 77 bc dd d2 50 3d
       -0.044613507 -0.021212915 -0.015090714 0.050982345
0001c0 e6 cd 30 3d 2f e8 90 3c 28 60 09 bd cc f8 a9 bc
       0.04316511 0.017688839 -0.033538967 -0.020748518
0001d0 f0 44 5b bd be f3 5d bc c7 a2 e0 bb de 64 3f bb
       -0.05353254 -0.013546882 -0.006855342 -0.0029204409
0001e0 70 d1 ae 3c 7a 11 cc 3c 26 8e 29 bc cf 91 c2 bc
       0.021340102 0.024910677 -0.010348832 -0.023751168
0001f0 0e c7 b9 ba bc 70 0e bb 96 2e db bc e9 d6 a5 3c
       -0.0014173703 -0.0021734675 -0.026755612 0.020244079
000200 dd c2 33 ba 7c 8f 4d bd a2 97 c4 bb dc a1 c6 3c
       -0.0006857345 -0.050185665 -0.0059995214 0.024247102
000210 fc 85 3d 3d 30 97 22 3d 08 24 0f 3b 08 a7 df 3c
       0.046270356 0.039694965 0.0021841545 0.027301326
000220 99 1d d4 3c f1 06 40 3d 1f 6e 15 3c 56 02 55 bd
       0.02589302 0.04688162 0.009120493 -0.05200418
000230 60 92 a4 bc 66 3a 03 3c f4 08 b3 ba 5a 19 dd 3c
       -0.020089328 0.008009529 -0.0013659284 0.026989628
000240 f7 4e 61 bd 8a 7c 21 bd 39 cf 5c ba 88 db a1 bc
       -0.055006947 -0.03942541 -0.00084232126 -0.019758001
000250 95 87 a6 3c d6 5e 32 3d 4c 6d 4c bd ab dd 27 3d
       0.020328322 0.043547474 -0.04990892 0.040982883
000260 d9 53 90 bc 58 64 06 bd 4e e2 6f 3d f7 90 0a 3d
       -0.017618107 -0.03281054 0.05856543 0.033829655
000270 2a 00 f3 3c 9b fc 5c 3d e5 e5 00 bc 0a 29 08 3d
       0.029663164 0.05395184 -0.007867311 0.033242263
000280 29 8d 38 3d 24 53 e6 bc ee af ed bc 1e 41 21 bc
       0.045056496 -0.028115816 -0.029014554 -0.009842185
000290 33 89 46 3a 54 ae 9b 3c cc 8e e9 3c f8 44 65 3c
       0.0007573545 0.019004025 0.028510474 0.013993494
0002a0 20 fc 63 3c a4 05 2e 3d f1 ae 21 bd bc f1 91 3b
       0.013915092 0.042485848 -0.039473478 0.004453866
0002b0 ce 66 4d bc e3 83 56 3c 3a 7a 58 bc 0b ec 24 3d
       -0.012536718 0.013092968 -0.013212735 0.04026417
0002c0 a8 6e 72 bc 98 96 e6 3a e5 35 f9 3c 3c a7 b2 3c
       -0.01479689 0.0017592488 0.030421207 0.02180826
0002d0 1a 91 c3 3c 37 db d7 3c 24 00 fd bb 3a 83 fd bc
       0.0238729 0.026349647 -0.007720964 -0.030946363
0002e0 10 85 5f bd 7a ce 4c bb 4f 84 8e bc ab 5e 14 bc
       -0.054570258 -0.0031251 -0.017397074 -0.009055774
0002f0 d2 d6 56 3d 46 d9 c8 3c 29 57 8d bc 18 b7 4e bd
       0.052450962 0.024517667 -0.017253475 -0.05046758
000300 d7 ac dc 3c 4e ca e1 b9 7a 95 33 3c da ef 50 3c
       0.026937885 -0.00043066073 0.010960931 0.012752498
000310 05 d2 82 3c a0 f6 90 bc 3b 26 00 3d ee 0c 4b 3c
       0.015969286 -0.017695725 0.03128646 0.012393219
000320 cf c6 53 bb b9 62 ac bc 5a f6 14 bb 24 bb 1d 3d
       -0.0032314544 -0.021043168 -0.0022729845 0.03850855
000330 c6 da 1c bd e2 34 4c bd 2f 9f 11 bd bd e3 79 3c
       -0.038294576 -0.04985512 -0.0355522 0.015252051
000340 d2 82 97 bb 4a 1a 52 3c ff 2b e7 3b c6 86 ee 3c
       -0.0046237493 0.012823651 0.0070548053 0.029117
000350 51 32 0c bd 90 25 40 3d 05 b2 27 bd e3 34 28 bd
       -0.034227673 0.046910822 -0.040941257 -0.04106606
000360 62 b4 66 bc e4 14 08 3c 12 c5 1b 3c fd 9e aa 3c
       -0.014081093 0.008305762 0.009507434 0.020827765
000370 0e 7b 3b 3c 23 e1 01 bd bd 4a db bb 9b fe 70 bd
       0.011442913 -0.031708848 -0.006692259 -0.05883656
000380 51 6c 3f 3c b3 53 b9 3b c8 21 a7 3c 7a 7d 21 bd
       0.0116835395 0.0056557297 0.02040185 -0.039426304
000390 d6 08 17 bd 8e e2 df bc d6 a3 c3 bc 6b a4 c6 3b
       -0.03687366 -0.02732971 -0.023881834 0.0060620806
0003a0 d7 b2 0d bd 17 1f 59 3d 42 0c f5 3b 20 32 4e 3d
       -0.034594383 0.053008165 0.007478268 0.05034077
0003b0 ee 8e f5 bc ee d0 cf ba f0 39 e2 bc 94 11 a8 3c
       -0.02997538 -0.0015855113 -0.027615517 0.020516194
0003c0 b9 07 8e bc cd 68 0c bc 91 f0 22 bd d8 8b 9f bc
       -0.017337667 -0.008569908 -0.039780203 -0.019475862
0003d0 39 e3 d2 3c ad 11 34 bd 65 73 db bc 3d 30 35 bc
       0.025743114 -0.04396217 -0.026788423 -0.011058864
0003e0 4b 18 b9 bc 9f b8 00 3d d7 a3 74 3b 76 df f4 3c
       -0.022594592 0.03142607 0.0037329101 0.02989171
0003f0 e6 67 85 bc 2f 54 07 bc 11 50 0e 3d 45 c1 0e 3c
       -0.016284894 -0.008259817 0.034744326 0.008713071

conv1.lin_self.bias f4 [32]
000000 b4 4a 98 3b d5 4e 39 3d 9e 00 44 3c ef a2 20 bd
       0.004647577 0.045241196 0.011963038 -0.039217886
000010 24 30 8f 3c 73 c7 1e bd 0c c5 d6 bb da 5d 39 3c
       0.01747901 -0.03876443 -0.0065542515 0.01131388
000020 98 25 83 3d 46 71 25 3d e8 23 7e bc d3 67 67 bc
       0.06403655 0.04039123 -0.01551149 -0.014123875
000030 10 25 1f bd 39 d3 31 bd e2 71 a1 bc fd a0 cf bc
       -0.038853705 -0.04341433 -0.019707624 -0.02534532
000040 26 3a 69 3d 68 53 ef 3b 8d bc 10 3c bc ae d7 bc
       0.05694022 0.007303644 0.0088340165 -0.026328437
000050 69 c8 5d ba 63 99 1a bd de b4 2f bc 7e 02 8b 3c
       -0.00084603444 -0.037743937 -0.010724274 0.016968962
000060 6f c0 80 bb 24 18 30 bc 03 9c 19 bb b1 61 b3 3c
       -0.00392919 -0.010747943 -0.0023438937 0.021897169
000070 7f c5 74 3c ed 5e a4 bc eb df 1a 3c 95 97 65 3d
       0.014939665 -0.020064795 0.0094528 0.056052763

conv2.lin_neigh.weight f4 [32, 416]
000000 16 89 fa 3b 58 b3 8d bd 94 15 5e bd ff 2f 78 bd
       0.0076457364 -0.06918973 -0.054219797 -0.060592648
000010 31 0b 11 bd 27 43 46 bd f2 52 30 3d eb fb 71 bd
       -0.035411064 -0.048403885 0.043047853 -0.05907814
000020 96 d8 ef b9 31 30 4b bd 83 25 55 bd 7e 76 d9 ba
       -0.00045747 -0.049606506 -0.052037727 -0.00165911
000030 44 4e 0c bc 88 ea cc bc bd e0 37 bd e9 26 e7 bc
       -0.008563582 -0.025014177 -0.04489206 -0.028216796
000040 7d 5d 83 bd 05 a7 99 3c 9b 22 82 3c 05 04 f8 3c
       -0.06414316 0.018756399 0.015885642 0.030275354
000050 be 58 ce bc ae fb 20 bc 5d 89 2a bc 6e e2 f5 ba
       -0.0251888 -0.00982563 -0.0104087265 -0.0018759498
000060 c0 ae 22 bd 5d d0 e7 3c 96 78 e6 3c 1c f1 03 3d
       -0.039717436 0.028297598 0.028133672 0.03221236
000070 b6 76 35 3c c7 18 37 bd 9b 91 81 bd 92 c7 29 3c
       0.011075666 -0.044701364 -0.063266 0.010362523
000080 cf ed 00 bd b0 88 97 3c da 82 d7 bc 43 b1 31 bd
       -0.031476792 0.018497795 -0.026307512 -0.04338194
000090 38 48 74 bd e1 2b 17 3d 7f 54 32 3d 37 24 85 3c
       -0.059639186 0.03690708 0.043537613 0.01625262
0000a0 a7 38 16 3d 35 e8 32 3c fc d2 e2 3c 47 30 1d 3d
       0.03667512 0.01091962 0.027688496 0.03837612
0000b0 7e f2 35 bd 8b 63 08 bc ac 47 2c bc df 62 aa 3c
       -0.04442071 -0.008324514 -0.010515135 0.020799099
0000c0 71 6b 34 3a 76 b5 4d 3d 5d 08 04 bd 58 62 66 bc
       0.0006882465 0.050221883 -0.03223454 -0.014061533
0000d0 30 69 05 bc b6 59 c9 3c f7 09 68 bd e0 11 11 bd
       -0.008142754 0.02457891 -0.05665013 -0.035417438
0000e0 07 98 14 3d 76 9f 06 3d b7 6a 7c 3d 66 64 e8 3c
       0.036277797 0.032866918 0.06162521 0.028368186
0000f0 3a 42 7a 3d 75 40 3e bd da 62 96 39 f7 45 77 bb
       0.061098315 -0.04644819 0.0002868388 -0.0037730911
000100 1b 42 8e bd 13 12 c7 3b 45 ab 7f 3d 6d 4c 80 3c
       -0.06946202 0.0060751527 0.062419195 0.015661443
000110 43 5a 04 bd 7c c6 78 3d d8 0b de 3c 91 23 31 bd
       -0.032312643 0.060736164 0.027105257 -0.04324681
000120 60 a9 bd 3c 9a f3 05 bc ac db 93 bc 09 28 66 bd
       0.023152053 -0.008175755 -0.018049084 -0.056190524
000130 45 ab 71 bd c6 91 7d 3d f8 b0 96 bb 78 ed 4c bd
       -0.059001226 0.0619066 -0.004598733 -0.050031155
000140 a2 7b ea 3c a8 ff f1 3b 58 09 6e 3d 1d 74 33 3d
       0.028623406 0.007385213 0.05811438 0.043811906
000150 d8 c5 fe 39 b9 28 4c bd 01 ec 42 bd 22 59 7a 3c
       0.0004859406 -0.049843524 -0.047588352 0.01528004
000160 cf 03 01 bd 56 9a 6c 3d dd fd b3 bc 4b 63 a8 3a
       -0.031497773 0.057764374 -0.021971637 0.0012846974
000170 80 f4 83 bc 9b f1 8d b9 be ca bc bc c4 af 1e bd
       -0.016107798 -0.00027073626 -0.023045894 -0.038741842
000180 9f 7d 09 bd 27 f8 48 bc 36 09 32 bc ce 99 b5 3c
       -0.033567067 -0.012266195 -0.010866454 0.022168066
000190 3a b3 9c bc 78 dc 2a bc db 1e 23 b9 92 3c 9e 3c
       -0.01912843 -0.01042854 -0.00015556386 0.019315992
0001a0 3a fc d2 bc 9e a9 7d bd d6 b6 79 3d 1e 4c 7f bc
       -0.025755037 -0.061929338 0.06096538 -0.015582113
0001b0 d5 ef 4c bd 46 ce c7 bc c2 e4 91 bd 8e ac 92 3d
       -0.05003341 -0.024390351 -0.0712371 0.071618184
0001c0 a3 24 db 3c 63 2c e2 3c b9 12 27 3a d0 60 2b 3d
       0.026750868 0.027609056 0.00063733343 0.041840374
0001d0 17 b6 4f bd 4b ce 9b 3c 2e 98 1f bd a3 fa 36 bc
       -0.050710764 0.019019267 -0.03896349 -0.011168155
0001e0 3e 1d f1 3c c6 10 4f 3c 5c 83 2e bc aa e5 03 3d
       0.02943289 0.012638276 -0.010651436 0.032201447
0001f0 1e fb 29 3c c1 59 35 bd 2e ff d5 3c 35 a1 0a bd
       0.010374812 -0.04427505 0.026122656 -0.033845145
000200 b1 25 d5 bc 26 01 82 bc 05 47 3f 3d 47 9c 71 bc
       -0.02601895 -0.015869688 0.04669859 -0.014746732
000210 b7 c8 0c 3d e2 2b 8d bc be ae 1e bd 30 51 f4 3b
       0.034371104 -0.017232839 -0.038740866 0.0074559674
000220 9f 89 11 bd 35 2d 55 bb 39 82 ea bc 18 48 80 bc
       -0.035531636 -0.0032528166 -0.028626548 -0.015659377
000230 e5 6a 58 bd 8f 87 00 bc 7f 03 14 bd 8f e2 8c bc
       -0.052836318 -0.00784482 -0.036136147 -0.017197875
000240 8f cc 02 bd 8b 7a a4 3c 1f 59 b3 bc 93 dd ba 3c
       -0.031933364 0.020077964 -0.021893082 0.022810733
000250 75 2f 89 3c c9 f5 44 3b 2d 3c ba bc 7c 50 82 3c
       0.016746262 0.0030053726 -0.022733772 0.015907519
000260 e9 08 ee bc 3d 98 90 bc 69 5e 00 bc ba 44 3f 3d
       -0.029056983 -0.017650718 -0.007835009 0.046696402
000270 3f 85 46 bc 18 3a 5d bd d1 ce 71 3d 10 df 02 3c
       -0.012116729 -0.05401048 0.059035126 0.007987753
000280 29 53 ca 3b 1f 12 07 bd 5b 83 a4 3c 34 64 88 3c
       0.0061744642 -0.032976266 0.020082166 0.016649343
000290 af 66 5a bb 7c 15 4b bc 76 73 57 3a 7f 7b e9 3c
       -0.0033325364 -0.012395259 0.0008218804 0.02850127
0002a0 01 9c ff 3c 8b 8a 84 bc f5 3f 23 bb 78 c3 96 bc
       0.031202318 -0.016179344 -0.0024909948 -0.018403754
0002b0 95 bf 10 3d bb d1 7f bc af 6d e1 bc be 30 47 3c
       0.035338957 -0.0156139685 -0.027518122 0.012157617
0002c0 9c 3e d2 bb 71 7a 04 bd de 35 c1 bb ab e5 a4 3c
       -0.006416155 -0.03234333 -0.005896314 0.020129045
0002d0 99 81 96 3c be 37 90 3d da 32 41 bc a1 01 da bc
       0.018372344 0.07041882 -0.011791909 -0.026612105
0002e0 ed 48 d2 bc ad 7a b8 3c f4 78 04 3d 97 2f 63 bb
       -0.02566954 0.022519434 0.032341912 -0.0034665817
0002f0 45 61 e9 3c a6 1b a6 bb 6d a6 32 3d 7b 44 bd 3c
       0.028488765 -0.005069214 0.043615747 0.023103943
000300 13 12 41 bd 35 d9 81 3c 02 49 19 bd f3 67 e1 bb
       -0.047136378 0.015850643 -0.03742314 -0.006878847
000310 2a db c3 3c 41 d8 14 3d 34 1c 37 bd 33 cc d2 bc
       0.023908217 0.03633905 -0.04470463 -0.025732135
000320 3f e3 07 3b 25 e0 95 3c 9a 5b 43 3d e9 ca 9c 3b
       0.0020734814 0.018295357 0.04769478 0.004784931
000330 92 54 e7 b9 75 f9 81 bc e3 8f 2e bd bc 76 9f bc
       -0.00044122763 -0.01586602 -0.04261769 -0.019465797
000340 b5 c1 8c 3d 7e 73 60 bd 2f 29 55 bc 96 5d 02 bd
       0.06872884 -0.054797642 -0.013010307 -0.03182753
000350 1d 2d 6a 3d 2a 83 5f 3c 6b b8 f8 3c 77 81 c9 bc
       0.05717193 0.013642112 0.030361375 -0.024597866
000360 2d 57 02 bd 46 6e 0f 3d c7 0e c5 3c f4 bd ff 3c
       -0.03182142 0.035017274 0.024054898 0.031218506
000370 01 a7 ec 3b 08 7d 32 bd 9e 86 2e ba 31 94 c7 3c
       0.007222057 -0.04357627 -0.0006657633 0.024362655
000380 1f 2c 11 bc 91 49 82 bc 50 9b ac bc 98 0d f4 38
       -0.008860617 -0.01590422 -0.021070153 0.00011637359
000390 88 61 ad bc 2a cd 78 bd 1d 91 19 bc 86 04 e7 bb
       -0.02116467 -0.060742535 -0.009372977 -0.0070501
0003a0 15 7b f7 3c 2d b8 3a bc 8c 9d 27 bd 8f f1 8d bc
       0.030210057 -0.01139645 -0.040921733 -0.017327098
0003b0 ea a2 24 bc e2 e1 c6 3c be 25 03 3d 40 18 95 3b
       -0.010048607 0.024277631 0.032018416 0.00455001
0003c0 e5 a0 45 3d 69 c2 34 3c a7 22 44 3d c4 b2 ba bc
       0.048249144 0.011032679 0.04788461 -0.02279032
0003d0 8f ae fa 3c d7 c1 21 3d 22 3b 3b bc b5 05 b2 bc
       0.030600814 0.0394915 -0.011427673 -0.021731237
0003e0 75 ba e9 3c a3 10 55 3d 14 09 c5 bc e4 86 12 bd
       0.028531292 0.05201782 -0.02405218 -0.035773173
0003f0 3c c1 ad bc 25 c3 ba bc cf 2c 76 bb f7 f4 17 bb
       -0.021210305 -0.02279813 -0.003756333 -0.0023186782

conv2.lin_neigh.bias f4 [32]
000000 9b 09 86 3c d6 0e 81 bd e7 4a 3a bd d1 9d d1 3b
       0.016362002 -0.06301658 -0.04548159 0.006396987
000010 25 0c bf 3a 56 bd 46 bd 9f 2c 57 bd 39 d7 12 bc
       0.0014575763 -0.04852041 -0.05253279 -0.008962446
000020 0e b5 a8 3a c7 3f f7 bb c5 73 fe ba 68 0d bd 3b
       0.0012871341 -0.0075454446 -0.0019413164 0.0057694204
000030 f6 0c 39 bd 8d 15 87 bd 92 b6 16 bc a6 19 51 bc
       -0.045178376 -0.06595907 -0.009198802 -0.012762463
000040 bc 9b ce bc 00 70 63 bd 43 28 f7 bb 2a 85 7f 3c
       -0.025220744 -0.055526733 -0.0075426414 0.015595714
000050 b1 a5 ca 3b 79 4c 7a 39 8e af e7 bb 63 f0 9d bc
       0.0061843027 0.00023870346 -0.0070704883 -0.019279664
000060 c3 ed 87 bc 55 f0 04 3c a3 04 6b bc b3 8d 76 3c
       -0.016592866 0.00811394 -0.014344367 0.015048432
000070 50 22 1b bd 56 dc ae 3a 88 fd f4 bc 5e c0 c6 bc
       -0.03787452 0.0013340812 -0.02990605 -0.02426165

conv2.lin_self.weight f4 [32, 32]
000000 09 f8 41 be 53 9a e5 bc 2d f2 90 3d 05 f3 3b bd
       -0.18942274 -0.02802769 0.07077441 -0.04588606
000010 32 56 0e be 4e 92 af bd a1 bd 1c 3e 2b 3c 0e 3e
       -0.13900068 -0.08572827 0.15306713 0.1389014
000020 5a 40 bd bd 68 a9 1e 3e 70 70 ba 3d 14 aa b6 3d
       -0.0924079 0.15494311 0.09103477 0.089191586
000030 de 22 58 bd 11 96 7c 3d ec 12 03 be 4c 6d fd bc
       -0.052767627 0.061666552 -0.12800187 -0.030935906
000040 6a a7 8e 3d 7c fb 02 3e 27 d3 86 bc 90 d7 a5 3d
       0.069655254 0.12791246 -0.016458107 0.08097756
000050 b6 9e 3c be 5e dd e3 bd 63 cb 54 bc c5 c6 7a 3d
       -0.18419918 -0.11126207 -0.012987944 0.061224718
000060 2e 58 0b be ca 96 2c be 04 02 99 bd fc de ad 3d
       -0.13607857 -0.16854396 -0.074710876 0.084897965
000070 f4 83 30 be 7b 8b 98 3c 13 32 e5 bd 58 19 dc bd
       -0.17237836 0.018621197 -0.111911915 -0.107470214
000080 b3 76 70 bd 5e 22 86 bd 73 2a 1f 3d 42 77 4f 3e
       -0.05870695 -0.06549524 0.038858842 0.20260337
000090 ac b4 04 3e 8f e6 df 3c 78 94 b0 bd 66 68 a5 3d
       0.12959546 0.027331619 -0.08622068 0.08076553
0000a0 79 41 c4 bd 7f e4 bb 3d eb e7 16 3e bd 40 21 be
       -0.095828004 0.091744415 0.14736907 -0.15747352
0000b0 8d f5 4e 3e eb fd f2 bd 86 7e ed 3d a2 c7 40 be
       0.20210858 -0.11864837 0.11596398 -0.18826154
0000c0 00 d1 32 be 43 9a 11 3e ce ad 10 be 80 73 d2 3d
       -0.1746254 0.14219002 -0.14128801 0.10275936
0000d0 a2 43 43 bd 4a 02 8d bd 9c 44 32 bd c8 6f fa 3d
       -0.04767192 -0.06885202 -0.043522462 0.12228352
0000e0 b6 19 e1 3d 71 db d9 bb dd 29 85 3d fa 1b d3 3d
       0.10991232 -0.006648474 0.065021254 0.103080705
0000f0 52 bf 0c 3e ce 08 61 3d 41 82 f4 bd 38 25 27 be
       0.13744858 0.054940037 -0.119389065 -0.16322792
000100 5b 7a b4 bd 2d 1c 94 3d 9d cc ac 3b 31 0d d9 bd
       -0.088124 0.072319366 0.0052734152 -0.10598219
000110 9f 29 c3 3d bd 2a d7 3b ec 99 35 be 1d 95 ff bd
       0.09529423 0.006566374 -0.17734498 -0.12479613
000120 34 04 18 be fc 06 37 3c 13 f3 86 3d a9 02 27 bd
       -0.14845353 0.011171099 0.065893315 -0.04077402
000130 a7 79 f5 bc 53 a3 e3 bd 41 22 cd bd a8 c3 11 bd
       -0.029965235 -0.11115136 -0.10016299 -0.035586983
000140 d7 9e 9e 3d ec f1 11 be 23 91 b7 bd 5e 42 04 3e
       0.0774514 -0.14252442 -0.089632295 0.12915942
000150 a9 27 1c be 16 e3 35 bc e8 aa 1f 3e fc f4 8c 3c
       -0.15249504 -0.011101505 0.1559254 0.017206661
000160 9b eb 8e bd cd 69 1f be 18 a4 e8 bd 43 9e 35 bc
       -0.06978532 -0.15567704 -0.113594234 -0.011085096
000170 a2 ce f7 3d 31 cb 5c bd aa f1 42 be 14 31 9f bc
       0.12099959 -0.053904716 -0.190375 -0.019432582
000180 38 e6 19 bd 4a fc 1b 3e dd 0e 05 be 90 c8 05 be
       -0.03757307 0.1523296 -0.12993951 -0.1306479
000190 d9 25 f5 bc 1c 75 85 bd 40 f2 fb bd 73 06 16 be
       -0.029925274 -0.065164775 -0.12302065 -0.14650898
0001a0 a4 ed 12 3e 93 24 12 3e 84 83 3e 3c 1b ed 07 be
       0.14348465 0.14271764 0.011628035 -0.13274042
0001b0 43 ee 2f 3d fb 91 ad 3d e6 d4 e5 bd 5f dc 8f bd
       0.042951833 0.08475109 -0.11222248 -0.07024454
0001c0 98 eb 41 be 29 ce 9b 3c 31 34 0a 3e da a3 af bd
       -0.18937528 0.019019203 0.13496472 -0.08576174
0001d0 7c 3f 42 bb 68 3b a1 bd ec 36 81 bd eb 9b d3 3d
       -0.002963989 -0.07872659 -0.06309304 0.10332473
0001e0 8c af 05 be 97 6c 04 be 3d 61 14 be 88 f2 cb 3d
       -0.13055247 -0.12932049 -0.14490218 0.099583685
0001f0 01 6b 03 bd f6 6b c3 3d 36 d1 6e bd 7e 4d cb bd
       -0.03208447 0.09542076 -0.058304988 -0.0992689
000200 94 08 07 be 00 6a 2c bd 83 0f 8f bd 78 fb fb bd
       -0.13186866 -0.042093277 -0.069853805 -0.12303823
000210 3a 5a 87 bc d1 24 f9 bd 54 e6 7d bd f3 c6 3b bd
       -0.016522516 -0.12165225 -0.061987236 -0.04584403
000220 a9 b5 fb 3d 75 24 b9 bd 51 1a 41 be 3e 2e 08 be
       0.12290508 -0.09040157 -0.18857695 -0.1329889
000230 6a 0d c9 bd bc fb 2d be 08 15 05 3e 8a 66 02 3e
       -0.09817012 -0.1699056 0.12996304 0.12734428
000240 8d d6 3f 3d 28 97 2d 3d 4d 54 9f bd 75 f4 25 be
       0.04683547 0.042380482 -0.07779751 -0.16206534
000250 7e eb 2c 3e b4 6a fb bd 70 32 26 bc ca b5 f7 3d
       0.16886708 -0.122762114 -0.010143861 0.120952204
000260 ab d5 09 3e 47 76 1d be ee db 96 bd 23 ae 69 bc
       0.13460414 -0.1537715 -0.07366167 -0.014262709
000270 dc bd 44 be 72 8e 42 be 1d ac 3e bd 73 40 fe bd
       -0.1921305 -0.18999651 -0.04655086 -0.124146365
000280 d7 0a 1f be 20 b8 b5 bc d5 c6 bb 3d d5 22 fa 3d
       -0.15531479 -0.022182524 0.091687836 0.12213675
000290 d0 bd ee bd 57 dc 0b be 48 06 e7 bd 1f bf 9f bb
       -0.116572976 -0.13658272 -0.11280495 -0.0048750783
0002a0 fe d2 cb 3d 95 54 15 3e 1b 6a 94 3d e0 d1 28 be
       0.09952353 0.14583047 0.072468005 -0.16486311
0002b0 70 f2 24 be e7 49 02 be cc 5d 13 3d 62 e0 cd bc
       -0.16108108 -0.12723504 0.035978124 -0.025131408
0002c0 5a c1 63 3d 61 30 5c 3d 90 4f 3c be a4 a6 cd bd
       0.055604316 0.053757075 -0.18389726 -0.1004155
0002d0 65 9a 2e be db 2c cd bd f1 93 4b 3e b0 1f 47 3d
       -0.17051084 -0.10018321 0.19880654 0.048614204
0002e0 1c ba 49 be 37 9a a2 bd f3 b0 b6 bd 95 3b 34 be
       -0.19699901 -0.079395704 -0.08920469 -0.17600854
0002f0 14 38 12 be 55 91 72 bd bb 04 9a bb ea 03 de bd
       -0.14279205 -0.05922063 -0.004700271 -0.1084059
000300 3a 60 ff bd a1 04 ae bd 46 35 32 be 64 0c 1d be
       -0.12469526 -0.08496977 -0.17403135 -0.15336758
000310 01 e3 1e be 50 b7 20 3e a7 81 d6 bc 75 94 eb 3c
       -0.15516283 0.15694928 -0.02618487 0.028757313
000320 56 03 c1 bd 98 77 1b be 5a 47 0c 3e f9 e4 08 3e
       -0.094244644 -0.1518234 0.13699093 0.13368596
000330 8e 17 f7 bc 8b bc 80 bc 88 15 80 bc fd 1f 19 3d
       -0.030162599 -0.015714904 -0.015635267 0.037384022
000340 b3 51 27 3d 42 6e c8 3d 2f ff d2 3b 89 1c d5 bd
       0.0408494 0.09786655 0.0064391117 -0.10405833
000350 e5 26 1e be b2 d6 1e bc 4c 50 e5 bc 19 68 2d bd
       -0.15444525 -0.009694742 -0.02799239 -0.042335603
000360 54 b1 6c bd ab 06 99 3c 46 43 22 be 52 9f 1f be
       -0.0577863 0.018679937 -0.15845975 -0.1558812
000370 35 e5 7d 3d e6 e6 26 be 0d b2 9a 3d 6a 2c 2b be
       0.061986167 -0.16299018 0.07553492 -0.16716161
000380 33 7a 52 3d 60 d5 e3 3d 05 68 d9 bd 17 34 aa bd
       0.05138607 0.111246824 -0.10615543 -0.083107166
000390 33 e8 9d bd c8 49 41 be 00 b5 ff bd c4 2e bd 3d
       -0.07710304 -0.18875802 -0.12485695 0.092374355
0003a0 a6 2e 3e be 5f 42 93 bd 1b a9 20 3d 44 d5 2b be
       -0.18572482 -0.07190394 0.03922377 -0.16780573
0003b0 38 5b e5 bd e6 d6 2a be f7 ec fb 3d 0e bc 16 3d
       -0.11199039 -0.1668354 0.12301057 0.036800437
0003c0 88 c4 93 bb 01 79 d7 bb a7 8a dc bd e0 06 4d bd
       -0.0045095123 -0.006575704 -0.10768633 -0.050055385
0003d0 73 df 13 bd f1 57 29 be 25 b9 50 3e 55 06 98 bd
       -0.03610177 -0.16537453 0.20383127 -0.07423083
0003e0 29 b5 ec bd 61 11 19 be 52 ff 12 3d 63 df 18 3e
       -0.11557991 -0.14948036 0.035888024 0.14928965
0003f0 5d ed 8f bd 01 7b b9 3d 3b 29 2d be 2e f1 cf bd
       -0.07027695 0.09056664 -0.1691026 -0.10153423

conv2.lin_self.bias f4 [32]
000000 e5 7f 1a be 50 0b 8b 3c 30 8c 46 be 45 da b8 3c
       -0.1508785 0.016973168 -0.19389415 0.022565017
000010 47 56 08 3d f9 f7 68 3d 67 32 27 bd 10 87 5f 3d
       0.033285405 0.05687711 -0.04081955 0.054572165
000020 f8 93 a7 3d 21 80 b2 3a 4e b1 0f be 54 ec 98 bd
       0.0818252 0.0013618508 -0.1403248 -0.07466951
000030 39 2c 34 be 8a a9 e9 bb bd 66 2c bd 2a 51 c8 bd
       -0.17594995 -0.0071308063 -0.042090166 -0.09781106
000040 b7 80 09 3e ca 85 cb 3d ca e8 12 be ae aa 80 3d
       0.13428007 0.099376276 -0.14346614 0.062825546
000050 21 c6 ba bc d7 7d e0 3c f4 8e a8 3d 7a d3 93 bc
       -0.022799553 0.027403755 0.08230391 -0.018045176
000060 22 03 62 3d d6 66 04 be 54 2e f9 bd d9 26 d2 bc
       0.05517877 -0.12929854 -0.121670395 -0.02565329
000070 20 b4 36 3c 6b 5f 2b be a4 49 ad bc 71 06 60 bd
       0.011151344 -0.16735618 -0.021153279 -0.054693643

bn1.weight f4 [32]
000000 63 d7 82 3f c0 ee 78 3f 9f 9f 7d 3f 1d 0d 84 3f
       1.0221981 0.97239304 0.9907169 1.0316502
000010 80 b4 79 3f ac eb 79 3f 32 8f 82 3f b3 4d 7d 3f
       0.97541046 0.9762523 1.019995 0.98946685
000020 4a 21 77 3f 94 be 7a 3f 94 7d 7a 3f d2 87 83 3f
       0.9653517 0.9794705 0.97847867 1.0275824
000030 76 a8 82 3f 4e 5b 83 3f 2b fe 81 3f 77 ff 7a 3f
       1.020766 1.0262239 1.0155691 0.9804606
000040 a4 d2 78 3f 29 9c 7a 3f 69 56 84 3f 21 87 83 3f
       0.9719641 0.9789453 1.033887 1.0275613
000050 53 3e 7b 3f a1 1e 84 3f 86 a9 83 3f bf 56 7c 3f
       0.98141974 1.0321847 1.028611 0.98569864
000060 e9 7b 7d 3f 3d ab 7c 3f 1f 90 80 3f 1d e7 7e 3f
       0.99017197 0.9869879 1.0043982 0.995714
000070 a5 34 79 3f d3 34 7a 3f 7f 07 7e 3f f0 6b 7c 3f
       0.97345954 0.97736853 0.9923019 0.986022

bn1.bias f4 [32]
000000 5f 49 c4 3c 50 a0 e7 bc 3c 44 bf bb ef 7a bb 3c
       0.023960767 -0.028274685 -0.0058369916 0.022885768
000010 a7 c6 c1 bc ff 3c c1 bc 69 3d be 3b d6 a1 26 bc
       -0.023654295 -0.023588656 0.0058056605 -0.010170421
000020 7f c0 02 bd 48 cd e6 bc 49 a3 9e bc 2f 6a d1 3c
       -0.03192186 -0.028174058 -0.01936497 0.025563328
000030 49 48 51 3c 35 b5 89 3c 52 bf 72 ba ca 9e c6 bc
       0.012773582 0.016810039 -0.00092600763 -0.024245638
000040 d0 36 fb bc d4 2c a5 bc 92 ef 08 3d 69 91 e0 3c
       -0.030665785 -0.020162977 0.033431597 0.027413087
000050 91 97 00 bd 66 d9 e0 3c 6c ec fb bb 5d 00 dc bc
       -0.031394545 0.027447414 -0.007688096 -0.026855642
000060 ee 44 92 bb 7f 9f 25 3b bc bf 86 3c e1 15 e9 bc
       -0.0044637835 0.002527207 0.016448848 -0.028452815
000070 c1 95 da bc 10 97 a4 bc 2b 67 b0 3b 72 4a f5 bb
       -0.026682736 -0.020091563 0.0053833923 -0.007485681

bn1.running_mean f4 [32]
000000 a0 6d 3d 3d f4 32 3b 3e 9d 2e 9a 3d 7c 0d d7 3a
       0.046247125 0.18281156 0.07528422 0.0016407217
000010 8b 4a c7 3d 50 87 b1 3b 2b 43 e8 3b 94 bd 2a 3d
       0.09731015 0.005417742 0.007088085 0.041684702
000020 6e e4 1a 3e 33 88 84 3d 66 2b 92 3b 9b 0e 7f 3b
       0.15126202 0.064712904 0.00446074 0.0038918618
000030 0b b9 44 3b 95 6e fa 3b e0 b3 53 3b 9c 1b ee 3c
       0.003001752 0.007642577 0.0032303259 0.0290659
000040 53 a2 9b 3d aa 22 f3 3d 66 ab 73 3d 58 88 4e 3b
       0.0759932 0.11871846 0.05948963 0.0031514373
000050 96 76 5e 3d ef a7 da 39 f8 a2 a8 39 0e 93 67 3d
       0.05431231 0.0004170532 0.00032164878 0.056536727
000060 78 da c1 3d 4c 19 a1 3d 7e 7f ba 3d 1f 62 b2 3c
       0.09465498 0.07866153 0.091063485 0.021775303
000070 6c e8 c9 3d 91 e8 3f 3d af ea f3 3d 12 0c 25 3e
       0.09858784 0.046852652 0.11909997 0.16117886

bn1.running_var f4 [32]
000000 d5 4f 89 3c 56 96 e8 3c 9e a3 94 3c 90 bf 5d 3c
       0.0167617 0.028391998 0.018144425 0.013534442
000010 58 05 a9 3c 1a 79 66 3c 74 0f 84 3c 17 5f 88 3c
       0.02063243 0.014066959 0.01612065 0.016646905
000020 d5 b0 c9 3c fc dd 97 3c 91 dc 73 3c 9d 1c 6f 3c
       0.024620453 0.018538468 0.01488413 0.014594224
000030 8a 20 62 3c 0b 2c 7b 3c e1 b0 5f 3c 88 f6 87 3c
       0.013801703 0.015330325 0.013653011 0.016597047
000040 24 78 90 3c e8 aa a3 3c db f4 8e 3c 30 d7 69 3c
       0.017635413 0.019978955 0.01745074 0.014272496
000050 dd e8 99 3c 39 3f 5b 3c 54 ad 5a 3c 0e b4 97 3c
       0.018787796 0.013381773 0.013346989 0.018518474
000060 70 a0 9d 3c 75 86 8c 3c 7c ef 93 3c 35 89 8c 3c
       0.019241542 0.017153958 0.018058531 0.01715527
000070 41 c7 8a 3c f6 5c 9a 3c 89 9c b0 3c 69 37 a9 3c
       0.016940715 0.018843155 0.021559017 0.020656304

bn2.weight f4 [32]
000000 ed 06 79 3f ac 36 78 3f 86 c9 7a 3f 3b 87 75 3f
       0.9727619 0.9695842 0.9796375 0.9590947
000010 eb 7c 77 3f db d3 77 3f 70 69 7a 3f b0 1d 78 3f
       0.96674985 0.9680764 0.97817135 0.969203
000020 90 5b 77 3f 70 e8 78 3f 71 14 79 3f 3b 05 79 3f
       0.9662409 0.9722967 0.97296816 0.97273606
000030 82 70 76 3f f1 b7 78 3f 54 70 78 3f 50 7a 77 3f
       0.96265423 0.9715567 0.970464 0.9667101
000040 fc 67 76 3f 4c e8 76 3f 5f ff 78 3f 73 ef 78 3f
       0.9625242 0.96448207 0.97264665 0.9724037
000050 f5 5a 77 3f 3a 95 78 3f 1e 88 78 3f 4f fa 78 3f
       0.96623164 0.971027 0.970827 0.9725694
000060 91 a0 78 3f 71 ee 75 3f 6a da 78 3f 31 67 78 3f
       0.97120005 0.9606696 0.97208273 0.9703246
000070 e7 e5 77 3f 3b 31 76 3f 70 f4 78 3f ec 5c 7a 3f
       0.9683518 0.9616887 0.9724798 0.9779804

bn2.bias f4 [32]
000000 ed 92 af bc fe 88 f6 bc f2 bb 92 bc 31 8e 12 bd
       -0.021432364 -0.03009462 -0.017911885 -0.035780136
000010 71 c0 25 bd ad 1b 28 bd ff 8b 93 bc 54 81 2b bd
       -0.04046673 -0.04104202 -0.018011091 -0.041871384
000020 be 1d 01 bd 91 23 c2 bc e9 7c b8 bc 66 cf c9 bc
       -0.031522505 -0.0236986 -0.0225205 -0.024635028
000030 1a 04 d5 bc 1b 5f e3 bc c1 92 cb bc 78 ef ef bc
       -0.026002932 -0.02775531 -0.024850251 -0.029288992
000040 4e 3a 19 bd b1 4f 1f bd fb ad b2 bc 90 0e cb bc
       -0.03740912 -0.03889436 -0.021811476 -0.024787217
000050 a1 94 05 bd e9 06 fc bc ea a4 f4 bc 61 6d c9 bc
       -0.032612447 -0.030765014 -0.029863793 -0.024588289
000060 c9 27 f8 bc 6f 34 00 bd e8 97 cb bc bb 15 dc bc
       -0.030292409 -0.031300005 -0.024852708 -0.02686583
000070 6d 86 77 bc 37 04 07 bd 67 35 bf bc 69 ff 8f bc
       -0.015107733 -0.032963004 -0.023340894 -0.017577844

bn2.running_mean f4 [32]
000000 ba db 83 3d 7b b5 b4 3d 84 dd ae 3b 0d 61 c5 3d
       0.06438394 0.08823677 0.0053364653 0.096376516
000010 91 87 04 3d e7 4f da 3c 5e 45 4a 3b c2 a4 00 3d
       0.03235585 0.026649429 0.00308641 0.031407125
000020 10 ac 0c 3e 69 90 75 3c 9d ed 19 3b 01 02 e4 3b
       0.13737512 0.014988043 0.0023487576 0.0069582467
000030 ad 4b 88 3d bf d7 5b 3c 36 7a b9 3b ff 9e dc 3d
       0.06655059 0.013418137 0.0056603206 0.107725136
000040 42 56 00 3e 4a c5 bc 3d a4 a6 2e 3b 40 a4 de 3d
       0.12532905 0.092173174 0.0026649619 0.10871172
000050 3a 58 5f 3e 2a 96 f1 3c ab 2b b6 3d 7e dc 4c 3d
       0.21811 0.02949055 0.08895048 0.050014965
000060 2f 15 71 3d 66 22 90 3d 9a 5a 80 3c d8 b3 c8 3d
       0.058858093 0.07037811 0.015668202 0.097999275
000070 0b a0 6f 3d 62 01 7a 3d 48 bb f2 3b 16 a5 03 3b
       0.05850224 0.061036475 0.0074075796 0.0020087413

bn2.running_var f4 [32]
000000 a0 f9 d2 3e 86 42 ad 3e dc f3 f2 3c 52 75 da 3d
       0.41206074 0.33839816 0.029657297 0.10666908
000010 be 0b 31 3d 61 85 47 3d 3a af 8b 3c ec e2 5e 3d
       0.04322409 0.048711184 0.017051328 0.05441563
000020 e0 26 12 3f 39 50 1f 3d 01 0d 7f 3c 44 ec 05 3d
       0.5709057 0.038894866 0.015567065 0.032696024
000030 48 71 6b 3e 16 e8 1d 3d 30 f4 99 3c e0 c8 ce 3e
       0.22992432 0.038551413 0.018793195 0.4038763
000040 03 b3 54 3e e4 6c d9 3d 20 6d 7f 3c 6f da 26 3f
       0.20771413 0.10616472 0.015589982 0.65177053
000050 88 d4 3a 3f 93 f1 66 3d 0d 68 9a 3e aa 18 67 3e
       0.72980547 0.056382727 0.3015751 0.22568002
000060 42 77 16 3e 79 e7 ea 3d 1c ad 65 3d 36 10 38 3f
       0.14693931 0.11469931 0.056073293 0.71899736
000070 de 2c 11 3e 16 03 8d 3d 07 72 91 3c fc ee 74 3c
       0.14177272 0.06885354 0.017754568 0.014949556
