saved_weights/29-08-23-01.pth (torch, 765624 bytes, 16 tensors)

conv1.lin_neigh.weight f4 [128, 769]
0	0x3d85f4db	0.06540843
1	0xbc979f05	-0.018508444
2	0xbd21433e	-0.039370768
3	0xbb82474e	-0.0039757853
4	0x3bd34593	0.006447503
5	0x3c416eb9	0.0118061835
6	0xbd40091f	-0.0468837
7	0x3c83c280	0.016083956
8	0x3d8a934f	0.06766378
9	0x3bb51b95	0.0055269697
10	0x3ba9b1e5	0.0051786774
11	0x3ca6fbb3	0.020383691
12	0xbd231b79	-0.03982112
13	0xbd235094	-0.039871767
14	0xbcd5c6a8	-0.026095703
15	0xbd51706f	-0.051132616
16	0xbbf9a724	-0.0076188017
17	0x3b67c9aa	0.0035368004
18	0xbcbc87d3	-0.023013985
19	0x3bc635f3	0.0060489117
20	0xbd21c381	-0.039493088
21	0xbdd33b99	-0.10314102
22	0xbb5c353d	-0.0033601068
23	0x3d53e0f6	0.05172821
24	0xbbe2c601	-0.0069205766
25	0x3d8723ea	0.06598647
26	0x3c5da8e5	0.013529037
27	0x3d37ca8d	0.0448709
28	0x3c5b7c79	0.013396376
29	0xbcb47418	-0.022028014
30	0xbd88b1a6	-0.06674509
31	0x3d346f5d	0.044051517
32	0xbae422f8	-0.0017405441
33	0x3b4b0df2	0.0030983654
34	0xbc428a4b	-0.011873792
35	0x3d6e55e7	0.05818739
36	0x3cd309d5	0.025761524
37	0xbc278828	-0.010225333
38	0x3b69a7f2	0.0035653082
39	0x3d1ce01a	0.038299657
40	0x3d492983	0.049111854
41	0xbcb52573	-0.022112584
42	0xbd0b8b23	-0.034068238
43	0xbc2f24aa	-0.010689894
44	0x3c99ab68	0.01875849
45	0xbbb2b478	-0.0054536425
46	0x3d15b1aa	0.036546387
47	0xbd32d405	-0.04365923
48	0xbd3121dc	-0.04324518
49	0x3d182d2e	0.03715246
50	0x3cf045e6	0.029330205
51	0xbc6a7124	-0.014309201
52	0xbda8b4b4	-0.082375914
53	0xbd554b4b	-0.052073758
54	0x3bfca785	0.0077103996
55	0x3d2c546e	0.042072706
56	0x3c816412	0.015794788
57	0x3b3c9900	0.0028777719
58	0x3ab06b8e	0.0013459788
59	0x3bd531f7	0.0065062004
60	0x3cf135be	0.029444572
61	0x3d38d6fe	0.045126908
62	0xbd1c6238	-0.038179606
63	0xbc8addaf	-0.01695141
64	0x3d2f14c8	0.042744428
65	0x3cd867fc	0.026416771
66	0xbc78f19a	-0.015194321
67	0x3b966e03	0.004590751
68	0x3d43eb07	0.04783156
69	0x3ccdc210	0.02511695
70	0xbd350319	-0.044192407
71	0x3d61886e	0.05506175
72	0xbd407f31	-0.0469963
73	0xbccec78f	-0.025241641
74	0x3d4079a0	0.04699099
75	0x3d3d1004	0.04615785
76	0xbb8775cd	-0.004133916
77	0x3cc9022c	0.024537168
78	0x3d6a0b42	0.057139643
79	0x3ce72ccc	0.028219603
80	0x3c798566	0.015229559
81	0x3c92d21c	0.017922454
82	0x3b13e94a	0.002256947
83	0xbcc6c3ce	-0.024263289
84	0x3d09dce4	0.033657923
85	0xbb9cb4ad	-0.0047822804
86	0x3c837af2	0.016049836
87	0x3ce74b01	0.028234007
88	0x3ca82c9c	0.020529084
89	0x3d026910	0.031838477
90	0xbd16a016	-0.036773764
91	0xbcfae4ca	-0.030626673
92	0xbcc555d0	-0.02408877
93	0xbd5d86c6	-0.054083608
94	0x3c680353	0.014160949
95	0x3cc4b189	0.024010437
96	0x3ce26d5c	0.027640037
97	0xbd6584f6	-0.056035005
98	0xbceca23f	-0.028885959
99	0xbd1be717	-0.03806218
100	0x3cd5cd06	0.02609874
101	0xbd18188c	-0.037132785
102	0x3c753380	0.014965892
103	0xbc0b589e	-0.008505015
104	0xbbb482b9	-0.0055087474
105	0xbd270b4e	-0.040782265
106	0x3d0d9912	0.034569807
107	0xbb088973	-0.002083388
108	0xbb94cfaa	-0.004541357
109	0xbb91a53a	-0.0044447454
110	0x3dcf5191	0.101229794
111	0xbabbafdb	-0.0014319377
112	0x3c9c4425	0.019075463
113	0x3bfb858e	0.007675833
114	0xbd2aaf1c	-0.041670904
115	0x3c62394a	0.013807604
116	0x3d0e9850	0.034813225
117	0x3d867a0c	0.06566247
118	0x3c590974	0.013246883
119	0x3d6e88b1	0.058235828
120	0xbbb2c1d4	-0.005455235
121	0xbbfee8dc	-0.007779224
122	0x3d0a5080	0.033768177
123	0xbd1dec61	-0.038555507
124	0x3cb17a22	0.021664683
125	0xbd7e66f7	-0.062109914
126	0xbd7b0971	-0.0612883
127	0xbd066e86	-0.032820247
128	0x3932261e	0.00016989603
129	0x3c9332d0	0.017968565
130	0x3adbb6ed	0.001676289
131	0x3c9004dd	0.017580444
132	0x3ca307fd	0.01990127
133	0xbb5a9f36	-0.0033359057
134	0x3b601f68	0.0034198407
135	0xbd2d8dd6	-0.042371593
136	0xbd82c9cc	-0.06386146
137	0xbd8071e3	-0.06271722
138	0xbc6731cc	-0.014110994
139	0xbd35bf35	-0.044371802
140	0xba5f0939	-0.0008508149
141	0xbcd8c0b8	-0.026459083
142	0xbd4a412b	-0.049378555
143	0x3c43c432	0.011948632
144	0xbc5416f6	-0.012944927
145	0xbd068e54	-0.03285058
146	0x3dccb8d6	0.09996192
147	0xbd82ef4a	-0.06393297
148	0x3d159645	0.03652026
149	0xbcea8749	-0.028628962
150	0x3d404b39	0.046946738
151	0xbd49fc23	-0.049312722
152	0x3d3d8d05	0.046277065
153	0xbcc006e2	-0.023440782
154	0xbd0a4c9d	-0.03376447
155	0xbc8dd2df	-0.017312465
156	0xbbed4388	-0.0072407164
157	0x3d4e55c2	0.050374754
158	0xbbe2e459	-0.006924194
159	0x3d855296	0.06509893
160	0x3d342941	0.043984655
161	0xbd508df1	-0.050916616
162	0xbce47ed3	-0.027892506
163	0xbcb76791	-0.022388251
164	0xbd5388fe	-0.051644318
165	0xbab7375d	-0.0013978292
166	0xbbec53fc	-0.00721216
167	0xbc980fd2	-0.018562231
168	0x3dba777b	0.0910482
169	0xba8017d7	-0.000977273
170	0x3cde6cb1	0.027151437
171	0x3a602235	0.0008550019
172	0x3da000a2	0.07812621
173	0x3d51de08	0.051237136
174	0x3c80ff99	0.015746878
175	0x3d507cda	0.050900318
176	0x3c81e307	0.015855325
177	0x3d58aa83	0.052896988
178	0xbd934e84	-0.0719271
179	0xbd14ff5b	-0.03637634
180	0xbd4729bb	-0.04862378
181	0xbcf62ffb	-0.030052176
182	0x3d858370	0.0651921
183	0x3d87350c	0.06601915
184	0x3bd9c0e6	0.0066453097
185	0xbd29b35f	-0.041430827
186	0x3cd63cf9	0.02615212
187	0x3d7aaa35	0.06119748
188	0xbc5b5b6a	-0.013388494
189	0x3c910d9c	0.017706685
190	0x3d63d17a	0.055619694
191	0xbcb1eb18	-0.021718547
192	0xbccb4c82	-0.024816755
193	0x3d134d8d	0.03596263
194	0xbd914230	-0.070927024
195	0xbdba6320	-0.09100938
196	0x3b75bd55	0.0037496884
197	0x3d89e312	0.06732763
198	0x3d436e86	0.047712825
199	0xbd418ab6	-0.047251426
200	0xbced6377	-0.028978093
201	0x3d23577a	0.039878346
202	0x3cf8d1ae	0.03037342
203	0xbd1569c4	-0.03647782
204	0xbbf183f4	-0.0073704664
205	0xbcd349a2	-0.025791947
206	0x3d2d8b6d	0.042369295
207	0xbd367dc8	-0.044553548
208	0xbb273869	-0.00255158
209	0xbcf2e543	-0.029650336
210	0xbdc60fe5	-0.096710004
211	0xbd56bf65	-0.05242862
212	0x3ccecca4	0.025244065
213	0x3cb29e43	0.02180398
214	0x3d402815	0.046913225
215	0xbd3282be	-0.043581717
216	0xbd9f7992	-0.077868596
217	0xbd5f24a0	-0.054478288
218	0x3d227e73	0.039671373
219	0xbd89c878	-0.067276895
220	0x3cb42c91	0.021993907
221	0xbca4a78e	-0.020099428
222	0x3ca1829d	0.019715602
223	0xbd4cc98c	-0.049996898
224	0xb784088c	-1.5739606e-05
225	0x39dcd01b	0.0004211672
226	0xbcc98621	-0.02460009
227	0xbcdab5d7	-0.026698036
228	0x3d8ef04d	0.069794275
229	0xbb52c309	-0.0032159707
230	0x3d353f5c	0.044249877
231	0xbc428f63	-0.011875006
232	0x3bd8e16d	0.0066186697
233	0xbc7eea33	-0.015558767
234	0x3d2991c9	0.041398797
235	0x3c96e78e	0.01842096
236	0xbd146e9c	-0.036238298
237	0x3cdfb915	0.027309934
238	0xbbc17a20	-0.005904451
239	0xbc2dd66f	-0.010610207
240	0x3d7dbe06	0.0619488
241	0x3cfb4e2e	0.030676927
242	0x3d1a04aa	0.037602104
243	0xbd567a6c	-0.052362844
244	0x3c3606c1	0.011110009
245	0xbce9a7b8	-0.028522357
246	0x3ce09d83	0.027418857
247	0xbd9d416b	-0.07678493
248	0xbd72c746	-0.059272073
249	0xbcfc812e	-0.030823316
250	0x3dab2235	0.08356134
251	0x3cc2bfc9	0.02377309
252	0x3acebbee	0.001577256
253	0xbccdcdfa	-0.025122631
254	0xbd877d28	-0.066156685
255	0xbb9f3ce9	-0.004859556

conv1.lin_neigh.bias f4 [128]
0	0x3da2191c	0.079149455
1	0x3c8f47b8	0.017490253
2	0x3db701a7	0.08935862
3	0x3d8f78f0	0.07005489
4	0xbdcde717	-0.100538425
5	0x3da86fa6	0.0822442
6	0xbd7c50a0	-0.061600327
7	0x3ca893a7	0.020578219
8	0x3b1ed712	0.0024237079
9	0xbd5b8307	-0.053591754
10	0xbda5d9d6	-0.080981895
11	0x3c841ffe	0.016128536
12	0x3cc64b08	0.0242057
13	0x3e2a7be5	0.16648825
14	0x39cbc7ac	0.00038867944
15	0x3def0dc2	0.11672546
16	0x3c954440	0.01822102
17	0x3dd0aab0	0.10188806
18	0x3c9b9f42	0.018996838
19	0x3d291f63	0.0412897
20	0xbd209215	-0.039201815
21	0x3d30c8d0	0.04316026
22	0x3d10548b	0.035236876
23	0x3c6c04f1	0.014405475
24	0x3d96e418	0.07367724
25	0xbb0b37d2	-0.0021242988
26	0x3dce8626	0.100841805
27	0xbd40b1c6	-0.047044538
28	0xb92aa539	-0.00016274014
29	0xbaf8a2bb	-0.0018969396
30	0x3c46776a	0.0121134315
31	0x3d14b2e4	0.036303416
32	0xbcebd329	-0.028787212
33	0x3dd9aa41	0.106281765
34	0x3da827f1	0.08210743
35	0xbd1bae63	-0.038008105
36	0x3c47fd39	0.012206369
37	0x3db47c45	0.08812765
38	0xbdd2c457	-0.10291355
39	0x3da8c0bf	0.082398884
40	0x3c7d2050	0.015449598
41	0xbd4dd8df	-0.050255653
42	0xbb90b4c2	-0.0044160793
43	0x3d2958a2	0.041344292
44	0xbaa6474d	-0.0012686044
45	0xbcb08748	-0.021548882
46	0x3cb2fde2	0.021849576
47	0x3aa52a44	0.0012601097
48	0xbde60813	-0.11232009
49	0x3d8aabe4	0.06771067
50	0xbd8eb84e	-0.06968747
51	0x3d03c650	0.032171547
52	0x3cede7ba	0.02904116
53	0x3dc6f90f	0.09715473
54	0x3d2efd82	0.042722233
55	0x3dacc84d	0.08436642
56	0x3c5beb7c	0.013422843
57	0x3d87358b	0.066020094
58	0x3d5edd31	0.054410163
59	0x3d93b171	0.07211579
60	0x3cc87e0b	0.024474164
61	0x3d73f177	0.05955645
62	0x3e0561aa	0.13025537
63	0x3d7f9fb9	0.062408183
64	0x3d8afa44	0.06786016
65	0x3d699144	0.0570233
66	0xbdad5423	-0.084633134
67	0xbc9c7809	-0.019100206
68	0x3d0f6167	0.035005
69	0xbcd6fa8d	-0.026242519
70	0x3d131fb0	0.03591889
71	0x3d9f179f	0.07768177
72	0xbbf091da	-0.0073416056
73	0xbd477349	-0.04869393
74	0xbd8cc3af	-0.06873261
75	0x3d0e0098	0.034668535
76	0x3d0a9f40	0.03384328
77	0x3dab9cbc	0.08379504
78	0xbd2345d0	-0.0398615
79	0xbcaf033a	-0.021363843
80	0xbca2c8a6	-0.019871067
81	0x3db8a340	0.090155125
82	0xbd26821e	-0.040651433
83	0x3c951d3c	0.018202417
84	0xbd0feac3	-0.035135996
85	0x3b834345	0.004005822
86	0xbddd85a2	-0.10816504
87	0xbbeb03bb	-0.0071720756
88	0xbd1ccb5d	-0.03827988
89	0x3d3f9182	0.046769626
90	0x3d5b38fd	0.053521145
91	0x3dd89923	0.105760835
92	0xbc85a06e	-0.01631185
93	0x3d9a9057	0.07547062
94	0x3dd35faf	0.103209846
95	0xbc64ecd5	-0.013972481
96	0xbd572187	-0.05252221
97	0xbb5a7ec4	-0.0033339718
98	0x3cb8a0c8	0.022537604
99	0xbdfe204e	-0.124085054
100	0x3d82fb25	0.06395558
101	0x3d8a5be3	0.06755807
102	0x3d76c9c5	0.060251016
103	0x3d30ffde	0.043212764
104	0x3d90c302	0.07068445
105	0xbd01b210	-0.031663954
106	0x3daa6d66	0.08321647
107	0x3d3d9f72	0.046294637
108	0x3da5f270	0.08102882
109	0x3dcab4b4	0.09897748
110	0x3d5da750	0.05411464
111	0x3d733399	0.05937538
112	0x3db23124	0.08700779
113	0xbd31a6b0	-0.043371856
114	0xbd657a86	-0.05602505
115	0x3dd458a4	0.10368469
116	0xbdad8d68	-0.08474237
117	0x3da00186	0.078127906
118	0x3dd46933	0.10371628
119	0x3d058706	0.03259947
120	0x3c3b4b87	0.011431581
121	0x3c06b79c	0.008222487
122	0x3dbe43b7	0.09290259
123	0x3d445c1c	0.047939405
124	0x3db19208	0.086704314
125	0x3dad31c5	0.084567584
126	0x3e10ede5	0.1415325
127	0x3d5aae55	0.053388912

conv1.lin_self.weight f4 [128, 385]
0	0x3db17cd7	0.086663894
1	0xbadfb06a	-0.0017066125
2	0xbd1bbc22	-0.038021214
3	0x3c743872	0.014906036
4	0xbb0d1871	-0.002152946
5	0x3d03e227	0.032198098
6	0xbd14deef	-0.03634542
7	0xbafc52c6	-0.0019250743
8	0x3d3e2d10	0.046429694
9	0x3cf6de07	0.030135168
10	0x3d1669b4	0.0367219
11	0xbdad69ab	-0.0846742
12	0x3cd791f3	0.026314711
13	0x3ca8b995	0.020596305
14	0xbd715a33	-0.05892391
15	0xbd8d4d7c	-0.068995446
16	0xbd6ba204	-0.057527557
17	0x3d9144ed	0.07093225
18	0x3ac7cc0e	0.0015243308
19	0x3d01c045	0.031677503
20	0xbd8b16c2	-0.0679145
21	0x3d69cf34	0.05708237
22	0x3c9117a0	0.01771146
23	0x3d811fc3	0.06304886
24	0xbd937cf7	-0.072015695
25	0x3dc3cc8c	0.095604986
26	0xbd85b174	-0.06527987
27	0x3dbf7f70	0.09350479
28	0xbcf50186	-0.029907953
29	0x3d331eee	0.04373067
30	0xbcb80af2	-0.022466157
31	0xbbbdc610	-0.005791433
32	0x3d274a3d	0.040842284
33	0xbd1f1e2f	-0.038847145
34	0x3cc4d0d9	0.024025368
35	0xbc4910a8	-0.012272038
36	0x3d4267d6	0.047462307
37	0x3dbbb63c	0.09165618
38	0xbd817c38	-0.06322521
39	0x3da8b652	0.082379
40	0x3cda47a6	0.026645493
41	0xbd0cfff5	-0.034423787
42	0x3dad37d0	0.08457911
43	0xbc6c6fcd	-0.014430952
44	0x3ce7cbcc	0.02829542
45	0x3be951b3	0.007120335
46	0xbdabddf9	-0.08391947
47	0xbd631ccf	-0.055447396
48	0xbd3f8e4a	-0.046766557
49	0xbb36e201	-0.0027905705
50	0x3cae11d5	0.021248737
51	0xbc22f6e5	-0.00994656
52	0xbd4f2b37	-0.050578322
53	0x3af534c7	0.0018707745
54	0x3b4682cf	0.003029037
55	0xbd7425dd	-0.05960642
56	0x3d2dd77d	0.042441834
57	0x3d361657	0.0444549
58	0xbca7c1c3	-0.020478135
59	0xbca459f2	-0.02006242
60	0xbcd28c20	-0.025701582
61	0x3d2af153	0.04173405
62	0x3c435b30	0.011923596
63	0x3b2a9441	0.0026028308
64	0x3d918774	0.07105914
65	0x3cbf24ca	0.023332972
66	0xbdbb29cc	-0.091388315
67	0x3d4d877b	0.050178032
68	0x3db0d172	0.086336985
69	0xbc4fcd04	-0.012683157
70	0x3bf202cd	0.007385588
71	0x3da82654	0.082104355
72	0xbcc16801	-0.023609163
73	0xbd89c4ec	-0.06727013
74	0x3d3d39a7	0.04619756
75	0x3d95958b	0.07303914
76	0x3ba54913	0.0050441115
77	0xbd867b49	-0.065664835
78	0x3dd50055	0.10400454
79	0x3d2524bf	0.040318247
80	0x3d6d2aac	0.057902023
81	0x3c1ca072	0.0095597375
82	0xbd68bb2c	-0.056819126
83	0x3c635086	0.013874179
84	0xbd92c4f4	-0.07166472
85	0xbd34e925	-0.044167656
86	0xbd080628	-0.033208996
87	0xbd2115e8	-0.039327532
88	0x3dbca9e8	0.092120945
89	0x3d6c25d6	0.05765327
90	0xbd630131	-0.055421058
91	0xbd087c13	-0.03332145
92	0xbc8ecad3	-0.017430698
93	0xbda3d84c	-0.0800024
94	0x3d981376	0.07425587
95	0xbcd3afcc	-0.025840662
96	0x3bfa8d5b	0.0076462454
97	0xbca4b8ad	-0.020107592
98	0xbd7aad93	-0.06120069
99	0x3d9e32ff	0.077245705
100	0xbb4372aa	-0.0029822984
101	0xbcfb87fe	-0.030704495
102	0xbd53aa99	-0.051676366
103	0xbd341ce2	-0.043972857
104	0xbd419518	-0.047261328
105	0x3ccc7c25	0.02496154
106	0x3b90d96b	0.0044204495
107	0x3d9863ba	0.07440896
108	0x3d398038	0.045288295
109	0xbc97a8d7	-0.018513126
110	0x3d26385a	0.040581085
111	0x3d9ac6f7	0.07557481
112	0x3d59c8b0	0.053169906
113	0xbd95eb83	-0.07320311
114	0x3d9f5678	0.077801645
115	0xbd26f25b	-0.040758472
116	0x3d257fdc	0.04040514
117	0x3da29c8a	0.07940014
118	0xbd0f5dfc	-0.03500174
119	0x3d993c23	0.07482173
120	0xbdab96ff	-0.083784096
121	0xbcfb5d33	-0.03068409
122	0x3d10a922	0.035317548
123	0xbd0a40c3	-0.033753168
124	0x3d817cdb	0.063226424
125	0xbd282757	-0.041053142
126	0xbd2cf806	-0.04222872
127	0xbd6763d4	-0.056491688
128	0x39d34a58	0.00040300447
129	0xbd539604	-0.051656738
130	0x3d7bd2be	0.061480276
131	0xbd6f7e2d	-0.05846994
132	0xbd7261bd	-0.05917524
133	0xbd647cf6	-0.055783235
134	0xbd8ee1e9	-0.06976683
135	0xbd04735f	-0.03233659
136	0x3cfab683	0.030604606
137	0xbd44deb1	-0.048063938
138	0x3cfb5c6f	0.030683724
139	0xbd714589	-0.058904205
140	0x3d6cd653	0.057821583
141	0x3c9ed75c	0.0193898
142	0x3d834cd9	0.06411142
143	0x3def22b3	0.1167654
144	0x3c3e778c	0.011625182
145	0xbd2494cc	-0.040180966
146	0x3d2c5478	0.042072743
147	0x3dad8ad9	0.08473749
148	0x3d5363ce	0.051608853
149	0x3cf87e5a	0.030333687
150	0xbd4717ff	-0.04860687
151	0x3b9b12c1	0.0047324602
152	0x3ca9290d	0.020649457
153	0x3d1bf71e	0.038077466
154	0xbd0422af	-0.03225964
155	0xbdca41d4	-0.09875837
156	0x3d6fd258	0.05855021
157	0x3d1dd62b	0.038534325
158	0xbd18b92c	-0.03728597
159	0x3decfee7	0.11572056
160	0xbc27be4e	-0.010238243
161	0xbd9055c9	-0.07047612
162	0xbd4649f7	-0.048410382
163	0x3dc5b8ec	0.09654412
164	0xbd862d80	-0.06551647
165	0xbcc00bbe	-0.0234431
166	0x3dc63c83	0.096795104
167	0x3ca565cd	0.020190144
168	0xbc8a5ac7	-0.01688899
169	0x3cb79ef0	0.022414654
170	0x3d848a21	0.064716585
171	0xbb98d82f	-0.004664443
172	0x3d7cb766	0.06169834
173	0x3d54d89b	0.051964384
174	0x3d44d9a1	0.04805911
175	0x3c9e4d7f	0.019324062
176	0x3dbffeef	0.093747966
177	0x3d704ba7	0.058665898
178	0xbd26b635	-0.04070111
179	0xbd9c0aea	-0.07619269
180	0xbcccb8a5	-0.02499039
181	0xbd2a683f	-0.041603323
182	0x3cbe9dc3	0.023268586
183	0x39793c25	0.00023768896
184	0xbd17d52e	-0.03706854
185	0x3d1be8d5	0.038063843
186	0x3d965f23	0.07342365
187	0x3d24b15b	0.0402082
188	0xbd83acfa	-0.06429477
189	0xbd1db18f	-0.03849941
190	0x3dde451d	0.10853026
191	0xbd25a980	-0.04044485
192	0xbe028d30	-0.12749171
193	0x3d02a82c	0.031898662
194	0xbd92110c	-0.07132158
195	0xbddf9fb5	-0.109191336
196	0x3d57f4db	0.052723747
197	0x3d441c1e	0.047878377
198	0xbd4db03f	-0.05021691
199	0xbd8834cb	-0.066506945
200	0xbdb1d13b	-0.08682486
201	0xbd83d64f	-0.064373605
202	0x3dc20acc	0.094747156
203	0x3d0b2fb7	0.03398105
204	0x3d5e31aa	0.054246582
205	0xbda8990a	-0.08232315
206	0x3da35bd5	0.079765
207	0xbda26510	-0.079294324
208	0x3d4dd642	0.05025316
209	0xbd271db2	-0.040799804
210	0xbda3c980	-0.079974174
211	0xbd832274	-0.06403056
212	0x3d392dae	0.04520958
213	0x3dea9ac5	0.11455301
214	0x3cf90e58	0.030402347
215	0xbdc901ad	-0.09814773
216	0xbd44f77d	-0.048087586
217	0xbcc1bd86	-0.023649942
218	0xbcabacbe	-0.020956393
219	0xbd5a24c0	-0.053257704
220	0xbd8cbf20	-0.06872392
221	0x3d2fc673	0.042913865
222	0x3c5d86f5	0.013520946
223	0xbd3c36d0	-0.04595071
224	0x392fa11f	0.00016749323
225	0x3d11367a	0.035452344
226	0x3cc60950	0.024174362
227	0x3d96915f	0.07351946
228	0x3dc7faa6	0.09764604
229	0xbd4759ad	-0.048669506
230	0x3c8b185e	0.016979393
231	0xbd6a0a31	-0.057138626
232	0x3cd68bf2	0.026189778
233	0xba985345	-0.0011621496
234	0xbb22e86d	-0.0024857775
235	0x3d959866	0.07304458
236	0xbde67f72	-0.11254777
237	0x3da3c73f	0.079969876
238	0x3cb3e9fc	0.021962158
239	0xbc776716	-0.015100261
240	0x3cb1b956	0.02169482
241	0x3d858306	0.06519131
242	0xba8583bf	-0.0010186358
243	0xbdb73015	-0.08944718
244	0xbdc11e58	-0.09429616
245	0xbb914e50	-0.0044343844
246	0x3c62be74	0.013839353
247	0xbd0c63cf	-0.034274872
248	0xbd9f1bb1	-0.077689536
249	0x3b6a79aa	0.0035778084
250	0xbd82145a	-0.06351538
251	0xbc048595	-0.008088489
252	0xbd495ff8	-0.04916379
253	0xbcab7bd0	-0.020933062
254	0x3cb25737	0.021770103
255	0xbd97ac29	-0.07405884

conv1.lin_self.bias f4 [128]
0	0x3dc83f0f	0.097776525
1	0x3dae6286	0.085148856
2	0x3dd4c68e	0.10389434
3	0x3d631354	0.055438355
4	0xbd51d17a	-0.051225163
5	0xbda0a7d1	-0.078445084
6	0x3dfb32fb	0.12265583
7	0x3d93d551	0.07218421
8	0x3d9b1c88	0.07573801
9	0xbe105cee	-0.1409795
10	0xbe225f95	-0.15856774
11	0x3d7b4c39	0.06135199
12	0x3c54ffd6	0.013000449
13	0x3db9d94e	0.09074651
14	0xbd91acc5	-0.07113031
15	0xbcfccda1	-0.03085977
16	0xbd759ff0	-0.05996698
17	0x3cff4c01	0.031164171
18	0x3dd3cf0c	0.103422254
19	0xbd53e952	-0.051736183
20	0xbdf380a8	-0.118897736
21	0x3da79e9f	0.081845514
22	0xbd4fc370	-0.050723493
23	0x3d910ade	0.07082151
24	0x3cd832bf	0.026391385
25	0x3d6f25ca	0.058385648
26	0x3cb0f91e	0.021603163
27	0xbde08f47	-0.10964828
28	0xbdcb788d	-0.099351026
29	0xbdbda553	-0.09260049
30	0xbdaec6dd	-0.08534024
31	0xbd1c4e05	-0.038160343
32	0x3d7eb206	0.062181495
33	0xbd4efd96	-0.050534807
34	0x3dbc978d	0.092085935
35	0x3e0f854a	0.1401569
36	0xbcdc780e	-0.026912715
37	0x3e01d6b2	0.12679556
38	0xbe1f5500	-0.15559769
39	0x3d873a7b	0.06602951
40	0xbd9e0fdd	-0.077178694
41	0xbdb8a3e3	-0.09015634
42	0x3cc6b536	0.02425633
43	0xbc214668	-0.009843446
44	0x3e00b2db	0.12568228
45	0x3e21d10b	0.158024
46	0xbd56f715	-0.05248173
47	0x3d81dfb2	0.063414946
48	0x3c5058ea	0.012716511
49	0x3cf8ae28	0.030356482
50	0xbd9e6983	-0.077349685
51	0x3dcd5d44	0.10027555
52	0x3d87cc80	0.06630802
53	0x3cf53f75	0.029937485
54	0xbc229465	-0.009923075
55	0x3c7485d2	0.014924483
56	0x3dacdf5a	0.084410384
57	0x3ddcdd49	0.10784394
58	0x3c887474	0.016657092
59	0xbbaee97e	-0.005337893
60	0xbd3263c0	-0.04355216
61	0x3d5320fa	0.05154512
62	0x3cea6304	0.028611667
63	0x3cd3f35d	0.02587288
64	0x3d305207	0.043046977
65	0xbceebee4	-0.029143758
66	0xbdad1771	-0.08451737
67	0x3d12ab2a	0.035807766
68	0xbdcacf31	-0.099028
69	0x3d661643	0.056173574
70	0x3d794e68	0.06086579
71	0x3d5ba5f2	0.053625055
72	0xbd4f4a22	-0.050607808
73	0x3e005d5f	0.12535618
74	0xbdaf417b	-0.08557411
75	0xbd0ed36a	-0.03486959
76	0x3d2017da	0.039085247
77	0xbbb4bde8	-0.0055158027
78	0xbdf5d409	-0.12003333
79	0xbd5cfd65	-0.053952593
80	0xbe09a1da	-0.13440648
81	0x3c232281	0.009956957
82	0xbdf178a1	-0.11790586
83	0xbddf8379	-0.10913748
84	0x3d4b971f	0.049704667
85	0xbdea4076	-0.11438076
86	0x3d5bcd30	0.05366248
87	0xbda2c0df	-0.079469435
88	0x3e0bc8fb	0.13650887
89	0xbcce76e8	-0.025203183
90	0x3cca4412	0.024690662
91	0x3d6de5cb	0.058080476
92	0x3de67921	0.11253572
93	0xbcae73c9	-0.021295445
94	0x3d8dda62	0.06926419
95	0xbddd9663	-0.108196996
96	0x3dc6c027	0.09704619
97	0x3d4561b0	0.048188865
98	0x3d94263b	0.072338544
99	0xbdf2af5a	-0.11849852
100	0x3d752a35	0.059854705
101	0x3cc58596	0.02411155
102	0x3cea3ab5	0.028592447
103	0x3bf3ae8a	0.007436578
104	0x3dd4e088	0.103943884
105	0xbddd0074	-0.10791102
106	0x3e017e58	0.12645853
107	0xbda48b84	-0.08034423
108	0x3d573a38	0.052545756
109	0x3dca6fb5	0.09884588
110	0xbcef699f	-0.029225169
111	0x3d9c83bb	0.07642313
112	0xbd189d8b	-0.03725962
113	0xbd56b973	-0.052422952
114	0xbddf29a3	-0.108966134
115	0x3d1c7280	0.038195133
116	0xbce0f554	-0.027460732
117	0xbd79717d	-0.060899246
118	0x3c6c71e2	0.014431449
119	0x3da7d76d	0.08195386
120	0x3d8ba422	0.06818415
121	0x3d820810	0.06349194
122	0x3d0e24eb	0.034703176
123	0xbdb34c68	-0.08754808
124	0x3d804493	0.062630795
125	0x3dde1aec	0.10844979
126	0xbc941b7a	-0.018079508
127	0x3a9a9b17	0.0011795488

conv2.lin_neigh.weight f4 [64, 512]
0	0x3db75905	0.08952526
1	0x3e04228e	0.12903807
2	0x3ca5bfe0	0.020233095
3	0xbdc9cc50	-0.09853423
4	0xbd26916e	-0.040666036
5	0x3d672f13	0.056441378
6	0xbd9ace69	-0.07558901
7	0xbd0dd202	-0.034624107
8	0xbd94a047	-0.07257133
9	0xbd7f9e87	-0.062407043
10	0xbd2bb07f	-0.041916367
11	0x3e0252de	0.12726924
12	0xbda000b3	-0.07812633
13	0xbd9f13f7	-0.0776748
14	0xbd9cc51f	-0.07654785
15	0xbd46a9e8	-0.04850188
16	0xbd1271cb	-0.035753053
17	0xbb872b01	-0.0041249995
18	0xbd5bac6b	-0.053631227
19	0xbb7b5ad0	-0.003835369
20	0xbd52e0c8	-0.0514839
21	0x3df9157c	0.12162301
22	0x3d3151a7	0.04329076
23	0x3dd0db42	0.1019807
24	0xbcab491f	-0.02090889
25	0x3d4c7978	0.04992053
26	0x3dae54b0	0.085122466
27	0xbdaa9222	-0.08328654
28	0x3b324285	0.0027200293
29	0xbd968086	-0.07348733
30	0xbd7493b8	-0.059711188
31	0xbdd25d57	-0.102717094
32	0xbcdac56c	-0.026705466
33	0xbd57e55c	-0.05270897
34	0x3d0e3c7c	0.03472565
35	0x3bee4d60	0.0072724074
36	0xbd7bfe7b	-0.06152199
37	0x3dbc3b9b	0.09191056
38	0xbd01aa16	-0.031656347
39	0xbdd1005f	-0.10205149
40	0xbd6e1311	-0.058123652
41	0x3c9ab9ca	0.01888742
42	0xbdb829a5	-0.08992318
43	0xbe03b97a	-0.12863722
44	0xbd6afb03	-0.05736829
45	0xbd17cfcc	-0.037063405
46	0x3c28cbd7	0.010302505
47	0x3dc87ba0	0.097892046
48	0xbd48678f	-0.048926886
49	0xbd955448	-0.07291466
50	0xbdb78d70	-0.08962524
51	0x3d9c1982	0.07622053
52	0xbdc16dba	-0.09444757
53	0x3c729faf	0.014808579
54	0x3d1fb34a	0.038989343
55	0xbc7a9a48	-0.015295573
56	0x3d3d1fef	0.046173032
57	0x3d47775b	0.04869781
58	0xbd8a8310	-0.067632794
59	0xbdb0bb1e	-0.0862944
60	0x3da739dc	0.08165333
61	0xbd513964	-0.051080123
62	0xbd0cd948	-0.034386903
63	0xbb5b121b	-0.003342754
64	0xbddb61b5	-0.107119955
65	0xbd5d2e17	-0.053999033
66	0xbbe92413	-0.007114896
67	0xbcca0cdf	-0.02466434
68	0xbda903e1	-0.08252693
69	0xbe01f8e3	-0.12692599
70	0x3d185414	0.03718956
71	0x3d2d9a92	0.042383738
72	0xbd8d7fb4	-0.06909123
73	0xbd6bad27	-0.057538178
74	0xbd9a7f73	-0.0754384
75	0x3d7c3b9a	0.061580278
76	0xbe0b5b7c	-0.13609117
77	0x3d7b038c	0.06128268
78	0xba1cb459	-0.00059778016
79	0xbd4dd848	-0.05025509
80	0xbd04cd8d	-0.03242259
81	0xbcc9d355	-0.024636904
82	0xbd24e54d	-0.04025774
83	0x3d889f55	0.06671015
84	0xbd66dd4f	-0.0563634
85	0xbd82ba34	-0.06383172
86	0x3c6d75e9	0.014493444
87	0xbd911a6a	-0.07085116
88	0xbddb3ac9	-0.10704572
89	0xbcfd7d23	-0.030943459
90	0xbd9a71c3	-0.075412296
91	0x3d023d79	0.031796906
92	0xbdbd44e5	-0.09241656
93	0x3c2f55fd	0.010701654
94	0xbd1a61b8	-0.037690848
95	0xbd684c4d	-0.05671339
96	0xbd0d1173	-0.03444047
97	0x3ca61f7e	0.020278689
98	0xbe010899	-0.12600936
99	0xbdc2df47	-0.09515243
100	0xbd2e5f8d	-0.042571593
101	0xbda576b7	-0.08079284
102	0xbdd2b26c	-0.102879375
103	0x3df3dc24	0.11907223
104	0xbde2b7c3	-0.11070206
105	0xbdf5f925	-0.12010411
106	0xbd049bbc	-0.032375082
107	0xbd3ea0e1	-0.046540145
108	0x3dd73433	0.10508003
109	0x3d3425b8	0.043981284
110	0xbddae459	-0.10688085
111	0xbd17e45c	-0.037083015
112	0xbd95c484	-0.07312873
113	0xbd6ae686	-0.05734875
114	0x3c43ecec	0.011958342
115	0xbdd4a1a4	-0.10382393
116	0x3d1d02b0	0.03833264
117	0xbd979d94	-0.074031025
118	0x3b261bff	0.0025346277
119	0x3dca8628	0.098888695
120	0x3d095506	0.03352835
121	0x3dd9d3ee	0.106361255
122	0x3e462562	0.19350198
123	0xbd53953e	-0.051656
124	0x3e04b5bd	0.12959953
125	0xbd968a99	-0.07350654
126	0xbe0008e7	-0.12503396
127	0xbbe082b0	-0.0068515167
128	0xbd773e86	-0.06036236
129	0x3ce01e64	0.027358241
130	0x3d1589af	0.03650826
131	0x3b1a41ba	0.0023537711
132	0x39477b1e	0.00019023984
133	0xbddfd4a8	-0.10929233
134	0x3c82842c	0.015932165
135	0xbd983395	-0.074317135
136	0xbdb4fb4f	-0.08836996
137	0x3ba7176f	0.005099229
138	0xbd9a1617	-0.075237446
139	0x3da37974	0.0798215
140	0x3d41209d	0.047150243
141	0xbd269a53	-0.04067452
142	0xbcb383ee	-0.021913495
143	0x3c5442d8	0.01295539
144	0xbd9bfe90	-0.07616913
145	0xbd060394	-0.032718256
146	0x3d9d0014	0.076660305
147	0xbd98fe98	-0.07470435
148	0xbdb585ec	-0.08863434
149	0x3dc0e2e0	0.09418273
150	0xbd96c6e6	-0.073621556
151	0x3d1527e2	0.03641499
152	0x3d55fb5e	0.052241676
153	0xbc16de3b	-0.009208257
154	0x39c70960	0.00037963223
155	0x3d38d030	0.045120418
156	0xbda7cf04	-0.08193782
157	0x3d58c949	0.052926335
158	0x3d346fec	0.04405205
159	0x3ccd9bfe	0.025098797
160	0x3d7012a6	0.058611535
161	0x3d1020a7	0.03518739
162	0x3d2ec43a	0.042667605
163	0x3cb9ac9c	0.022665314
164	0x3d0c0f35	0.03419419
165	0xbcdddeff	-0.027083872
166	0xbdd369e7	-0.10322934
167	0x3dd9f4f5	0.10642425
168	0xb82b719b	-4.087538e-05
169	0xbc69b572	-0.014264451
170	0x3b4478a3	0.0029979132
171	0xbd0d8e30	-0.03455943
172	0xbc54b1e5	-0.0129818665
173	0xba89e279	-0.0010519765
174	0xbcfb4f2f	-0.030677406
175	0xbd15c7f0	-0.03656763
176	0x3d4b7896	0.049675547
177	0xbcd08a73	-0.025456643
178	0xbd874abd	-0.06606052
179	0x3c885134	0.016640283
180	0xbcf34984	-0.02969814
181	0xbbbf4cba	-0.005838004
182	0xbb7f5d47	-0.003896551
183	0xbd5ba28f	-0.053621825
184	0x3df5e87e	0.12007235
185	0xbd0b3189	-0.033982787
186	0x3cdef382	0.027215723
187	0xbd1af529	-0.03783146
188	0x3d271f20	0.040801167
189	0xbd1ea232	-0.0387289
190	0xbd1fc658	-0.039007515
191	0xbca24c26	-0.019811701
192	0xbc19d258	-0.009388529
193	0xbc13152e	-0.008977218
194	0x3d080cd9	0.033215377
195	0xbc8f0e5b	-0.0174629
196	0x3d9caabc	0.076497525
197	0x3d699f60	0.057036757
198	0xbc8b81a1	-0.017029585
199	0x3ac59e5f	0.0015077105
200	0x3ca4befc	0.0201106
201	0xbc4be6ff	-0.0124452105
202	0x3c65c267	0.0140234
203	0xbdc4bc6b	-0.096062504
204	0x3df70f75	0.12063495
205	0xbdc351b5	-0.09537069
206	0x3cb82be9	0.022481875
207	0xbc46705d	-0.01211175
208	0xbd46b8b7	-0.048516
209	0xbddec977	-0.1087827
210	0xbd4bdc1e	-0.049770467
211	0xbbd5f283	-0.006529154
212	0xbd5fd0e1	-0.05464256
213	0xbd324d0f	-0.04353052
214	0xbd1854ec	-0.037190363
215	0x3da5214a	0.0806299
216	0x3db4476b	0.088026844
217	0xbc470007	-0.012146003
218	0x3d971f27	0.07378989
219	0x3ba79f3e	0.0051154187
220	0xbd8ecc56	-0.06972568
221	0xbd6e5a0e	-0.05819135
222	0xbce2b05c	-0.027671985
223	0x3c91a171	0.017777177
224	0x3d9d5e4c	0.07684001
225	0xbcede471	-0.029039593
226	0x3b25565c	0.0025228476
227	0x3d12d584	0.035848156
228	0x3d131e8e	0.03591781
229	0xbda35197	-0.079745464
230	0x3cb856bd	0.022502298
231	0x3d44c9ab	0.048043888
232	0x3dde6098	0.108582675
233	0x3dd014dc	0.101602286
234	0x3dbd1188	0.092318594
235	0xbd2aeffc	-0.041732773
236	0xbcb64204	-0.022248276
237	0xbd125484	-0.03572513
238	0x3c769e05	0.015052323
239	0xbd38d74c	-0.045127198
240	0xbd277b38	-0.040888995
241	0x3d9652a5	0.07339982
242	0x3d48bcae	0.049008064
243	0xb945b76c	-0.00018855714
244	0x3d7dcc05	0.061962146
245	0x3dfe7ca0	0.12426114
246	0xbb9ebf25	-0.0048445635
247	0x3d2cb9d8	0.042169422
248	0xbcb47308	-0.022027507
249	0xbc87a36f	-0.016557423
250	0x3db4bf8a	0.08825596
251	0x3d3fc795	0.046821196
252	0xbd45c29b	-0.048281293
253	0xbc9c1630	-0.019053549
254	0xbdaf6c6e	-0.08565603
255	0xb9be3a17	-0.00036282904

conv2.lin_neigh.bias f4 [64]
0	0x3d8fc3dd	0.0701978
1	0xbe30bcd9	-0.1725954
2	0xbdf7c63f	-0.12098359
3	0xbdcf2784	-0.10114959
4	0xbe0b2b3e	-0.13590714
5	0x3e087f17	0.13329731
6	0x3ca5001a	0.02014165
7	0xbca6be70	-0.02035448
8	0xbdd6eb7f	-0.10494136
9	0x3cf0caea	0.029393632
10	0xbdadf47c	-0.08493897
11	0xbdbb6d3b	-0.091516934
12	0xbda1d491	-0.07901872
13	0xbd9eb3bb	-0.077491246
14	0xbe2d1f87	-0.16906558
15	0xbd93ff0f	-0.07226383
16	0xbd0493cf	-0.032367524
17	0xbdc2b6ad	-0.09507499
18	0x3a29bf72	0.0006475366
19	0x3c054184	0.008133296
20	0xbda5b532	-0.08091201
21	0xbda48009	-0.08032233
22	0xbdddd03e	-0.10830735
23	0xbdd6c2f9	-0.10486407
24	0xbd8c3fd0	-0.06848109
25	0xbdabb90b	-0.083849035
26	0xbdc418f8	-0.09575075
27	0xbd56a622	-0.05240453
28	0xbc3dfa0e	-0.011595262
29	0xbe4d7524	-0.20064217
30	0xbd3d7a3e	-0.046259157
31	0xbd2d29ca	-0.04227618
32	0xbd495cd1	-0.049160782
33	0xbe22978e	-0.15878126
34	0xbd9abbd9	-0.0755536
35	0xbd27d4aa	-0.040974297
36	0xbd1fdafa	-0.03902719
37	0xbdbdd076	-0.092682764
38	0xbdaa876b	-0.0832661
39	0xbd3e7721	-0.04650033
40	0xbdaad2d5	-0.08340994
41	0xbdae42a6	-0.08508806
42	0xbe03c3e0	-0.12867689
43	0xbdd24f90	-0.102690816
44	0xbdcc5aba	-0.09978242
45	0xbe193413	-0.14961271
46	0xbdfbcef2	-0.12295331
47	0xbe0989da	-0.13431492
48	0xbda66d9e	-0.081263766
49	0xbe0ab4c3	-0.13545518
50	0xbdb36557	-0.087595634
51	0xbd8d9a87	-0.069142394
52	0xbd744336	-0.05963441
53	0xbcebc1c4	-0.028778918
54	0xbdf845cb	-0.12122687
55	0xbddc28b9	-0.10749955
56	0xbdc84246	-0.09778266
57	0xbd9f41e4	-0.077762395
58	0xbcdbf3ec	-0.02684971
59	0xbdbb2df7	-0.091396265
60	0xbd897757	-0.067122154
61	0xbde124ca	-0.10993345
62	0xbd4a3745	-0.049369115
63	0xbd3bdd72	-0.045865484

conv2.lin_self.weight f4 [64, 128]
0	0x3d674d6c	0.05647032
1	0x3ccd025a	0.025025535
2	0xbc54f381	-0.012997509
3	0xbdf7fcd1	-0.12108768
4	0xbd2231d1	-0.03959829
5	0x3d592a42	0.053018816
6	0xbdf8d595	-0.121501125
7	0x3d23b4be	0.03996729
8	0xbcdf29f1	-0.027241679
9	0xbd3b68bd	-0.045754183
10	0xbd442ea7	-0.047896054
11	0x3d534c42	0.051586397
12	0xbd902b62	-0.070395246
13	0xbd813479	-0.063088365
14	0xbddf9757	-0.10917538
15	0xbd786fd6	-0.06065353
16	0xbdebf6a2	-0.11521651
17	0xbd7ee19d	-0.06222688
18	0xbc6c6031	-0.014427231
19	0xbdc72d33	-0.09725418
20	0xbe0dbd5f	-0.1384177
21	0x3d733136	0.059373103
22	0x3dc99e10	0.09844601
23	0xbdb18f87	-0.08669954
24	0xbe26ac53	-0.16276674
25	0xbd9a864a	-0.07545145
26	0x3daa59ac	0.08317885
27	0xbdd3023d	-0.10303161
28	0xb7694991	-1.3905011e-05
29	0xbe01692f	-0.1263778
30	0x3cff7165	0.031182
31	0xbe066e47	-0.13128005
32	0xbd88aaa6	-0.066731736
33	0xbd55336b	-0.05205099
34	0x3d1026f1	0.035193387
35	0x3b060091	0.0020447115
36	0xbd8fe5e5	-0.07026271
37	0x3da49928	0.08037025
38	0xbdb35c20	-0.08757806
39	0xbd84dfeb	-0.064880215
40	0xbd49eaf5	-0.049296338
41	0xbd4c7bfa	-0.04992292
42	0xbdc49cce	-0.096002206
43	0xbd625191	-0.05525357
44	0xbe10c2d5	-0.14136823
45	0xbd58f599	-0.052968595
46	0xbcea9bd4	-0.028638758
47	0x3dd05acf	0.1017357
48	0x3a11e4d0	0.0005565407
49	0xbc73e28e	-0.014885558
50	0xbdc72d9f	-0.097254984
51	0xbd8c567e	-0.068524346
52	0xbddafb7b	-0.10692497
53	0x3d842b55	0.064535774
54	0xbd1a786a	-0.037712492
55	0xbe0d2a64	-0.13785702
56	0xbd020efe	-0.03175258
57	0xbd4d215a	-0.050080635
58	0xbd2d2390	-0.042270243
59	0xbd6c5df3	-0.057706784
60	0x3dccf169	0.10006983
61	0x3b340c93	0.0027473315
62	0xbd675d1b	-0.056485277
63	0xbd5fc68a	-0.0546327
64	0xbdfbf4f6	-0.12302582
65	0xbdae87a1	-0.08521963
66	0xbce2d0e7	-0.027687503
67	0xbd836135	-0.06415025
68	0xbcff438e	-0.031160142
69	0xbd8300ac	-0.063966125
70	0xbbe19dd6	-0.0068852706
71	0xbd813b26	-0.0631011
72	0xbc6d923b	-0.014500196
73	0xbd15020c	-0.036378905
74	0xbd29e086	-0.041473888
75	0x3aaadc13	0.0013035558
76	0xbe085706	-0.13314447
77	0x3df5a34f	0.11994039
78	0xbb37918d	-0.002801034
79	0xbdcc8186	-0.09985642
80	0xbdd7f702	-0.1054516
81	0xbc139e0f	-0.009009852
82	0xbd76eedd	-0.06028639
83	0x3d149c21	0.03628171
84	0xbe398c62	-0.18119958
85	0xbe0b793c	-0.13620466
86	0xbd1da72b	-0.038489502
87	0xbbc4c990	-0.0060054734
88	0xbe0c3b9a	-0.13694611
89	0xbe1e3f33	-0.15453796
90	0xbda66fd1	-0.08126796
91	0x3d93c0dc	0.072145194
92	0xbe1c30fd	-0.15253063
93	0x3d1207e1	0.035652045
94	0xbd8dbc4c	-0.069206804
95	0xbc203e7a	-0.009780521
96	0xbd92d507	-0.07169538
97	0xbce72723	-0.028216904
98	0xbd883f9c	-0.066527575
99	0xbda15bbc	-0.07878825
100	0xbccf0987	-0.025273098
101	0xbc88117e	-0.016609903
102	0xbcdc859f	-0.026919184
103	0x3d3eee40	0.04661393
104	0xbdc60780	-0.09669399
105	0xbdb14161	-0.08655048
106	0xbd3bd05d	-0.045853008
107	0xbccbc4a9	-0.024874048
108	0x3db9d934	0.09074631
109	0x3d8e8051	0.06958068
110	0xbd551117	-0.05201825
111	0xbd588093	-0.052856993
112	0xbd2912fd	-0.041277874
113	0xbdc5a39c	-0.09650347
114	0x3bdf0e5f	0.006807133
115	0xbe3bbe44	-0.183343
116	0xbdb0950f	-0.08622181
117	0xbdc77faa	-0.09741147
118	0xbd04d719	-0.032431696
119	0x3d6a81f3	0.057252835
120	0x3c1ec8b6	0.009691408
121	0x3da23641	0.07920504
122	0x3d8fa105	0.07013134
123	0xbd098a84	-0.033579364
124	0x3cf5a0a8	0.029983833
125	0xbd16fb8e	-0.036860995
126	0x3af0687d	0.0018341687
127	0xbc55b092	-0.013042586
128	0xbe0fd20f	-0.14044975
129	0xbcbd3cf2	-0.02310035
130	0xbde684b8	-0.11255783
131	0xbdb5ed7f	-0.088831894
132	0xbe02d94a	-0.12778202
133	0xbd97dac1	-0.07414771
134	0xbdee0368	-0.116217434
135	0xbcaec909	-0.021336095
136	0xbd59f892	-0.05321557
137	0x3d4ae3ea	0.049533762
138	0x3da39f63	0.07989385
139	0xbba18c6f	-0.004930071
140	0xbcd48cb4	-0.025945999
141	0xbc9c06c5	-0.019046197
142	0xbdd0fcbd	-0.10204456
143	0x3d393f0c	0.04522614
144	0xbd5819ff	-0.052759167
145	0xbcd2400f	-0.025665311
146	0x3cee10b9	0.029060708
147	0xbd1109d1	-0.035409752
148	0x3c0d8d8f	0.008639707
149	0xbdae422f	-0.08508717
150	0xb9a10a0a	-0.00030715793
151	0x3ca7a281	0.02046323
152	0x3d301ec3	0.042998087
153	0xbce384af	-0.02777323
154	0xbd36b859	-0.0446094
155	0xbdeeed82	-0.11666395
156	0xbc49080d	-0.012269986
157	0xbcb8834f	-0.02252355
158	0xbe111251	-0.14167143
159	0xbd2aeeff	-0.04173183
160	0xbdddce52	-0.10830368
161	0x3c8329dd	0.016011173
162	0xbd68ec67	-0.056866076
163	0xbd1e0298	-0.038576692
164	0xbd1097e7	-0.035301115
165	0xbcc22637	-0.023699863
166	0x3d253d8d	0.040341903
167	0xbdfeb86b	-0.12437519
168	0xbd33fee5	-0.04394426
169	0xbda81f75	-0.08209125
170	0x3db21219	0.08694858
171	0xbd7d72a6	-0.061876915
172	0xbe1ef67c	-0.15523714
173	0xbc8a26a4	-0.016864128
174	0xbdb9171f	-0.09037613
175	0x3d62337e	0.055224888
176	0xbd1700d8	-0.03686604
177	0xbc3c5c6a	-0.011496643
178	0xbdab01d8	-0.08349961
179	0x3b819580	0.0039545894
180	0xbdece26d	-0.11566625
181	0x3c69fc89	0.0142814005
182	0xbd1ae38f	-0.037814673
183	0xbd959f03	-0.0730572
184	0xbd936d95	-0.071986355
185	0x3ca2f031	0.019889923
186	0xbd77e2b7	-0.060518946
187	0xbd901280	-0.070347786
188	0xbbb0200a	-0.005374913
189	0xbd7fc202	-0.06244088
190	0xbde3dcb2	-0.11126079
191	0xbde857ba	-0.113448575
192	0xbda5fb78	-0.081046045
193	0xbc860f60	-0.016364753
194	0xbd1d1b08	-0.038355857
195	0xbd7d79d4	-0.061883762
196	0xbd86f9ce	-0.06590615
197	0xbe0362e7	-0.12830697
198	0xbdd43ed0	-0.10363543
199	0xbe41aba8	-0.18913138
200	0xbda24d3b	-0.07924887
201	0xbd2e0a29	-0.04249016
202	0x3d9c726e	0.07639013
203	0xbe3dbbb9	-0.18528642
204	0x3cd704c2	0.026247386
205	0xbcae110a	-0.02124836
206	0xbbed57ab	-0.007243117
207	0xbdbf9087	-0.09353738
208	0xbc4d9b3f	-0.012549221
209	0xbc394523	-0.011307987
210	0xbd60b3eb	-0.054859083
211	0xbd299254	-0.041399315
212	0xbd952b5a	-0.07283659
213	0x3d601436	0.054706775
214	0xbe2b3bc8	-0.16722023
215	0xbd95e42a	-0.073189095
216	0xbd7475a7	-0.059682515
217	0xbd819f31	-0.063291915
218	0xbcb733ab	-0.022363504
219	0xbd6ad9bf	-0.057336565
220	0xbde9c907	-0.11415296
221	0xbded2f76	-0.11581318
222	0xbd3f3438	-0.04668066
223	0x3e05b945	0.13058956
224	0xbdfa17ec	-0.12211594
225	0xbd05b87a	-0.032646634
226	0xbd9e104e	-0.077179536
227	0xbda0ab25	-0.07845143
228	0x3caa4931	0.020786854
229	0xbdae1588	-0.085002005
230	0xbbd21e61	-0.006412313
231	0x3cd09b4e	0.02546468
232	0xbd15e78d	-0.036597777
233	0xbbf3af8c	-0.0074366983
234	0xbd3d3917	-0.046197023
235	0xbdac9bec	-0.08428177
236	0xbe25b29f	-0.1618142
237	0xbcf7e2f0	-0.03025958
238	0xbd0c5488	-0.034260303
239	0xbe3eefa8	-0.18646109
240	0x3cddf0aa	0.027092297
241	0x3c360af3	0.011111009
242	0x3ce7a702	0.028277878
243	0xbc2285ff	-0.0099196425
244	0x3b52a95e	0.0032144408
245	0x3d7be3ad	0.061496425
246	0xbe227502	-0.15864947
247	0xbdbe0ac8	-0.092794
248	0xbd5bd7a5	-0.05367245
249	0xbe1d7446	-0.15376386
250	0xbdd0369a	-0.101666644
251	0xbd09c253	-0.033632588
252	0xbd22213e	-0.039582483
253	0xbdbacb9f	-0.09120869
254	0xbe278aaa	-0.1636149
255	0xbe1bb1df	-0.15204571

conv2.lin_self.bias f4 [64]
0	0xbd71aa6f	-0.05900043
1	0xbdabbb5e	-0.08385347
2	0xbd8db103	-0.06918528
3	0xbdc380b8	-0.095460355
4	0xbde1d69d	-0.11027262
5	0x3e4f3fe4	0.20239216
6	0xbde3daf1	-0.11125744
7	0xbde75b74	-0.1129674
8	0xbcf4c8c2	-0.029880885
9	0xbd7c7cc1	-0.061642412
10	0xbe21c91d	-0.15799375
11	0xbdf2470e	-0.11829959
12	0xbde4340e	-0.11142741
13	0xbd76b4f2	-0.060231157
14	0xbe6beb25	-0.2303892
15	0xbe01dc2a	-0.12681642
16	0xbe189c30	-0.14903331
17	0xbda5acd3	-0.08089604
18	0xbdc2fdd6	-0.095210716
19	0x3bbd364b	0.0057742945
20	0xbda48a1a	-0.08034153
21	0xbcd1a4b0	-0.025591224
22	0xbddc30a0	-0.10751462
23	0xbd3c46bd	-0.0459659
24	0xbe26a9b4	-0.16275674
25	0xbe217d96	-0.15770563
26	0xbe0a022a	-0.13477388
27	0xbde76de9	-0.113002606
28	0xbdd9cdb9	-0.106349416
29	0xbe110d9a	-0.14165345
30	0xbdd7a55e	-0.10529588
31	0xbe0c2037	-0.13684164
32	0xbd2d1c94	-0.042263582
33	0xbe2fe166	-0.17175826
34	0xbe07aad7	-0.13248764
35	0xbd9bc07e	-0.07605074
36	0xbd683ab6	-0.056696616
37	0xbda6af03	-0.081388496
38	0xbdc9b1c1	-0.09848357
39	0xbe127eb1	-0.14306141
40	0xbddacbe2	-0.10683419
41	0xbe03a7bf	-0.12856959
42	0xbdda9607	-0.10673147
43	0xbd9de58b	-0.077097975
44	0xbe3deacb	-0.18546598
45	0xbe0a3549	-0.13496889
46	0xbd3012d7	-0.042986717
47	0xbe16eedb	-0.14739554
48	0xbd3e0ef7	-0.04640099
49	0xbddc5f1f	-0.107603304
50	0xbe03bc5c	-0.12864822
51	0xbe1412b2	-0.14460257
52	0xbc9a0db5	-0.018805364
53	0xbdb4b426	-0.08823423
54	0xbd5e56f3	-0.05428214
55	0xbe353919	-0.17697562
56	0xbe2af262	-0.16694024
57	0xbd8e53a0	-0.06949544
58	0xbdbeb592	-0.093119755
59	0xbe24cd43	-0.16093926
60	0xbe3682d1	-0.1782334
61	0xbdffa21d	-0.124820925
62	0xbdc59b86	-0.09648804
63	0xbe1f2a97	-0.1554359

bn1.weight f4 [128]
0	0x3f65e0c8	0.89796114
1	0x3f602a78	0.875648
2	0x3f827891	1.0193044
3	0x3f56e6dc	0.83946013
4	0x3f592b94	0.8483212
5	0x3f640997	0.8907713
6	0x3f75bfa7	0.95995563
7	0x3f445e0b	0.76706
8	0x3f86178f	1.047594
9	0x3f6b1509	0.9182897
10	0x3f6494b0	0.8928938
11	0x3f80584c	1.0026946
12	0x3f634da1	0.8879033
13	0x3f6649ea	0.89956534
14	0x3f7908b1	0.9727889
15	0x3f87bb8c	1.060411
16	0x3f6fef58	0.93724585
17	0x3f71d619	0.9446731
18	0x3f5b6748	0.8570447
19	0x3f8395ed	1.0280129
20	0x3f5def72	0.8669349
21	0x3f7440ea	0.9541155
22	0x3f7d23a1	0.9888249
23	0x3f601bbe	0.8754233
24	0x3f7ad7dd	0.9798563
25	0x3f3f3787	0.74694103
26	0x3f7e6f6d	0.9938877
27	0x3f888279	1.0664817
28	0x3f1b7f88	0.6074147
29	0x3f879256	1.0591533
30	0x3f62025d	0.88284856
31	0x3f69c654	0.9131825
32	0x3f810b71	1.0081617
33	0x3f6a9d1b	0.91645974
34	0x3f61d7f8	0.8822017
35	0x3f6c22fa	0.9224087
36	0x3f67e934	0.90590215
37	0x3f83f067	1.030774
38	0x3f6f2364	0.93413377
39	0x3f7829f8	0.9693904
40	0x3f64c7ba	0.8936726
41	0x3f5c6c30	0.8610258
42	0x3f841e9e	1.0321844
43	0x3f5c5ee9	0.8608232
44	0x3f8b3507	1.0875558
45	0x3f7047af	0.9385938
46	0x3f7bfe13	0.9843456
47	0x3f529aaf	0.8226728
48	0x3f5b1d3d	0.8559149
49	0x3f7baae9	0.98307663
50	0x3f78e979	0.9723125
51	0x3f50e447	0.81598324
52	0x3f6f438d	0.9346245
53	0x3f7ac8b1	0.9796248
54	0x3f641b10	0.89103794
55	0x3f7ad775	0.9798501
56	0x3f4cf284	0.8005755
57	0x3f79b8f5	0.9754785
58	0x3f7285fd	0.947357
59	0x3f722faf	0.9460401
60	0x3f4df467	0.80451053
61	0x3f6ad1bf	0.917263
62	0x3f5d961d	0.8655718
63	0x3f63eae4	0.8903029
64	0x3f8273b4	1.019156
65	0x3f592288	0.84818316
66	0x3f74a44a	0.95563185
67	0x3f5f9758	0.8734031
68	0x3f7d9f4d	0.990712
69	0x3f7420cf	0.9536256
70	0x3f782bb9	0.96941715
71	0x3f7a0a63	0.976721
72	0x3f817b77	1.0115803
73	0x3f7ec4d1	0.9951907
74	0x3f718438	0.94342375
75	0x3f64fbc7	0.8944668
76	0x3f73531c	0.9504869
77	0x3f7610e5	0.9611953
78	0x3f697d05	0.9120639
79	0x3f7085b3	0.9395401
80	0x3f6b3071	0.9187079
81	0x3f4f3f91	0.8095637
82	0x3f7ba797	0.98302597
83	0x3f8074f4	1.0035691
84	0x3f8d1548	1.102212
85	0x3f626a5f	0.8844356
86	0x3f8b63cd	1.0889832
87	0x3f6fbe4a	0.93649733
88	0x3f6b02bc	0.9180105
89	0x3f6dbc62	0.92865574
90	0x3f5db1ac	0.8659923
91	0x3f735a16	0.95059335
92	0x3f79feb0	0.9765425
93	0x3f712ea1	0.94211775
94	0x3f838af3	1.0276779
95	0x3f804312	1.0020468
96	0x3f80511e	1.0024755
97	0x3f729485	0.9475787
98	0x3f7f3e82	0.99704754
99	0x3f82e16b	1.0225042
100	0x3f66d7e2	0.9017316
101	0x3f6b5edf	0.91941637
102	0x3f715f79	0.94286305
103	0x3f773bd5	0.9657567
104	0x3f761ad6	0.961347
105	0x3f70f1ea	0.9411913
106	0x3f59616d	0.84914285
107	0x3f73cdc8	0.9523587
108	0x3f476f38	0.7790408
109	0x3f39a5da	0.72518694
110	0x3f65f91c	0.89833236
111	0x3f7b7248	0.98221254
112	0x3f7ef13c	0.99586844
113	0x3f7f710a	0.9978186
114	0x3ee59827	0.44842646
115	0x3f864d18	1.0492277
116	0x3f563580	0.83675385
117	0x3f6ea2b6	0.9321703
118	0x3f799487	0.9749226
119	0x3f7e7a61	0.99405485
120	0x3f6bb758	0.92076635
121	0x3f76135c	0.9612329
122	0x3f7b5417	0.98175186
123	0x3f6f7b4c	0.9354751
124	0x3f7f80fd	0.99806195
125	0x3f698956	0.91225183
126	0x3f6613e8	0.89874125
127	0x3f7d7607	0.9900822

bn1.bias f4 [128]
0	0x3da7bdf6	0.08190529
1	0x3dbc1c52	0.09185089
2	0x3e3dac7a	0.18522826
3	0x38433e96	4.654991e-05
4	0xbe11376e	-0.14181301
5	0xbd530699	-0.051519964
6	0x3d7b54ad	0.06136005
7	0x3d8d7b9f	0.069083445
8	0x3e0adea9	0.135615
9	0xbdc36bc3	-0.09542038
10	0xbd8d18e0	-0.0688951
11	0x3e29dd69	0.16588368
12	0xbca26558	-0.019823715
13	0x3e359162	0.1773124
14	0xbb062c96	-0.0020473353
15	0x3de381c9	0.11108739
16	0xbd11da58	-0.03560862
17	0xbcacab7a	-0.02107786
18	0xbca87bbc	-0.020566814
19	0x3dcc0bb8	0.09963173
20	0xbdd18e51	-0.10232223
21	0x3d011aeb	0.03151981
22	0x3c6d0225	0.014465843
23	0x3c221533	0.00989275
24	0x3d51d2fc	0.0512266
25	0x3dbd4da0	0.092433214
26	0x3d553359	0.052050922
27	0x3d99ed64	0.07515982
28	0xbacc60e7	-0.0015592844
29	0x3c505cbf	0.012717425
30	0xbdbc6ccb	-0.09200438
31	0xbd69aefb	-0.05705164
32	0x3df05635	0.11735193
33	0xbd6f2ab6	-0.05839034
34	0xbd4a8897	-0.04944667
35	0x3da9e463	0.082955144
36	0xbd8b2969	-0.06795008
37	0x3e13d3f9	0.1443633
38	0xbc12c5a6	-0.008958256
39	0x3d1835c7	0.03716066
40	0xbd4b805a	-0.049682952
41	0xbd7c0c7e	-0.06153535
42	0x3dd0bc06	0.101921126
43	0xbd90fa4c	-0.0707899
44	0x3e18b612	0.14913204
45	0x3dafe9a7	0.085894875
46	0xbdc0547a	-0.093911126
47	0x3dc33078	0.09530729
48	0xbd30daf6	-0.043177567
49	0xb9db55f4	-0.00041834975
50	0xbd0ff543	-0.03514601
51	0x3dacb595	0.084330715
52	0x3d998021	0.07495142
53	0x3da42a0f	0.080158345
54	0xbd4c205c	-0.049835548
55	0x3d7e0267	0.06201401
56	0x3dbbc468	0.09168321
57	0x3dc13794	0.09434429
58	0xbd2645d8	-0.040593952
59	0xbc9023e6	-0.017595243
60	0xbdc168d2	-0.09443821
61	0x3ae3b6aa	0.0017373164
62	0x3c76d281	0.0150648365
63	0xbc3d5867	-0.011556721
64	0x3daa72c3	0.0832267
65	0xbd2b33b3	-0.04179735
66	0xbd502867	-0.05081978
67	0xbe11f490	-0.1425345
68	0xbd009ceb	-0.03139965
69	0xbc73c27b	-0.014877911
70	0x3df18692	0.117932454
71	0x3e19eeaa	0.1503245
72	0x3cb8fcf5	0.022581557
73	0x3da93edb	0.08263942
74	0xbdb3620c	-0.08758935
75	0xbafb6e61	-0.0019182676
76	0xbcf40517	-0.029787583
77	0x3d356f0d	0.04429536
78	0xbdb1430d	-0.08655367
79	0xbbc83afc	-0.006110547
80	0xbd2930a5	-0.041306157
81	0xbd051abb	-0.032496195
82	0xbcc56b88	-0.024099126
83	0x3b370bcb	0.0027930613
84	0x3e02432c	0.12720937
85	0xbd860826	-0.06544523
86	0x3e113280	0.1417942
87	0xbd182039	-0.037140105
88	0x3d8f1f94	0.06988445
89	0xbc75842f	-0.014985128
90	0xbda4b0bf	-0.08041524
91	0x3e3bac27	0.1832739
92	0x3dccb45d	0.09995339
93	0x3d519dd8	0.051175922
94	0x3df53ff1	0.119750865
95	0x3ced8eea	0.02899881
96	0x3dc9a17f	0.09845256
97	0x3d2220ab	0.039581936
98	0x3d714a48	0.05890873
99	0xbba61235	-0.0050680884
100	0xbbd04f31	-0.0063570966
101	0xbd0a0891	-0.033699576
102	0x3def69f6	0.11690132
103	0x3cb520ac	0.022110306
104	0x3dc812a1	0.09769178
105	0xbbb89feb	-0.005634298
106	0x3c30abd1	0.010783152
107	0xbcc0da59	-0.023541616
108	0xbc53c18b	-0.012924562
109	0x3d81e8fc	0.06343266
110	0x3cd55c3e	0.026044961
111	0x3d801ef2	0.06255902
112	0xbd314d46	-0.043286584
113	0xbda81a5a	-0.08208151
114	0xbb106667	-0.0022033693
115	0x3e11e75f	0.14248417
116	0x3c0d1780	0.00861156
117	0xbd90ec9c	-0.0707638
118	0x3dc2fd7b	0.09521004
119	0x3e1a6138	0.15076149
120	0xbc128ece	-0.00894518
121	0x3cda9eb5	0.026687006
122	0x3d3d732f	0.046252426
123	0xbd1163e1	-0.035495643
124	0x3db20df5	0.08694068
125	0x3d4d1e98	0.050078005
126	0x3b1aa907	0.0023599283
127	0x3c766aab	0.01504008

bn1.running_mean f4 [128]
0	0x3f0168a2	0.5055028
1	0x3ec8f7a2	0.3925143
2	0x3ebbf4ab	0.36710104
3	0x3f0cda59	0.5502067
4	0x3c6a3348	0.014294453
5	0x3e53b299	0.20673598
6	0x3e8d97f0	0.27654982
7	0x3f11a770	0.56896114
8	0x3e0e1e05	0.13878639
9	0x37676ae3	1.3793559e-05
10	0x3adb7a06	0.001674474
11	0x3e955029	0.2916272
12	0x3eee5b62	0.46554095
13	0x3ecaa0a1	0.39575675
14	0x3d861585	0.06547073
15	0x3e12bde4	0.1433025
16	0x3dfb3c75	0.12267391
17	0x3e653793	0.22384481
18	0x3ee7bff1	0.45263627
19	0x3d9a5ca2	0.075371996
20	0x3cdc7a92	0.026913915
21	0x3e7a6cea	0.2445561
22	0x3df36678	0.11884779
23	0x3e7859fd	0.24253078
24	0x3e4a9bd4	0.19786006
25	0x3ee793f9	0.45230082
26	0x3f0d559f	0.5520877
27	0x3c63ac41	0.013896049
28	0x309aa1d7	1.1250972e-09
29	0x3ca4d036	0.020118814
30	0x3c0b2ac3	0.008494082
31	0x3db07654	0.08616319
32	0x3ea9ca72	0.33162266
33	0x3e0e4a84	0.13895613
34	0x3e97ab3b	0.29622826
35	0x3e7225f0	0.23647285
36	0x3dcc254d	0.09968052
37	0x3e9664ce	0.29373783
38	0x36380f53	2.7427056e-06
39	0x3e50bc27	0.20384274
40	0x3e205af1	0.15659691
41	0x3c583432	0.013196038
42	0x3e4cd3c6	0.2000266
43	0x3ea284b7	0.31741878
44	0x3df835eb	0.12119659
45	0x3e846358	0.25857043
46	0x3c4584e5	0.01205561
47	0x3f13d3c5	0.5774501
48	0x3d251486	0.040302776
49	0x3eed9c6e	0.4640841
50	0x3c91a821	0.017780365
51	0x3ebca521	0.36844733
52	0x3f2fddf6	0.6869806
53	0x3e85fad3	0.26167926
54	0x3e8593ea	0.26089412
55	0x3e27f187	0.16400729
56	0x3eba1118	0.36341166
57	0x3f02201d	0.5083025
58	0x3ee3e46c	0.4451021
59	0x3e7019d6	0.23447356
60	0x3e6024da	0.21889058
61	0x3ed1ed67	0.41001436
62	0x3e8016b3	0.25017318
63	0x3e935ce7	0.28781816
64	0x3e856749	0.26055363
65	0x3e8b5e02	0.2722016
66	0x3881a25e	6.1814426e-05
67	0x3dd51d85	0.10406021
68	0x3d57ed04	0.05271627
69	0x3e669497	0.2251762
70	0x3e508231	0.20362164
71	0x3eefcf64	0.46837914
72	0x3dd53558	0.10410565
73	0x3df604c1	0.120126255
74	0x3c8f51eb	0.017495116
75	0x3e93be87	0.28856298
76	0x3e706571	0.23476197
77	0x3da92a1f	0.08259987
78	0x3c6cef16	0.014461299
79	0x3cb751c5	0.022377858
80	0x3c191af5	0.009344806
81	0x3f40f9b1	0.75381
82	0x3c26a91b	0.010172154
83	0x3d49b761	0.04924715
84	0x3d9c852b	0.07642587
85	0x3d42d215	0.04756363
86	0x3cb9bd9e	0.022673424
87	0x3c3dcffc	0.011585232
88	0x3e2bf403	0.16792302
89	0x3d9e3cda	0.0772645
90	0x3e132f1f	0.14373444
91	0x3f01c41c	0.50689864
92	0x3e3ab447	0.18232833
93	0x3e8d96fa	0.27654248
94	0x3e033885	0.12814529
95	0x3b859616	0.0040767295
96	0x3e1cf0b4	0.15326196
97	0x3d99b08a	0.07504375
98	0x3e02b65e	0.1276488
99	0x34027192	1.214851e-07
100	0x3f235472	0.6380073
101	0x3e42a652	0.19008759
102	0x3e027bf4	0.12742597
103	0x3e355849	0.1770946
104	0x3e9783e5	0.29592815
105	0x3c1f7d42	0.009734454
106	0x3ed04d8e	0.4068417
107	0x3db3d704	0.08781245
108	0x3f043edd	0.5165842
109	0x3ef8ae48	0.48570466
110	0x3e819c1e	0.2531442
111	0x3ef44ed4	0.4771639
112	0x3de96eda	0.113980964
113	0x3b911db8	0.0044285916
114	0x30e072d1	1.6330778e-09
115	0x3dedc713	0.11610236
116	0x3dec95c5	0.11552004
117	0x3dda9d74	0.10674563
118	0x3ebb47da	0.36578256
119	0x3e5478a9	0.20749153
120	0x3f16adc6	0.5885891
121	0x3dccbd86	0.09997086
122	0x3efb16c9	0.4904082
123	0x3df29caa	0.118462875
124	0x3ea4849e	0.3213243
125	0x3e8930da	0.26795083
126	0x3ecc4491	0.39896062
127	0x3dc42afa	0.0957851
