saved_weights/29-08-48-59.pth (torch, 212920 bytes, 16 tensors)

conv1.lin_neigh.weight f4 [32, 769]
0	0x3d1c2bdf	0.038127776
1	0xbc3f427b	-0.011673565
2	0x3ccbe541	0.02488959
3	0xbc1c5f4c	-0.009544205
4	0x3d0b939f	0.03407633
5	0x3bcddab4	0.006282175
6	0xbcd82fb0	-0.026389927
7	0x3d160613	0.036626887
8	0xbce38229	-0.027772026
9	0xb9ce3bc3	-0.00039335908
10	0x3bbae510	0.005703576
11	0xbaf5a7e7	-0.0018742055
12	0x3b2762db	0.00255411
13	0xbbea9acf	-0.007159568
14	0xbc21cf6c	-0.009876113
15	0xbb83cf1e	-0.004022493
16	0x3ccf6650	0.025317341
17	0xbcf6696a	-0.030079562
18	0xbc8320c4	-0.016006835
19	0xbcb3a880	-0.021930933
20	0x3c6c95f4	0.0144400485
21	0xbcfa9afd	-0.030591482
22	0xbc60340a	-0.013684282
23	0x3c05f879	0.008176916
24	0xbca9076c	-0.020633422
25	0x3cbbc9e9	0.022923427
26	0xbbf1a7b8	-0.00737473
27	0x3c9ca431	0.019121261
28	0x3c37f32c	0.01122741
29	0xbd0ecaa5	-0.034861226
30	0xbd12572e	-0.035727672
31	0x3c722c55	0.014781077
32	0x3d1aef33	0.037825774
33	0xbbdf67f6	-0.006817813
34	0xbd140ee2	-0.036147006
35	0x3c4df3e4	0.012570355
36	0x3c3525dd	0.011056391
37	0xbb426933	-0.0029664754
38	0xbce87af9	-0.02837895
39	0xbba8da49	-0.0051529747
40	0xbbffb111	-0.0078030904
41	0xbc104d51	-0.008807496
42	0x3c8983d9	0.016786503
43	0x3cdd86d6	0.027041834
44	0xbc22121d	-0.009892014
45	0xbc30ecb8	-0.010798626
46	0xbc28b620	-0.010297328
47	0xbd2e78be	-0.042595617
48	0x3a77c834	0.0009452135
49	0xbc4c93f2	-0.012486445
50	0x3bfb2ad0	0.0076650158
51	0x3d03870b	0.03211121
52	0x3cad92fd	0.021188254
53	0xbbd98577	-0.0066382247
54	0xbd210f15	-0.039321024
55	0x3d42d357	0.04756483
56	0xbd162bde	-0.03666293
57	0xbc35b324	-0.011090074
58	0x3d374de9	0.044752035
59	0x3974fbeb	0.000233635
60	0x3cf0d3d6	0.029397886
61	0xba8c4c88	-0.001070396
62	0xbce6dad0	-0.02818051
63	0x3c4e6baf	0.012598916
64	0xbca4ddfc	-0.020125382
65	0xbcdf4d4b	-0.027258536
66	0xbca06741	-0.019580485
67	0xbc92b304	-0.017907627
68	0x3b9f1088	0.0048542656
69	0xbcff0090	-0.031128198
70	0xbc889c86	-0.016676199
71	0x3bb6b6aa	0.0055759745
72	0x3ceb3d04	0.028715618
73	0xbd2a71f9	-0.0416126
74	0x3c88ba71	0.016690465
75	0x3d30d9d7	0.0431765
76	0xbc393b5b	-0.011305655
77	0x3c933a49	0.017972128
78	0xb88f4c42	-6.8329755e-05
79	0xbd06ec0d	-0.03293996
80	0xbd13943f	-0.03603005
81	0xbce54a98	-0.02798967
82	0xbba9a624	-0.005177276
83	0x3c9d1835	0.019176582
84	0x3af1b064	0.0018439409
85	0x3d26b946	0.040704034
86	0xbb1c1147	-0.002381401
87	0x3c4a81e6	0.012360072
88	0x3ce3142c	0.02771958
89	0xbcc0b997	-0.023525996
90	0x3adbb913	0.001676353
91	0xbd0b4478	-0.034000844
92	0x3ce0c3ea	0.02743717
93	0x3c94064b	0.018069407
94	0xbbf8b69e	-0.007590129
95	0x3c838afb	0.016057482
96	0x3bf84373	0.0075764
97	0xbcd19562	-0.025583927
98	0xbca1827a	-0.019715536
99	0x3ca6e0fe	0.020370957
100	0x3d4c0741	0.049811605
101	0x3d2d68c1	0.04233623
102	0xbc8b7d11	-0.01702741
103	0xbc44594d	-0.011984182
104	0xb9c45549	-0.00037447576
105	0xbbe17c4c	-0.0068812724
106	0x38ec255a	0.00011260314
107	0x3c6466bd	0.01394051
108	0xbd111217	-0.035417642
109	0xbbc8cfef	-0.0061283032
110	0xbcdf89a2	-0.027287308
111	0xbd45b276	-0.048265897
112	0xbd162be3	-0.036662947
113	0x3d1d55f2	0.038412042
114	0xbd22427d	-0.03961419
115	0x3c91da73	0.01780436
116	0xba7ae5dd	-0.00095709955
117	0xbad4251b	-0.0016185375
118	0xbcc72e26	-0.024313997
119	0xbbd43dbb	-0.0064770854
120	0x3aafd8be	0.0013416035
121	0xb9007a1d	-0.00012252522
122	0xbc2e493c	-0.010637578
123	0xbcfa76b1	-0.030574175
124	0x3cd346ec	0.025790654
125	0xbd0639dc	-0.032770023
126	0x3cdada7d	0.026715511
127	0x3cc38645	0.023867736
128	0xb8674cdd	-5.5146276e-05
129	0xbc7eb00a	-0.015544901
130	0x3cb6d939	0.022320377
131	0xbaf97e2f	-0.0019034798
132	0x3c9cca91	0.01913956
133	0xbc4025d9	-0.011727774
134	0xbb049594	-0.0020230757
135	0x3ceb19be	0.028698798
136	0x3c44be08	0.012008198
137	0x3c0cb52e	0.0085881185
138	0xbc8df652	-0.017329369
139	0x3b233783	0.0024904914
140	0x3c81d1ef	0.015847174
141	0x3b0e7ea8	0.0021742973
142	0xbba47017	-0.005018245
143	0x3d1885be	0.03723692
144	0xbcb2db7c	-0.021833174
145	0xbca5f206	-0.020257007
146	0xbc8653d8	-0.016397402
147	0x3cf74d8e	0.030188348
148	0xbd257379	-0.040393326
149	0x3c3b4e76	0.011432281
150	0x3c90ffce	0.017700102
151	0x3c953b84	0.018216856
152	0xbcef3162	-0.029198352
153	0x3ca213e5	0.019784877
154	0xbba0fca5	-0.00491293
155	0x3c959e75	0.018264035
156	0xbd2519ee	-0.04030793
157	0xba468e2a	-0.00075742847
158	0xbbcde5c9	-0.006283496
159	0x3be5b7f5	0.007010455
160	0x3c1dff8f	0.009643449
161	0xbc343490	-0.01099886
162	0x3bb5e4bd	0.0055509494
163	0x3c244703	0.010026696
164	0xbd055eba	-0.03256104
165	0x3ba413bc	0.0050072353
166	0xbcf83441	-0.030298354
167	0x3caf634b	0.021409651
168	0x3cfdc50d	0.03097775
169	0xbc91531b	-0.017739823
170	0x3c97f990	0.018551618
171	0xbb7f76dc	-0.0038980758
172	0xbcd13e49	-0.025542395
173	0xbcb54eea	-0.022132356
174	0x3ce8416f	0.028351514
175	0xbc80ae4a	-0.015708108
176	0xbd020267	-0.031740572
177	0x3ce0061b	0.027346661
178	0x3d42bea2	0.047545083
179	0xbcad49dd	-0.021153385
180	0x3c086997	0.008325956
181	0x3b07ec20	0.0020740107
182	0xbc643e77	-0.013930908
183	0xbbf2e335	-0.007412339
184	0xbbcb8102	-0.0062104473
185	0xbcfd8373	-0.030946469
186	0x3c7d2521	0.015450747
187	0xbc17beb9	-0.00926178
188	0xbc1c7dd0	-0.00955148
189	0x3d00501e	0.031326406
190	0x3c86dba6	0.016462158
191	0x3baace8c	0.0052126106
192	0xbc1a1599	-0.009404563
193	0x3ba9809e	0.005172803
194	0x3d05afc5	0.03263833
195	0x3bb73e18	0.005592119
196	0xbb7efc2d	-0.0038907633
197	0x3ca15d97	0.019697947
198	0x3c9b6153	0.018967306
199	0x3cc50eb1	0.024054857
200	0xbd3bc9b5	-0.04584666
201	0x38b1ba32	8.474699e-05
202	0xbca007d0	-0.019534975
203	0x3d2b448d	0.041813422
204	0xbccf7089	-0.025322216
205	0xbc2be644	-0.010491911
206	0x3ced7a06	0.02898885
207	0x3ca5f939	0.02026044
208	0x3ce8c5cc	0.02841463
209	0x3ccec764	0.025241561
210	0xbcf723ec	-0.030168496
211	0x3bb1c989	0.005425636
212	0x3caeb198	0.021324918
213	0xbcee3b26	-0.029080939
214	0x3bc36ec7	0.0059641334
215	0x3b77d7e8	0.00378179
216	0x3c0d8cf0	0.008639559
217	0x3cd1b727	0.02560003
218	0x3c44e6d4	0.012017924
219	0xbd2bc2ab	-0.041933697
220	0xbbd05f9f	-0.006359055
221	0x3c94d452	0.018167648
222	0x3ac7e533	0.0015250802
223	0xbced7abc	-0.028989188
224	0x3a5c47a3	0.00084030087
225	0xbd10d3e3	-0.03535832
226	0xbb9b1e35	-0.0047338256
227	0x3c85a141	0.016312243
228	0x3b2e3994	0.0026584612
229	0xbc87de43	-0.016585475
230	0xbce675aa	-0.028132278
231	0x3c8bc28c	0.01706054
232	0xbc7eca3f	-0.015551149
233	0xbd052bc5	-0.032512445
234	0x3c938ba8	0.01801093
235	0x3bea018f	0.007141299
236	0xbd28afd3	-0.041183304
237	0xbcadace7	-0.02120061
238	0x3c6c269c	0.014413502
239	0x3d0a31a2	0.03373874
240	0x3c3de463	0.011590096
241	0xbcf29da9	-0.029616194
242	0xbc388f4e	-0.011264635
243	0x3b2ff2ea	0.002684767
244	0x3cd56ad1	0.02605191
245	0xbcd87105	-0.02642108
246	0x3ba90d33	0.005159044
247	0xbc89c93d	-0.01681959
248	0xbcd26a30	-0.0256854
249	0xbba18967	-0.0049297097
250	0x3b5e133b	0.0033885974
251	0xbc4269b0	-0.011866018
252	0x3b75a5f1	0.0037482942
253	0xbcd085bc	-0.025454395
254	0xbc003144	-0.007824246
255	0xbc802ffc	-0.01564788

conv1.lin_neigh.bias f4 [32]
0	0x3c9d797e	0.019222971
1	0xbc66a290	-0.014076844
2	0x3c9ff0f3	0.019524073
3	0x3c28c00d	0.010299695
4	0xbc5b47e8	-0.013383843
5	0xbbb7bb29	-0.005607028
6	0x3bc895a2	0.0061213532
7	0x391ef4ee	0.00015159298
8	0x3c5bcef7	0.0134160435
9	0xbad658c7	-0.0016353362
10	0x3bbcf34b	0.0057663075
11	0x3c2fc2fb	0.010727639
12	0xbc687fb5	-0.014190604
13	0x3c8fc0cb	0.017547986
14	0x3c9e9131	0.019356342
15	0xbcf32f33	-0.029685592
16	0xbce2c135	-0.027680019
17	0xbd039d97	-0.03213271
18	0x3d0f1876	0.034935437
19	0x3b4e6d4c	0.0031498251
20	0x3ba222b5	0.004947985
21	0x3cfdd7d5	0.030986706
22	0xbb8923aa	-0.0041851597
23	0xbc9bb49c	-0.01900702
24	0x3c307715	0.010770579
25	0xbbc9ad1b	-0.006154669
26	0xbc46e7bd	-0.012140212
27	0xbbee7a8a	-0.0072777914
28	0xbcf364eb	-0.029711207
29	0x3b0af387	0.0021202283
30	0xbc4a723a	-0.012356335
31	0x3d486321	0.04892266

conv1.lin_self.weight f4 [32, 385]
0	0x3d9df60f	0.077129476
1	0xbcb0210b	-0.021500131
2	0x3ca75f83	0.020431286
3	0x3cf5037a	0.029908884
4	0x3c934c71	0.017980786
5	0x3bc0175f	0.005862161
6	0xbcc3e578	-0.02391313
7	0x3ca02001	0.01954651
8	0x3cb9e33d	0.022691363
9	0x3d1d87c7	0.038459565
10	0xbd014a42	-0.03156496
11	0x3d210c14	0.03931816
12	0x3cdd8f6a	0.027045924
13	0x3c589dbc	0.013221201
14	0x3ca5c1c9	0.020234006
15	0xbcb97838	-0.022640333
16	0x3ca1dde5	0.019759128
17	0xbca19ca8	-0.01972802
18	0x3cde8fb8	0.02716814
19	0xbce094ec	-0.027414761
20	0xbd2a34c1	-0.041554216
21	0xbcc7b608	-0.024378791
22	0xbd50c3e6	-0.050968073
23	0xbd3d1251	-0.046160046
24	0x3d6ccb13	0.057810854
25	0x3d06ddf1	0.032926504
26	0xbb77ef40	-0.0037831813
27	0x3c52d4dc	0.012868132
28	0x3abc3421	0.0014358797
29	0x3d286aa2	0.041117318
30	0x3c5cccf0	0.013476595
31	0xbc9a17dc	-0.018810205
32	0x3d25cadc	0.040476665
33	0x3d4774e5	0.048695464
34	0xbc55e252	-0.013054447
35	0xbca78208	-0.020447746
36	0xbc3477b0	-0.011014864
37	0x3d2bc428	0.041935116
38	0x3cb18c22	0.021673266
39	0x3d270c36	0.04078313
40	0x3ca6ce04	0.020361908
41	0xbba143b0	-0.004921399
42	0x3d021a77	0.03176352
43	0xbd10f732	-0.035391994
44	0xbcdd0923	-0.026981896
45	0xbc3bf764	-0.011472557
46	0x3d2d5219	0.042314623
47	0xbc54cf40	-0.012988865
48	0x3d067b3f	0.03283238
49	0xbd09d56c	-0.0336508
50	0x3bfb4e6c	0.0076692607
51	0xbb79a8c1	-0.003809497
52	0xbd835ff8	-0.06414789
53	0xbca45b98	-0.020063207
54	0xbbed03a2	-0.007233099
55	0x3d254a98	0.04035434
56	0xbc2d192d	-0.010565084
57	0xbd169d28	-0.03677097
58	0xbb9cb512	-0.0047823275
59	0x3d2b628c	0.04184203
60	0xbd1a4921	-0.037667397
61	0x3be557c0	0.006998986
62	0x3d11b0ce	0.035569005
63	0xbbe8a9e2	-0.0071003297
64	0xbd22fc18	-0.039791197
65	0x3cbe816e	0.023255076
66	0x3d39eb88	0.045390636
67	0xbccb29c0	-0.024800181
68	0x3b54370b	0.003238144
69	0xbcbae5ea	-0.02281471
70	0xbc7dbee4	-0.015487406
71	0xbc6b3941	-0.014356912
72	0xbaec8df3	-0.0018047675
73	0xbd90f0ff	-0.07077216
74	0xbd62fdcc	-0.05541782
75	0xbcbd4f12	-0.023108993
76	0x3d02c38d	0.031924773
77	0xbd0cef0b	-0.034407657
78	0xb9973906	-0.0002884345
79	0xbc745695	-0.014913221
80	0xbd71c887	-0.05902913
81	0xbc9011dd	-0.017586643
82	0x3d1bceb3	0.03803892
83	0xbd4a1ad3	-0.049341988
84	0x3cb34c29	0.021886902
85	0x3d271728	0.040793568
86	0x3bbfe169	0.0058557284
87	0xbcd3585c	-0.025798969
88	0xbd4ad981	-0.049523834
89	0xbc85783b	-0.016292682
90	0xbd338839	-0.043831084
91	0x3cb76dd8	0.022391245
92	0xbd248ac4	-0.0401714
93	0xbcef13ba	-0.029184211
94	0x3bde01f3	0.0067751347
95	0x3c520e4a	0.01282079
96	0xbd22b4ce	-0.03972321
97	0x3d3489a8	0.04407659
98	0x3c9e07f5	0.019290904
99	0x3b684ebb	0.0035447318
100	0x3c80701d	0.01567846
101	0xbd0f628e	-0.0350061
102	0xbc751bd1	-0.014960245
103	0xbd542556	-0.05179342
104	0x3d0e20ea	0.034699358
105	0x3d2fc148	0.042908937
106	0xbc6ddefa	-0.014518494
107	0xbacccd7a	-0.0015625202
108	0xbcececda	-0.028921533
109	0x3cda7ec5	0.026671777
110	0x3cecfd5e	0.028929409
111	0x3c30d1de	0.010792224
112	0xbb022f95	-0.0019864787
113	0x3c9b2bde	0.018941816
114	0xbcfe014d	-0.03100648
115	0xbca0ee49	-0.019644873
116	0xb9d49cc7	-0.000405526
117	0x3d35f487	0.044422653
118	0x3caea176	0.021317225
119	0x3c4bf3a2	0.012448223
120	0xbabd4bef	-0.0014442186
121	0xbc469044	-0.012119357
122	0x3d69afc0	0.057052374
123	0x3cd3d983	0.025860554
124	0xbd03ff7e	-0.03222608
125	0x3d0c938d	0.034320403
126	0x3d4c1e8a	0.04983381
127	0x3c5ad687	0.013356811
128	0xbaa55d9f	-0.0012616402
129	0xbc272c70	-0.010203466
130	0xbd3fd66b	-0.046835344
131	0x3c96f143	0.01842559
132	0x3d5f7518	0.05455503
133	0xbc8a1330	-0.016854852
134	0xbb01d5f7	-0.001981137
135	0xbd478754	-0.048713043
136	0x3cd76e0d	0.026297593
137	0xbd55a7ab	-0.052161854
138	0xbc309d7d	-0.010779736
139	0x3d304ae9	0.04304019
140	0xbd09205e	-0.033478133
141	0xbb308a76	-0.0026937998
142	0x3cf99611	0.030467065
143	0xbcafb9ff	-0.021450995
144	0x3cb9169a	0.022593785
145	0xbc306b6c	-0.010767799
146	0xbcb34717	-0.021884484
147	0x3ca2907e	0.01984429
148	0xbcc3f042	-0.023918275
149	0x3ca2c3ea	0.01986881
150	0xbb8b32fb	-0.0042480207
151	0xb91cfb3c	-0.00014970911
152	0x3d13b6bb	0.036062937
153	0x3d0de9c4	0.034646764
154	0x3a37ab5f	0.0007006432
155	0xbcf2401a	-0.029571582
156	0xbd4b3627	-0.04961219
157	0xbac513a3	-0.001503576
158	0xbd180999	-0.037118528
159	0x3c88fb5e	0.016721424
160	0x3d212628	0.03934303
161	0xbd0edfef	-0.03488153
162	0xbc9bebc1	-0.019033315
163	0x3c66dd60	0.014090866
164	0xbd5734a0	-0.05254042
165	0xbc859589	-0.016306655
166	0xbcbbdd61	-0.02293271
167	0xbcf04b0e	-0.029332664
168	0xbc570a7d	-0.013125059
169	0x3d4252b0	0.04744214
170	0x3d34e753	0.04416592
171	0xbd308aa4	-0.043100968
172	0xbd70aa35	-0.058756072
173	0x3c8ec7f9	0.017429339
174	0x3b329c4f	0.0027253812
175	0x3d5f369b	0.054495435
176	0x3cf7d44e	0.030252602
177	0xbb98cebc	-0.0046633165
178	0xbccd4152	-0.025055561
179	0xbd485222	-0.048906453
180	0xbcbdbc18	-0.02316098
181	0xbc0f0848	-0.008730002
182	0x3d213bf5	0.03936382
183	0x3d260fab	0.040542286
184	0xbc1cef04	-0.00957847
185	0xbc1c2f66	-0.009532785
186	0xbd076b6b	-0.033061426
187	0x3d1686ab	0.036749523
188	0xbd375d40	-0.044766665
189	0x3c28b3af	0.010296746
190	0x3c51cd6a	0.012805322
191	0xbcbe20ae	-0.023208942
192	0x3d32c01f	0.043640252
193	0x3ce57726	0.028010916
194	0x3d37a598	0.044835657
195	0x3d05621d	0.03256427
196	0x3d39ad6c	0.045331404
197	0x3cb3ba0d	0.021939302
198	0xbba1f560	-0.004942581
199	0xbcb27d9f	-0.021788416
200	0x3ba3a8d2	0.00499449
201	0x3d90c2a1	0.070683725
202	0x3d107829	0.035270844
203	0xbc1c9563	-0.009557101
204	0xbd12a28b	-0.035799544
205	0x3d0757a7	0.033042576
206	0xbcd54bc2	-0.0260371
207	0x391c4ef5	0.00014906733
208	0x3cf908ef	0.030399768
209	0xbccef39d	-0.025262648
210	0x3ab22f52	0.0013594425
211	0xbd00d7fc	-0.03145598
212	0xbb5605f9	-0.0032657369
213	0xbceebcf6	-0.029142838
214	0x3cae01a4	0.021241017
215	0xbb4b29de	-0.0031000297
216	0x3d305f30	0.043059528
217	0xbcfb9782	-0.030711893
218	0x3c93d547	0.018046035
219	0xbd71defd	-0.05905055
220	0x3d1326ff	0.03592586
221	0xbc51a7c6	-0.012796348
222	0xbbc9d9c8	-0.0061599948
223	0xbc9d8326	-0.019227576
224	0x3a5e8b5d	0.00084893947
225	0x3c2dc5d2	0.010606246
226	0xbc9c0c6e	-0.019048896
227	0xbcdc1a26	-0.026867937
228	0x3c3d4372	0.011551725
229	0x3b24d553	0.0025151565
230	0x3b194efc	0.0023393026
231	0xbd067166	-0.03282299
232	0x3c434c8d	0.011920107
233	0x3baa5ded	0.005199185
234	0x3d666dff	0.056257244
235	0xbcab8ea9	-0.02094205
236	0xbd0caefd	-0.03434657
237	0xbcc037dd	-0.023464138
238	0x3d42a6d2	0.047522373
239	0x3c21d88d	0.00987829
240	0x3d545244	0.051836267
241	0xbc2b90a8	-0.0104715
242	0x3d4382f9	0.047732327
243	0xbd09a37b	-0.033603173
244	0x3d58c668	0.05292359
245	0x3d1e2de2	0.038617976
246	0x3d0ccc94	0.03437479
247	0xbb14a74a	-0.002268272
248	0xbd1db708	-0.03850463
249	0x3d85741c	0.06516287
250	0xbd0c5f97	-0.03427085
251	0xbc8d925d	-0.017281706
252	0x3d28859a	0.041143037
253	0x3ce17dbd	0.027525777
254	0xbb60daf0	-0.0034310184
255	0xbb9b3a6d	-0.0047371895

conv1.lin_self.bias f4 [32]
0	0x3d0f681b	0.035011392
1	0x3d713c55	0.058895428
2	0x3d8025ad	0.06257186
3	0xbcf5c84a	-0.030002732
4	0xbce1ba87	-0.027554763
5	0x3c0b1fd1	0.008491472
6	0xbd3f2cf5	-0.046673734
7	0xbcb7b60c	-0.022425674
8	0x3c8c823b	0.017151942
9	0xbcd0793a	-0.02544843
10	0xbd042ad7	-0.032267418
11	0xbbc4d44a	-0.006006752
12	0xbd15ecb9	-0.03660271
13	0xbc4ff20d	-0.012691987
14	0x3c6911a0	0.0142253935
15	0xbd1fc3e7	-0.039005186
16	0xbcc84043	-0.024444705
17	0xbcfbde8d	-0.030745769
18	0xbc4ff8c1	-0.012693585
19	0x3d4546ba	0.048163153
20	0xbd2b8b26	-0.04188075
21	0xbc1f79a6	-0.009733593
22	0x3d316b49	0.043315206
23	0xbd6a2327	-0.05716243
24	0xbcb06694	-0.021533288
25	0xbd6581c9	-0.056031976
26	0x3d104da1	0.035230283
27	0x3d0e83ab	0.034793537
28	0xbc2de098	-0.010612629
29	0x3d1af402	0.03783036
30	0x3d7f8f0b	0.062392276
31	0x3d1e1454	0.038593605

conv2.lin_neigh.weight f4 [32, 416]
0	0xbd5634e2	-0.052296527
1	0x3cec1df4	0.028822877
2	0xbd0e0818	-0.034675688
3	0xbd2ae7d3	-0.04172499
4	0xbb53e7ad	-0.0032334134
5	0xbcda009f	-0.026611624
6	0x3d14842b	0.036258858
7	0xbd2eaec1	-0.042647127
8	0xbc587ec1	-0.013213814
9	0x3ce58f98	0.028022572
10	0xbd0e15a8	-0.03468862
11	0xbd3bc1cc	-0.045839116
12	0xbc02d5d5	-0.007985552
13	0xbbb01419	-0.0053734896
14	0xbd295818	-0.04134378
15	0xbc9795ee	-0.01850411
16	0xbc69609b	-0.014244224
17	0xbae542be	-0.0017491204
18	0x3c6a99db	0.014318909
19	0xbc82279a	-0.015888024
20	0xbd79e080	-0.061005116
21	0xbd463f28	-0.048400074
22	0x3c4b310b	0.0124018295
23	0x3ce3dbb7	0.02781473
24	0xbd4d3e73	-0.050108384
25	0x3c8187c6	0.015811812
26	0x3c1d03d9	0.009583437
27	0xbd2c9407	-0.042133357
28	0xbd4ef08b	-0.05052237
29	0x39665e04	0.00021969533
30	0xbc179ee1	-0.009254188
31	0xbc29d94a	-0.010366747
32	0x3c9a2338	0.018815622
33	0x3ce9ac7c	0.02852463
34	0xbd0ed384	-0.034869686
35	0xbaf0f6f6	-0.0018384147
36	0xbbc523f7	-0.0060162502
37	0x3afb79e1	0.0019186103
38	0x3cde720e	0.027153995
39	0xbd811991	-0.063037045
40	0x3d460e59	0.048353527
41	0xbc9c3907	-0.019070162
42	0xbc61a1dc	-0.0137715
43	0xbc92f95a	-0.017941166
44	0xbbe5b2a2	-0.00700982
45	0xbcc42bc0	-0.023946643
46	0xbcec0f95	-0.028816024
47	0x3c430dc4	0.011905137
48	0x3cac0fdb	0.021003654
49	0x3d795373	0.0608706
50	0x3ce24850	0.027622372
51	0x3d4c7e95	0.049925406
52	0x3d446db5	0.047956187
53	0x3c4c95b3	0.012486863
54	0xbc56d7ba	-0.013112957
55	0x3cf10e60	0.0294258
56	0xbd504f4f	-0.050856885
57	0x3c69dd14	0.014273901
58	0xbc7226bc	-0.014779743
59	0xbb93d5f7	-0.0045115906
60	0x3d0d8e07	0.034559276
61	0xbcf349ea	-0.02969833
62	0x3c7df45e	0.015500156
63	0xbd7362b2	-0.059420295
64	0xbcd5a582	-0.026079897
65	0xbd592cf7	-0.053021397
66	0x3d644354	0.05572827
67	0x3d03f4c6	0.032215856
68	0xbd42a95c	-0.047524795
69	0xbcc0df29	-0.023543911
70	0x3d6f605c	0.058441505
71	0xbca19ebd	-0.019729013
72	0x3cdf4666	0.027255248
73	0x3c5aa718	0.013345502
74	0xbd458688	-0.048224002
75	0xbd095622	-0.03352941
76	0xbd5e497e	-0.054269306
77	0x3d1019b9	0.03518078
78	0xbafa7d6d	-0.0019110866
79	0x3bd27feb	0.0064239404
80	0x3c33d9d6	0.010977229
81	0xbccaf02a	-0.024772722
82	0x3b8cae4d	0.004293239
83	0xbccef1ea	-0.025261838
84	0x3c1b1082	0.009464385
85	0xbd6b38c9	-0.0574272
86	0xbccdf1e6	-0.02513976
87	0xbb8abc3b	-0.0042338646
88	0xbc585633	-0.013204145
89	0xbcd4a87d	-0.025959248
90	0xbcf8eb82	-0.030385736
91	0xba20987f	-0.00061262393
92	0xbbfe8f66	-0.0077685593
93	0xbcb8b7ba	-0.022548545
94	0x3d4233c6	0.047412656
95	0x3ceac6b4	0.028659202
96	0xbd620a94	-0.05518587
97	0xbd34899e	-0.044076554
98	0xbd5efb11	-0.054438654
99	0x3d11a910	0.03556162
100	0xbc91d991	-0.017803939
101	0xbd32b2ab	-0.043627422
102	0xbc9f3bd1	-0.019437702
103	0xbca97203	-0.020684248
104	0x3cb290c4	0.021797545
105	0xbd69151a	-0.05690489
106	0x3d3e514d	0.046464253
107	0x3b490aaf	0.0030676534
108	0xbc856dde	-0.01628774
109	0xbd4fc6ae	-0.050726585
110	0x3c9af3c2	0.01891506
111	0xbbc3b9e1	-0.005973086
112	0x3c22dbdf	0.009940117
113	0x3c1f9a47	0.009741372
114	0xbcff2bc1	-0.031148793
115	0x3cc1840c	0.023622535
116	0x3c819c9d	0.01582175
117	0x3ba9ddb4	0.0051839
118	0x3d57b9f0	0.05266756
119	0xbd4e733c	-0.050402865
120	0x3cbf469e	0.023349103
121	0xbd52a4c5	-0.051426668
122	0xb9b684d9	-0.00034812724
123	0xbc478f10	-0.012180105
124	0x3ce6e524	0.028185435
125	0x3c42561e	0.011861352
126	0x3d5fb09c	0.054611787
127	0xbd77ca3b	-0.060495596
128	0x3cb91fcd	0.022598172
129	0x3d11f77d	0.035636414
130	0x3b828772	0.0039834315
131	0xbbcb9f70	-0.006214075
132	0x3d16b8f2	0.03679747
133	0xbc272e47	-0.0102039045
134	0x3cf06391	0.029344352
135	0xbcfe3dfb	-0.031035414
136	0x3b8b9998	0.004260253
137	0x3d81c5a8	0.06336528
138	0xbd119ac5	-0.03554799
139	0xbd216c83	-0.039410125
140	0x3c6adef2	0.014335381
141	0x3cd457f3	0.025920844
142	0xbd5cf4bb	-0.05394433
143	0xbcf9dc44	-0.030500539
144	0x3d21072a	0.039313473
145	0x3d5558b6	0.052086554
146	0xbc4dd9e0	-0.0125641525
147	0x3c89250c	0.016741298
148	0xbccc34ff	-0.024927614
149	0x3d590ed3	0.052992653
150	0xbd7b8aed	-0.061411787
151	0xbd180c02	-0.037120827
152	0xbc4849fa	-0.012224669
153	0x3d12a260	0.035799384
154	0xbb8d6a10	-0.004315622
155	0x3cf9c389	0.030488746
156	0x3cc26e17	0.023734136
157	0x3bf69a49	0.0075257164
158	0xbc011be6	-0.007880187
159	0x3c0bb0df	0.008526056
160	0xbc9f5b72	-0.019452784
161	0x3b6ca08c	0.0036106436
162	0x3cd81690	0.026377946
163	0x3c8c4249	0.017121451
164	0x39c0f6a0	0.00036804844
165	0xbcbe2824	-0.0232125
166	0x3aecd3c3	0.0018068481
167	0xbc7c805d	-0.015411464
168	0xbc7e35ad	-0.015515727
169	0xbd2ad14a	-0.0417035
170	0x3d324e8a	0.043531932
171	0x3bd76ec6	0.0065744845
172	0x3ca60f0c	0.020270847
173	0xbd53c932	-0.051705547
174	0xbbbb005e	-0.005706831
175	0xbd18d96c	-0.037316725
176	0x3d4ee0ee	0.05050748
177	0xbd252919	-0.040322397
178	0x3ba654a4	0.005076008
179	0x3c9f5b2f	0.01945266
180	0xbd108c90	-0.0352903
181	0xbaa17339	-0.0012317664
182	0x3cd97712	0.026546035
183	0x3b17efd5	0.0023183723
184	0x3bca6c6e	0.0061774766
185	0x3c8efed5	0.017455498
186	0x3d1c0413	0.038089823
187	0xbb188053	-0.0023269847
188	0xbd0805df	-0.033208724
189	0x3cc16c09	0.023611085
190	0x3d8081f6	0.06274788
191	0xbd493b0c	-0.049128577
192	0x3d1f3407	0.038867977
193	0x3c28352d	0.010266584
194	0x3cb1e9e1	0.021717967
195	0xbcafbeac	-0.021453224
196	0x3d546f2b	0.05186383
197	0x3a4d08fd	0.0007821469
198	0x3bc5f554	0.0060412083
199	0x3d03e01f	0.03219616
200	0xbd39edd9	-0.045392845
201	0xbd526d7d	-0.051373947
202	0x3d0c8818	0.034309477
203	0x3d650679	0.055914376
204	0x3cfad7c7	0.030620469
205	0x3d3673bb	0.044543963
206	0xbc5f3b2b	-0.013624947
207	0xbcb81d07	-0.022474779
208	0xbc6f9b82	-0.014624478
209	0xbd14dff4	-0.03634639
210	0x3d02f3d1	0.031970803
211	0xbd1eb5c0	-0.03874755
212	0xbc60ee39	-0.013728672
213	0x3d416f6e	0.04722541
214	0xbc99c9ba	-0.018772949
215	0xbd0ba279	-0.034090493
216	0xbcd04e3e	-0.025427934
217	0x3d276c06	0.040874504
218	0x3bc3e8e0	0.0059786886
219	0xbc0b338b	-0.0084961755
220	0xbd04e5a9	-0.032445583
221	0xbd38b7c0	-0.045097113
222	0x3be18a17	0.0068829167
223	0x3cc9d0ca	0.024635691
224	0x3d1cb67a	0.03825996
225	0x3cfe283b	0.031025043
226	0xbd031c5b	-0.032009464
227	0x3d078594	0.033086374
228	0x3d28c45a	0.04120288
229	0xbb4ea298	-0.003153002
230	0x3d00f889	0.03148702
231	0xbd42175e	-0.047385566
232	0x3d5e6a31	0.05430049
233	0xbcd8e195	-0.026474753
234	0xbd5ca3da	-0.0538672
235	0x3cc67e69	0.024230199
236	0x3c72c246	0.014816826
237	0xbd07fde9	-0.033201132
238	0xbb0d3e0a	-0.002155187
239	0x3cc09e5b	0.02351301
240	0x3d52f9e7	0.051507857
241	0xbcf481f3	-0.02984712
242	0x3d3eebef	0.046611723
243	0x3c53a3c6	0.012917465
244	0x3bd7252b	0.00656571
245	0xbcd6ee48	-0.026236668
246	0x3ab69432	0.0013929664
247	0x3c998eca	0.018744845
248	0xbc5b47b4	-0.013383795
249	0xbccf64ed	-0.02531668
250	0x3ca948fd	0.020664686
251	0xbccc78dd	-0.024959976
252	0x3cd1c000	0.025604248
253	0x3c3b9448	0.011448927
254	0x3d31631a	0.0433074
255	0x3a84a870	0.0010120999

conv2.lin_neigh.bias f4 [32]
0	0xbce080f7	-0.027405245
1	0xbd595faa	-0.053069748
2	0xbd6068a4	-0.054787293
3	0xbd540cc3	-0.051769983
4	0xbd434595	-0.04767378
5	0xbd653ba3	-0.055965077
6	0x3c5592a2	0.013035448
7	0xbbc7c0dd	-0.006095989
8	0xbd4d3bcc	-0.050105855
9	0xbd481039	-0.048843596
10	0xbcf1ed0b	-0.029531976
11	0xbd93be5d	-0.07214043
12	0x3cb90f75	0.022590378
13	0xbd6e9831	-0.05825061
14	0x3c985b81	0.01859832
15	0xbd20c2bd	-0.039248217
16	0xbd0723eb	-0.03299324
17	0x3c32d0a6	0.0109140035
18	0x3b82f7d7	0.00399683
19	0xbd91d2d2	-0.07120289
20	0xbd460149	-0.04834107
21	0x3ca67676	0.020320158
22	0x3b2f384b	0.0026736434
23	0xbceccbeb	-0.02890583
24	0xbd92dcc1	-0.07171012
25	0xbd5634ac	-0.052296326
26	0xbd7529d3	-0.05985434
27	0xbcdfcb2b	-0.027318558
28	0xbd77b834	-0.060478404
29	0xbd1cacd4	-0.03825076
30	0xbd94a308	-0.07257658
31	0x3ca2f0f7	0.019890292

conv2.lin_self.weight f4 [32, 32]
0	0xbdf4cf9f	-0.11953663
1	0xbbf377bb	-0.0074300445
2	0xbcfac2dd	-0.030610496
3	0x3e192da2	0.14958814
4	0xbd1ebd6a	-0.038754858
5	0xbb9a1ed7	-0.0047033834
6	0xbceec78f	-0.029147891
7	0xbe113b28	-0.14182723
8	0xbe2080f2	-0.15674189
9	0xbdd89f26	-0.1057723
10	0x3b0116b4	0.001969737
11	0x3d922d32	0.071375266
12	0xbda9b52f	-0.08286511
13	0x3cab1a4f	0.020886568
14	0x3ded5aa4	0.11589554
15	0xbde12f47	-0.109953456
16	0xbd43e4c4	-0.04782559
17	0xbe158fee	-0.14605686
18	0xbe3a58aa	-0.18197885
19	0xbddc021a	-0.10742588
20	0xbdd27df8	-0.10277933
21	0xbd9385d5	-0.07203261
22	0xbd8a4185	-0.06750778
23	0x3dfe862e	0.124279365
24	0xbd9a4fd0	-0.07534754
25	0x3c5775ce	0.013150645
26	0xbceef880	-0.029171228
27	0xbe3fd43c	-0.18733305
28	0xbe275ca4	-0.16343933
29	0xbd28ef32	-0.04124374
30	0xbd2f6ab9	-0.042826388
31	0x3e12ba09	0.1432878
32	0xbe14544b	-0.1448528
33	0x3d0bfae4	0.034174815
34	0xbc45d392	-0.012074368
35	0xbe2bfda9	-0.16795982
36	0x3df6a70c	0.120435804
37	0xbd97c74a	-0.07411058
38	0xbbb49cda	-0.005511862
39	0xbd20a6e9	-0.039221678
40	0xbdf9068c	-0.12159452
41	0xbd2c7aee	-0.042109422
42	0xbda1389f	-0.07872128
43	0xbd9091a3	-0.07059028
44	0x3b388dc9	0.0028160682
45	0xbdabb973	-0.08384981
46	0xbdaca889	-0.08430583
47	0xbc2f63f5	-0.010704984
48	0x3d64ce5e	0.05586087
49	0xbdd7e9b6	-0.10542624
50	0xbe49b18d	-0.19696636
51	0x3e08c1a2	0.13355115
52	0x3d841e71	0.06451119
53	0x3d636417	0.055515375
54	0xbdb004c3	-0.08594658
55	0xbe0b585e	-0.13607928
56	0xbe3788bd	-0.17923255
57	0xbe038362	-0.12843087
58	0x3d8900b2	0.06689586
59	0xbe1eef31	-0.15520932
60	0x3de73005	0.11288456
61	0x3df0bd3b	0.11754843
62	0x3ccebea9	0.025237398
63	0x3d6309b5	0.05542918
64	0x3e1c46f9	0.15261449
65	0xbd52211a	-0.0513011
66	0xbe1f9dbd	-0.15587516
67	0xbd9bbea7	-0.076047234
68	0x3d9feef6	0.0780925
69	0x3ded315c	0.1158168
70	0xbca0e08a	-0.019638319
71	0xbe1e3f5f	-0.15453862
72	0x3da3b7a1	0.07994009
73	0xbbc87661	-0.0061176275
74	0xbd56c02f	-0.052429374
75	0x3e02fecd	0.12792511
76	0x39d53d73	0.0004067231
77	0x3d8ce836	0.06880228
78	0xbe44ed30	-0.19231105
79	0x3df18eb9	0.117948
80	0xbdbfb31b	-0.093603335
81	0xbe3600dc	-0.17773765
82	0xbd5e9e7b	-0.054350358
83	0xbe36c9a5	-0.17850359
84	0xbde45927	-0.11149817
85	0xbd0a3781	-0.03374434
86	0xbd22969e	-0.03969442
87	0xbdc3f0c2	-0.09567405
88	0xbdbb73fa	-0.0915298
89	0xbda392f2	-0.07987012
90	0xbe2fa0e1	-0.17151214
91	0x3e1152b3	0.14191703
92	0x3c168e3c	0.009189185
93	0xbdf5fbc5	-0.12010912
94	0x3db3a697	0.08772009
95	0x3dded3fb	0.10880276
96	0x3e1e8022	0.15478566
97	0x3e19cfb9	0.15020646
98	0x3e04bac0	0.12961864
99	0xbe069a8f	-0.13144897
100	0xbdfb7a3b	-0.12279173
101	0x3dc2e12b	0.09515604
102	0xbc1a3aaa	-0.009413401
103	0x3d4a9993	0.049462866
104	0xbdf13c2e	-0.117790565
105	0xbe2002f7	-0.15626131
106	0xbd87b98e	-0.066271886
107	0xbdecab1d	-0.11556075
108	0x3e07fe57	0.13280617
109	0x3cc066d9	0.023486542
110	0xbc2b4ace	-0.010454847
111	0x3d253424	0.04033293
112	0x3e229491	0.15876986
113	0x3e36d85f	0.17855977
114	0x3db88146	0.09009032
115	0xbde6daa2	-0.1127217
116	0x3c454d19	0.012042307
117	0xbde9ad67	-0.11410027
118	0xbe1623bb	-0.14662068
119	0x3e3ae803	0.18252568
120	0xbdfa8610	-0.12232602
121	0xbdf83c16	-0.121208355
122	0x3db0af68	0.08627206
123	0xbc9a30a7	-0.018822027
124	0x3c12c5c7	0.008958287
125	0xbe14da5d	-0.14536424
126	0x3cdbbb9e	0.026822861
127	0xbe2f606c	-0.17126626
128	0xbd66ee31	-0.0563795
129	0xbdf3f41e	-0.11911796
130	0x3e381d58	0.17979944
131	0xbe44a188	-0.19202244
132	0xbde5566d	-0.11198125
133	0x3d99ec59	0.07515783
134	0xbb4a7fa9	-0.0030898845
135	0xbe2b7f1e	-0.1674771
136	0x3d13a934	0.036050037
137	0x3e5e7cb2	0.21727255
138	0xbdd95a94	-0.106129795
139	0x3d11d186	0.035600208
140	0xbe3ce31e	-0.18446013
141	0x3c91f17a	0.01781534
142	0x3ddf88b2	0.109147444
143	0x3c009684	0.007848386
144	0x3dab5faf	0.083678596
145	0xbd23b692	-0.039969034
146	0xbdc61e1e	-0.09673713
147	0x3e078165	0.13232954
148	0x3b98004b	0.004638707
149	0xbe3e2ce5	-0.18571813
150	0x3df45ef8	0.11932176
151	0xbdf7298e	-0.12068473
152	0x3d2e7471	0.042591516
153	0x3dfe9f7e	0.124327645
154	0x3d230b3d	0.03980564
155	0x3aff173d	0.0019461882
156	0x3d9b99b9	0.0759768
157	0x3d010548	0.031499177
158	0xbdf936a6	-0.121686265
159	0xbce42538	-0.027849779
160	0xbda323c3	-0.079658054
161	0x3d84c88b	0.06483563
162	0xbda67b03	-0.081289314
163	0x3be2f8f2	0.0069266493
164	0x3e07924c	0.13239402
165	0x3e1654c1	0.14680769
166	0x3e134ee8	0.14385569
167	0xbdc55991	-0.09636224
168	0x3d7841f8	0.060609788
169	0x3da08a73	0.07838907
170	0xbd0c0c0d	-0.03419118
171	0x3e10c2fc	0.1413688
172	0x3e336593	0.17519216
173	0xbd937d5e	-0.07201646
174	0x3c2da8d8	0.0105993375
175	0x3e253e7c	0.16137117
176	0x3db87fdf	0.090087645
177	0x3e307c95	0.17235024
178	0xbe215caf	-0.15758012
179	0xbd5b46ec	-0.053534433
180	0x3e41a6f5	0.18911345
181	0xbd46eaff	-0.048563953
182	0x3e1b604a	0.1517345
183	0xbc8e3e32	-0.017363641
184	0xbe183fe5	-0.14868124
185	0x3e3db398	0.18525541
186	0x3d02048a	0.03174261
187	0x3daf7193	0.085665844
188	0x3dba3c2c	0.09093508
189	0xb9a67a7a	-0.0003175324
190	0xbe1aba67	-0.1511017
191	0x3c996153	0.018723166
192	0xbd4967ce	-0.04917126
193	0x3dcfab2f	0.101400726
194	0x3d777a5b	0.06041942
195	0x3d6fe7e5	0.05857076
196	0x3e27147a	0.16316405
197	0x3de87373	0.11350145
198	0x3e3ea366	0.18617019
199	0x3d0be64e	0.034155183
200	0x3dddb6c1	0.10825873
201	0x3e378f3a	0.1792573
202	0x3c79a0b9	0.015236073
203	0x3c412f7d	0.011791107
204	0x3da82e49	0.08211953
205	0x3d14555e	0.036214225
206	0xbd91c74b	-0.0711809
207	0x3e07d6cc	0.13265532
208	0x3d3f6aef	0.04673284
209	0xbcdded8a	-0.027090807
210	0xbe1258d6	-0.142917
211	0xbe13bbf3	-0.14427166
212	0xbdbe8aa8	-0.0930379
213	0xbe1f24a9	-0.15541328
214	0xbd7ce936	-0.061745845
215	0x3d193f49	0.03741387
216	0x3cbec0c7	0.023285283
217	0xbc53aa63	-0.012919041
218	0xbbf743f6	-0.0075459434
219	0x3de2c36e	0.110724315
220	0x3e0b11de	0.13581035
221	0xbdc8199b	-0.09770509
222	0xbe118fde	-0.14215037
223	0xbe2a3807	-0.16622935
224	0xbe113c34	-0.14183122
225	0xbb413048	-0.002947824
226	0xbd51fc25	-0.051265854
227	0xbe20d57b	-0.15706436
228	0x3e1dc900	0.15408707
229	0xbe25d74a	-0.16195408
230	0xbbab5a7d	-0.005229293
231	0xbdcea0a5	-0.10089234
232	0xbe264a77	-0.16239344
233	0x3bc67386	0.006056252
234	0xbe36fd63	-0.17870097
235	0x3bc7a8be	0.0060931137
236	0xbe265830	-0.16244578
237	0xbd949afa	-0.07256122
238	0xbbb8d506	-0.0056406287
239	0xbde7cff9	-0.113189645
240	0x3ca51d30	0.02015552
241	0xbd1c2b8e	-0.038127474
242	0xbda2b80c	-0.079452604
243	0x3e1d96f3	0.15389614
244	0x3e091cfc	0.13389963
245	0xbe1cda80	-0.15317726
246	0xbdf45308	-0.119298995
247	0xbe24259b	-0.1602997
248	0xbd805067	-0.062653355
249	0xbdf4b84a	-0.11949213
250	0xbccfd5c8	-0.025370494
251	0xbdcce75e	-0.10005067
252	0xbdd815fa	-0.10551067
253	0xbd5e2204	-0.05423166
254	0xbd2ec386	-0.042666934
255	0xbc3be576	-0.011468282

conv2.lin_self.bias f4 [32]
0	0xbd8a6b11	-0.067587025
1	0xbd4e9dc3	-0.050443422
2	0xbe23d1bc	-0.15997976
3	0xbdff2590	-0.12458336
4	0x3a229766	0.00062023697
5	0xbd9cb85d	-0.07652352
6	0xbca70490	-0.020387918
7	0xbb4b1d04	-0.0030992636
8	0x3cf38b3c	0.029729478
9	0xbd08e826	-0.03342452
10	0x3e062bfd	0.13102718
11	0x3c90c5bc	0.017672412
12	0xbdad2d1e	-0.08455871
13	0x3daaf628	0.08347732
14	0x3dd8ab46	0.10579543
15	0x3dd8f7c4	0.105941325
16	0x3db91457	0.09037083
17	0x3c86f7b3	0.016475534
18	0x3df982a0	0.12183118
19	0xbcbd8b4d	-0.023137713
20	0xbd4d5439	-0.05012915
21	0x3ce1f729	0.027583675
22	0xbe1ce4b6	-0.15321621
23	0x3b9a9aa3	0.004718141
24	0x3d281582	0.041036136
25	0x3cb41ecf	0.021987347
26	0x3cd65a65	0.02616615
27	0x3dc1c75a	0.094618514
28	0xbe33c7e6	-0.17556724
29	0xbc0933ac	-0.008374136
30	0xbd7f6c2b	-0.062359016
31	0x3d863f9e	0.06555103

bn1.weight f4 [32]
0	0x3f79c0a3	0.97559565
1	0x3f7981fd	0.9746397
2	0x3f79000e	0.9726571
3	0x3f834ed0	1.0258427
4	0x3f8418b9	1.0320045
5	0x3f77f8a5	0.96863776
6	0x3f83b2b0	1.0288906
7	0x3f7db85f	0.9910945
8	0x3f8267da	1.0187943
9	0x3f84fdb5	1.0389925
10	0x3f80c256	1.0059307
11	0x3f78f730	0.9725218
12	0x3f81adf8	1.0131216
13	0x3f7a7f14	0.97850156
14	0x3f7e7f34	0.99412847
15	0x3f83ffae	1.0312402
16	0x3f7838b0	0.969615
17	0x3f7bd18c	0.9836662
18	0x3f809747	1.0046166
19	0x3f8248ed	1.0178505
20	0x3f84275a	1.0324509
21	0x3f7ba913	0.9830486
22	0x3f7dedbe	0.9919089
23	0x3f84456b	1.0333685
24	0x3f835eef	1.0263346
25	0x3f8194f5	1.0123583
26	0x3f7b2a11	0.98111063
27	0x3f79e7e3	0.97619456
28	0x3f79cc5f	0.9757747
29	0x3f797177	0.9743876
30	0x3f7ec1f5	0.99514705
31	0x3f79bb1b	0.97551125

bn1.bias f4 [32]
0	0xbccd4768	-0.025058463
1	0xbc910751	-0.017703684
2	0xbcb59927	-0.022167755
3	0x3c9504dc	0.018190794
4	0x3cc543b3	0.024080133
5	0xbcfb938c	-0.030710004
6	0x3c9ef27f	0.01940274
7	0xbcbd68f8	-0.023121342
8	0x3c7d4455	0.015458186
9	0x3be593f8	0.0070061646
10	0x3c0c990a	0.008581409
11	0xbcc517c1	-0.024059178
12	0xbc00b377	-0.007855288
13	0xbcc70589	-0.024294632
14	0xbc0cff4b	-0.008605788
15	0x3c5dfacf	0.013548567
16	0xbd00d840	-0.031456232
17	0xbcd88a5e	-0.026433166
18	0xba2a1292	-0.00064877525
19	0x3ca27d19	0.019835042
20	0x3d0134af	0.031544384
21	0xbcaa988f	-0.020824699
22	0x3bb63e37	0.005561616
23	0x3c7c35f7	0.015393726
24	0x3cba7962	0.022762958
25	0x3c695c0c	0.014243137
26	0xbc9c7902	-0.01910067
27	0xbc7a7656	-0.015287003
28	0xbccbda0c	-0.024884246
29	0xbc719fd0	-0.014747575
30	0x3b99b682	0.004690946
31	0xbcca0706	-0.024661552

bn1.running_mean f4 [32]
0	0x3e1d902b	0.15387027
1	0x3dc10fcd	0.09426842
2	0x3da86245	0.082218684
3	0x3bc0311e	0.00586523
4	0x3968914a	0.00022179369
5	0x3d1396a5	0.036032338
6	0x3a08152a	0.0005191142
7	0x3b853aaf	0.0040658335
8	0x3d64d766	0.055869482
9	0x39eba8a2	0.00044948334
10	0x3d1a1381	0.037616257
11	0x3c91515e	0.017738994
12	0x3b745393	0.003728126
13	0x3d1f11eb	0.038835447
14	0x3d2d382d	0.0422899
15	0x391dff15	0.00015067712
16	0x3b1b0c66	0.0023658513
17	0x37b4f8bd	2.15735e-05
18	0x3cdd90e4	0.027046628
19	0x3db8b93d	0.090197064
20	0x3b74608f	0.0037288999
21	0x3d5b23cf	0.053500947
22	0x3d5e0e8f	0.054213103
23	0x38f20366	0.00011540092
24	0x3cf5108a	0.029915113
25	0x3939363e	0.00017663182
26	0x3dad0c8f	0.08449661
27	0x3daccdc6	0.08437686
28	0x3c9c090b	0.01904728
29	0x3dda2918	0.10652369
30	0x3e12f115	0.14349778
31	0x3dff7546	0.1247354

bn1.running_var f4 [32]
0	0x3cd3a085	0.025833378
1	0x3c716132	0.014732646
2	0x3c67c570	0.014146194
3	0x3c1146f2	0.008867012
4	0x3c018c6e	0.007907016
5	0x3c532f43	0.012889686
6	0x3c0202b7	0.007935218
7	0x3c0a7749	0.008451291
8	0x3c4a4508	0.01234556
9	0x3c03e3a4	0.008049879
10	0x3c41bf11	0.011825339
11	0x3c2747e3	0.01021001
12	0x3c16b37a	0.009198064
13	0x3c53de86	0.012931472
14	0x3c5c62b8	0.013451271
15	0x3c016959	0.007898652
16	0x3c050ace	0.008120252
17	0x3c00b5c0	0.007855833
18	0x3c2c758f	0.010526075
19	0x3c6fc73a	0.014634902
20	0x3c16dda7	0.0092081195
21	0x3c6631b1	0.014049933
22	0x3c5b739d	0.013394264
23	0x3c011518	0.007878564
24	0x3c3fe247	0.011711664
25	0x3c01059b	0.007874872
26	0x3c69f62a	0.0142798815
27	0x3c71baf3	0.014754045
28	0x3c27b852	0.0102368165
29	0x3c5a215b	0.013313617
30	0x3c9513dc	0.018197946
31	0x3c70a8f9	0.014688724

bn2.weight f4 [32]
0	0x3f7b09ef	0.9806203
1	0x3f79c32b	0.9756343
2	0x3f7a6e81	0.97824866
3	0x3f7869c9	0.97036415
4	0x3f75154d	0.9573563
5	0x3f7660b2	0.96241295
6	0x3f78192d	0.96913415
7	0x3f7a9b17	0.978929
8	0x3f75755a	0.9588219
9	0x3f783c04	0.96966577
10	0x3f74c825	0.95617896
11	0x3f77a0ca	0.9672972
12	0x3f79c75e	0.97569835
13	0x3f75cf2a	0.9601923
14	0x3f75d650	0.9603014
15	0x3f74e699	0.95664364
16	0x3f75e552	0.9605304
17	0x3f781473	0.96906203
18	0x3f771005	0.9650882
19	0x3f7984ba	0.9746815
20	0x3f761157	0.9612021
21	0x3f76e426	0.96441877
22	0x3f774127	0.9658379
23	0x3f7474a7	0.954905
24	0x3f75c777	0.96007484
25	0x3f780174	0.9687722
26	0x3f7773e6	0.9666122
27	0x3f7472b1	0.95487505
28	0x3f75d13d	0.960224
29	0x3f750c67	0.9572205
30	0x3f759097	0.9592375
31	0x3f76ffd3	0.96484107

bn2.bias f4 [32]
0	0xbcb20356	-0.021730106
1	0xbcb34ddb	-0.02188771
2	0xbcac0ea3	-0.021003073
3	0xbcca7116	-0.024712127
4	0xbd0ad6aa	-0.033896126
5	0xbcf7c00a	-0.030242939
6	0xbccb43b0	-0.02481255
7	0xbcb0c83b	-0.021579852
8	0xbd0737a2	-0.03301204
9	0xbceb75fa	-0.028742779
10	0xbd346728	-0.04404369
11	0xbd2523f1	-0.04031748
12	0xbcbdffe0	-0.0231933
13	0xbd0ecd33	-0.034863662
14	0xbd476377	-0.04867884
15	0xbd223023	-0.039596688
16	0xbd3d3317	-0.0461913
17	0xbd01db84	-0.031703487
18	0xbd168020	-0.036743283
19	0xbcc1fb36	-0.023679357
20	0xbcf6e033	-0.030136203
21	0xbce907d4	-0.028446116
22	0xbcc62166	-0.024185847
23	0xbd112bd5	-0.035442192
24	0xbcf71736	-0.030162435
25	0xbce07150	-0.027397782
26	0xbd280009	-0.04101566
27	0xbd26a22c	-0.040682003
28	0xbcf7a81f	-0.030231534
29	0xbd0692e2	-0.032854922
30	0xbccfb668	-0.025355533
31	0xbd3944d5	-0.04523166

bn2.running_mean f4 [32]
0	0x3b2c4698	0.0026287194
1	0x3ba077bd	0.0048970864
2	0x3b9a3d5b	0.004707021
3	0x3c085605	0.00832129
4	0x3ddd7dc1	0.10815001
5	0x3d922fc6	0.07138018
6	0x3cd9e49f	0.026598273
7	0x3ba5209f	0.005039289
8	0x3e284161	0.1643119
9	0x3c4a55a4	0.01234952
10	0x3dffd79e	0.124922976
11	0x3ccd3cb8	0.025053367
12	0x3baa7119	0.0052014706
13	0x3e368229	0.1782309
14	0x3db077a7	0.08616572
15	0x3df344ae	0.11878334
16	0x3d2a3eea	0.041563906
17	0x3cd5e5ee	0.026110616
18	0x3e010007	0.12597667
19	0x3c3b129d	0.011418012
20	0x3d012dde	0.031537883
21	0x3d57d09e	0.052689187
22	0x3d0a9bf4	0.033840135
23	0x3dba3251	0.09091628
24	0x3d9bfb62	0.07616307
25	0x3d35a56d	0.044347215
26	0x3ca142ef	0.019685237
27	0x3dc22360	0.094794035
28	0x3d271c14	0.04079826
29	0x3da1c3f3	0.078987025
30	0x3c9f6906	0.019459259
31	0x3d5c4d01	0.053784374

bn2.running_var f4 [32]
0	0x3ca8f61a	0.020625163
1	0x3cb9d007	0.022682203
2	0x3cb8a301	0.022538664
3	0x3d109a63	0.035303485
4	0x3e689203	0.22711949
5	0x3e943e43	0.28953752
6	0x3e09ba87	0.13450061
7	0x3d01527c	0.031572804
8	0x3eca6c98	0.39535975
9	0x3d86b7c4	0.06578019
10	0x3d9909e7	0.07472592
11	0x3d92f5e5	0.07175807
12	0x3d0cc8c3	0.03437115
13	0x3e98b6b7	0.298269
14	0x3dcf15a5	0.1011155
15	0x3e488efa	0.19585791
16	0x3d0c1a07	0.03420451
17	0x3d6a681a	0.057228185
18	0x3e9cb4d4	0.3060671
19	0x3d6e75ab	0.058217686
20	0x3dcd57ab	0.10026487
21	0x3e13f5b9	0.14449205
22	0x3df09447	0.11747032
23	0x3e0a34eb	0.13496749
24	0x3e09d095	0.13458474
25	0x3db48c70	0.08815849
26	0x3d6c3fa1	0.05767787
27	0x3d798be7	0.060924437
28	0x3daac3bb	0.08338114
29	0x3ea606b7	0.32426998
30	0x3cfb4d41	0.030676486
31	0x3d8bc9aa	0.06825574
